2DVAE_Ch1_200.pth (torch, 552920 bytes, 14 tensors)

encoder_z.fc_layers.0.weight f4 [128, 400]
0.0639605 0.27523524 -0.38746417 0.06916604 -0.4415502 0.052448217 -0.78576964 -0.12922244
-0.16612497 -0.29119733 0.50224936 -0.0038592552 -0.28913948 -0.034522913 -0.2915474 -0.60183036
-0.8440375 -0.62632865 -0.41428334 -0.7400124 -0.8550121 -0.34845397 -0.38354215 0.066595
0.5789185 -0.23470278 -0.070214495 -0.26786658 0.7914982 0.39629033 0.3282511 -0.054779146
-0.09052199 0.58285123 -0.26162732 0.21987414 -0.056129493 -0.27238017 0.2311526 -0.11450419
0.54651445 0.42980635 0.31775802 0.21365955 -0.4060852 -0.4328013 0.33985108 0.7336382
0.78518534 0.94335395 0.7075754 0.74573076 0.764091 1.3518008 0.26409 0.20413092
0.22519375 0.055249196 0.25339034 -0.23200813 -0.22401708 -0.12234168 -0.6169744 0.05433309
-0.09966797 -0.5426911 -0.30814227 -0.9346756 -0.4184137 -0.5031387 -0.032995492 -0.53666127
-0.56816614 -0.34786844 -0.099239744 0.16072428 0.23692542 -0.38922605 -0.0063028554 0.015748966
0.09930736 0.0912554 -0.3335127 -0.009332894 0.13560504 0.1757421 0.025775168 0.02837304
0.15392743 0.024023121 0.04214291 -0.40112028 0.017291617 0.28246227 -0.12998377 -0.2967927
0.07470972 -0.46269742 0.0012229399 -0.024076171 0.1182363 0.36940962 -0.288396 -0.51012486
-0.14075911 -0.10513885 0.24913633 -0.084417604 -0.31527412 0.09691445 0.36340952 0.15535814
0.10219806 0.45396882 0.21732394 0.7578643 -0.25943202 0.15955658 0.022173343 0.28881067
0.8775251 -0.38338932 0.36648956 0.44197458 0.086901695 -0.11135809 -0.19216189 -0.32147172
-0.8635861 -0.9199875 -0.5777209 -0.2805333 -0.13142626 -0.083474435 -0.27718875 -0.47234195
-0.7200383 -0.77563703 -0.6466079 0.0622028 -0.052160915 -0.16630697 0.40475294 -0.29631242
0.07768675 -0.33738908 -0.07086492 -0.06912216 0.44151452 -0.54577744 -0.4961167 -0.61886877
0.24518801 -0.34405813 -0.23465939 -1.1133955 -0.5063093 -0.033866245 -0.78450096 -0.58345294
0.023364179 0.13810533 0.28691941 -0.4538674 -0.33645928 -0.5366334 -0.36564946 -0.20259039
0.0074906275 -0.11334311 -0.13374816 -0.19469304 -0.49964806 0.056593586 0.5117661 -0.75486726
-0.18034591 -1.1901573 -0.51844776 -0.3297765 0.19403122 0.022347432 -0.40632343 0.23717453
-0.11362164 -0.055297256 -0.2342683 -0.59797597 -0.5813499 0.07618906 0.5276084 -0.36929765
0.45986387 0.3775259 0.05210061 0.7545131 -0.1682914 -0.16516206 -0.694631 -0.8538513
-0.75096977 -0.6508311 -0.7012914 -1.4337995 -1.8536961 -1.8332673 -1.6167189 -1.0793668
-0.90727866 -0.6535013 -0.44420302 -0.20037985 0.07808654 0.27858028 0.21500017 0.4395434
0.60835 0.3673925 0.46389136 0.22823407 0.06418332 0.26838455 0.2830668 0.64290047
0.5264057 0.6984776 0.6126115 0.46027076 0.488599 0.5662291 0.67136586 0.5306303
0.2963237 0.24756181 0.15013388 -0.0017299324 0.4277432 0.6373656 0.8001273 0.60682094
0.8107746 0.74193466 0.5394977 0.2808269 0.409226 0.7679115 0.7704381 0.33199278
0.26489967 0.4940035 0.57945055 0.4107761 0.48541486 0.8458072 0.607802 0.6544028
00000000: b9fd 823d a2eb 8c3e b461 c6be eda6 8d3d
00000010: de12 e2be f1d3 563d 3328 49bf e352 04be
00000020: aa1c 2abe d117 95be 6a93 003f 8feb 7cbb
00000030: 170a 94be e667 0dbd b345 95be 8e11 1abf
00000040: d712 58bf 1357 20bf f21c d4be 7471 3dbf
00000050: 13e2 5abf 8f68 b2be a35f c4be f662 883d
00000060: 0134 143f ed55 70be 9ecc 8fbd cf25 89be
00000070: a09f 4a3f 91e6 ca3e 8710 a83e 1960 60bd
00000080: 9863 b9bd bd35 153f 04f4 85be b026 613e
00000090: 0ae8 65bd 6a75 8bbe 44b3 6c3e 2c81 eabd
000000a0: 5fe8 0b3f 940f dc3e 2eb1 a23e 92c9 5a3e
000000b0: 66ea cfbe 2298 ddbe f600 ae3e b7cf 3b3f
000000c0: e801 493f a57f 713f a923 353f 36e8 3e3f
000000d0: 789b 433f cf07 ad3f ce36 873e b207 513e
000000e0: 3199 663e fb4c 623d 61bc 813e 8a93 6dbe
000000f0: bc64 65be 468e fabd 09f2 1dbf 608c 5e3d
00000100: b81e ccbd ceed 0abf d3c4 9dbe e646 6fbf
00000110: 523a d6be b3cd 00bf 4826 07bd a262 09bf
00000120: 5673 11bf d01b b2be 353e cbbd e894 243e
00000130: 949c 723e a348 c7be 2f88 cebb fa03 813c
00000140: a861 cb3d 1ce4 ba3d 2dc2 aabe ffe8 18bc
00000150: 0cdc 0a3e bdf5 333e 7226 d33c 946e e83c
00000160: 279f 1d3e 23cc c43c 0b9e 2c3d a35f cdbe
00000170: 26a7 8d3c e59e 903e 771a 05be 36f5 97be
00000180: 6901 993d ade6 ecbe 0e4b a03a 643b c5bc
00000190: e025 f23d 4223 bd3e a4a8 93be 8b97 02bf
000001a0: 2823 10be 0a53 d7bd 981d 7f3e 23e3 acbd
000001b0: 9c6b a1be 157b c63d d010 ba3e 3416 1f3e
000001c0: 374d d13d 9a6e e83e 2b8a 5e3e 6503 423f
000001d0: 46d4 84be cd62 233e dfa4 b53c fede 933e
000001e0: 7ca5 603f 9b4b c4be 85a4 bb3e 7e4a e23e
000001f0: 84f9 b13d b60f e4bd 16c6 44be f197 a4be
00000200: fb13 5dbf 4d84 6bbf 84e5 13bf 10a2 8fbe
00000210: 9b94 06be a5f4 aabd afeb 8dbe ced6 f1be
00000220: 6e54 38bf 2690 46bf 1888 25bf 5dc8 7e3d
00000230: afa6 55bd 604c 2abe c73b cf3e 43b6 97be
00000240: 3b1a 9f3d 43be acbe a121 91bd eb8f 8dbd
00000250: 310e e23e 12b8 0bbf 0203 febe 2f6e 1ebf
00000260: 9112 7b3e 6328 b0be 8d4a 70be be83 8ebf
00000270: 7c9d 01bf 55b7 0abd 0ed5 48bf 2c5d 15bf
00000280: 3c66 bf3c 7c6b 0d3e 1ae7 923e 4f61 e8be
00000290: 6444 acbe ce60 09bf 6836 bbbe db73 4fbe
000002a0: f073 f53b 6f20 e8bd 47f5 08be 9d5d 47be
000002b0: dfd1 ffbe adce 673d 1a03 033f fb3e 41bf
000002c0: 99ac 38be 1357 98bf feb8 04bf 77d8 a8be
000002d0: 1fb0 463e f611 b73c a009 d0be e1dd 723e
000002e0: 76b2 e8bd 607f 62bd 07e4 6fbe f414 19bf
000002f0: 59d3 14bf 0309 9c3d 5811 073f 9514 bdbe
00000300: 4773 eb3e 134b c13e 7367 553d c527 413f
00000310: 9554 2cbe 3e20 29be 56d3 31bf 0096 5abf
00000320: 8e3f 40bf de9c 26bf d587 33bf be86 b7bf
00000330: ea45 edbf 81a8 eabf a5f0 cebf b128 8abf
00000340: 6a43 68bf dc4b 27bf 946e e3be 6030 4dbe
00000350: d6eb 9f3d 13a2 8e3e 0129 5c3e d50b e13e
00000360: d3bc 1b3f df1a bc3e 2b83 ed3e 31b6 693e
00000370: 8b72 833d b369 893e 22ee 903e 2095 243f
00000380: 86c2 063f 6ecf 323f 1bd4 1c3f 9ca8 eb3e
00000390: a629 fa3e 64f4 103f a2de 2b3f 63d7 073f
000003a0: bdb7 973e d880 7d3e b2bc 193e e6be e2ba
000003b0: 2801 db3e 642a 233f 25d5 4c3f 9e58 1b3f
000003c0: ed8e 4f3f 6eef 3d3f 851c 0a3f 8bc8 8f3e
000003d0: 1286 d13e d995 443f 6e3b 453f f5fa a93e
000003e0: eea0 873e 07ee fc3e df56 143f 3f51 d23e
000003f0: 4c88 f83e d286 583f e998 1b3f f186 273f

encoder_z.fc_layers.0.bias f4 [128]
-0.28972486 2.2500021 -0.0012880798 -0.62135834 -0.013102343 0.7365931 -1.0213221 1.6068449
0.0048949486 -0.10005475 1.6755277 0.0010949727 0.030262014 1.2598493 2.0285687 0.106960215
-1.6198134 -1.193382 -0.0027634068 1.9359573 0.34287342 -0.14870435 0.013400569 1.1925147
0.41202292 -0.5769156 1.4220723 0.053499218 -1.893926 -0.6299228 1.4304869 -0.4427092
0.46396512 2.495364 -0.121811084 1.499193 -0.93084127 -0.71076274 -0.3074431 1.4830419
-0.72060114 1.4545568 -0.02897906 1.6245446 0.009427777 -0.3616341 0.9800616 0.012843709
-0.016901134 -1.9638743 -1.6571574 0.027681485 2.0829008 -1.2816818 1.044823 1.9468325
-0.008844577 -0.14306484 -1.3361765 -0.002904417 -0.23330507 -2.512681 -0.0377781 0.07815087
0.32208374 0.40185294 -0.0068468167 0.039666384 -1.6627262 0.03456156 -1.7722242 0.022508094
-0.5132141 0.7947755 -1.9955535 -0.47837454 -0.033138063 1.374428 1.7192543 -0.51470554
-0.8560566 -0.90773165 1.1717856 -0.057391398 -0.0011711766 -0.32879746 -3.0080884 0.3017027
1.1875458 -2.3966913 -0.53248674 -0.52565944 0.4397767 -1.072614 -0.054054715 -0.17915203
2.1058989 1.4236722 -0.84034353 -0.6736568 -1.0756295 1.3086128 0.19195902 0.3581859
-0.58784777 -0.38497826 2.361984 0.0071527082 0.012621026 -2.231128 0.9824992 -0.5495563
0.592608 0.4879261 -0.017419651 0.71158785 -0.035335366 -1.228361 -0.88701135 0.11917082
-0.015891494 -1.2092361 -2.4935212 -0.40969336 -1.6340688 -0.49510524 2.6204312 0.31569356
00000000: d156 94be 0900 1040 c9d4 a8ba 5711 1fbf
00000010: 36ab 56bc 5e91 3c3f afba 82bf 18ad cd3f
00000020: ce65 a03b 81e9 ccbd b177 d63f 3085 8f3a
00000030: 0be8 f73c be42 a13f 12d4 0140 f50d db3d
00000040: 0c56 cfbf bec0 98bf 461a 35bb 73cd f73f
00000050: 1b8d af3e f445 18be 0f8e 5b3c 52a4 983f
00000060: abf4 d23e beb0 13bf 7706 b63f ff21 5b3d
00000070: 2b6c f2bf 9f42 21bf 321a b73f c8aa e2be
00000080: d68c ed3e 0bb4 1f40 1778 f9bd 8ee5 bf3f
00000090: 9d4b 6ebf 8cf4 35bf 2f69 9dbe 51d4 bd3f
000000a0: 5179 38bf eb2e ba3f 7e65 edbc 14f1 cf3f
000000b0: f676 1a3c 1b28 b9be 51e5 7a3f 6c6e 523c
000000c0: 3f74 8abc 3c60 fbbf bc1d d4bf 48c4 e23c
000000d0: 3f4e 0540 260e a4bf c3bc 853f cf31 f93f
000000e0: d8e8 10bc 977f 12be d507 abbf 0858 3ebb
000000f0: 86e7 6ebe c4cf 20c0 36bd 1abd 900d a03d
00000100: 29e8 a43e abbf cd3e 435b e0bb 3879 223d
00000110: 36d4 d4bf 6c90 0d3d 3ed8 e2bf e562 b83c
00000120: 0062 03bf 6876 4b3f 4c6e ffbf 82ed f4be
00000130: c7bb 07bd 42ed af3f 8610 dc3f bec3 03bf
00000140: 8626 5bbf 1a61 68bf 12fd 953f 3e13 6bbd
00000150: 2a82 99ba 2458 a8be 8584 40c0 c778 9a3e
00000160: 8001 983f 6463 19c0 0d51 08bf 9e91 06bf
00000170: 692a e13e 6a4b 89bf 7a68 5dbd a173 37be
00000180: 0cc7 0640 e43a b63f c120 57bf c674 2cbf
00000190: 3aae 89bf a080 a73f e890 443e 2464 b73e
000001a0: 317d 16bf df1b c5be bf2a 1740 4461 ea3b
000001b0: 6bc8 4e3c cdca 0ec0 1185 7b3f b9af 0cbf
000001c0: 28b5 173f 73d1 f93e a8b3 8ebc 9f2a 363f
000001d0: d1bb 10bd ef3a 9dbf 2d13 63bf d50f f43d
000001e0: e12e 82bc 40c8 9abf da95 1fc0 54c3 d1be
000001f0: 2b29 d1bf 6f7e fdbe 25b5 2740 96a2 a13e

encoder_z.fc_layers.2.weight f4 [128, 128]
0.36916688 -0.059496034 -0.021787733 0.5767428 -0.0014598753 0.30614462 0.20934075 -0.021512792
0.00947645 -0.01832825 -0.047868814 0.014486508 0.012269932 -0.016332556 -0.055412922 0.013736344
-0.10342233 -0.082428336 0.008677996 -0.2671608 0.060677055 0.24172385 0.0074623786 0.25725162
-0.03344324 -0.11087673 -0.051197134 -0.01187346 0.60116845 -0.10536396 -0.13720036 -0.06717629
-0.23586118 -0.0018354836 0.35166407 0.031419568 -0.41395366 -0.13548978 -0.0406114 -0.007118824
0.31796715 -0.16452862 -0.013981844 0.04793476 0.0018592885 0.3430442 0.029507477 0.0055173473
-0.15645573 0.07471329 0.13299644 0.011774791 0.1973893 0.13285649 -0.046311483 -0.11487805
-0.020899413 -0.09120128 0.102374054 -0.014706296 -0.009014549 -0.03137549 0.0089045195 -0.029589355
0.014286347 -0.36734733 0.009898322 -0.00028053325 -0.11650378 -0.0063002603 0.038830154 0.016151704
0.025244974 -0.40608075 0.118627034 -0.10945162 -0.0046683648 0.20399645 -0.09750828 0.13117228
-0.041050375 -0.06264819 0.010420919 0.30094302 -0.004206323 -0.009658989 -0.08513952 0.02608593
-0.053433977 0.5839369 0.21839969 0.0036037478 0.18998963 0.19024198 0.12667696 0.031561494
-0.028579483 -0.22579414 0.31527027 0.26095003 0.28863484 0.0019186852 0.037976105 0.0038886857
0.02270272 0.29629245 0.05603062 0.0021233195 0.013704499 -0.050627697 0.13674527 0.028289584
0.004055402 -0.49123913 -0.015989646 -0.037681684 -0.002059809 -0.17906548 -0.3404621 -0.4564908
-0.017481703 0.025357068 0.13369468 -0.058784015 -0.029128563 -0.0031127047 -0.025671082 0.31606477
-0.4338535 0.43503428 -0.0010984453 0.4130471 -0.03177545 0.20124704 -0.13766761 0.20536068
0.027586857 -0.0054428764 0.31691572 0.020775327 0.02328698 0.38597384 0.5301063 0.25413767
-0.30541733 -0.17306615 0.020031534 0.11145799 -0.012540787 0.20057642 -0.0045586093 -0.1503291
0.251442 -0.045289114 0.47405303 -0.023611976 -0.66869885 -0.5513863 0.39583743 -0.05542571
0.1877769 -0.02853805 0.19247603 0.06549396 -0.24602297 -0.38231665 -0.435381 0.27932268
0.4080138 0.59313273 -0.04122586 0.21713188 0.03198792 -0.030028429 0.26177686 -0.029567854
0.30114904 -0.19954717 -0.18357833 0.0067514437 0.858757 -0.027884908 -0.055633426 0.6223529
-0.012175126 0.30893046 -0.15166795 -0.010349534 -0.0010765101 -0.2589122 0.040095296 -0.013808643
0.47669274 -0.12102302 0.008101333 -0.009656296 -0.2149213 -0.00036549347 -0.050070602 -0.020676998
-0.36721912 0.12456162 -0.32130247 -0.09250199 0.03580458 -0.01883545 0.3499571 -0.37676784
0.009901192 -0.1230682 0.11437051 0.056107093 -0.008539694 -0.12281515 -0.48157918 0.042844977
0.1253231 -0.50574607 -0.14967988 0.011712274 -0.33064666 -0.022562956 0.12992686 0.1562216
0.3477614 -0.14504537 0.30035892 -0.03140255 0.037772022 -0.1356644 0.112345256 -0.17068137
0.014448022 -0.03143638 0.61352825 -0.041012216 -0.023333654 0.03128119 0.12934424 -0.064840324
0.07003552 -0.4473648 -0.0036062002 -0.020053862 -0.037959363 -0.1736275 -0.05821782 -0.20401143
-0.036651127 -0.5105103 -0.26011845 0.03781146 -0.48645794 0.05607824 0.23909156 -0.11554549
00000000: 7103 bd3e 1db2 73bd 307c b2bc 6ba5 133f
00000010: 4959 bfba fdbe 9c3e 6c5d 563e 983b b0bc
00000020: 1d43 1b3c 2025 96bc 1712 44bd d258 6d3c
00000030: d307 493c dacb 85bc a9f8 62bd 670e 613c
00000040: 16cf d3bd 30d0 a8bd 272e 0e3c 4dc9 88be
00000050: 8188 783d 7586 773e f886 f43b 7cb6 833e
00000060: c7fb 08bd 5713 e3bd 16b4 51bd e788 42bc
00000070: 2de6 193f 0fc9 d7bd 407e 0cbe b993 89bd
00000080: 9885 71be 9c94 f0ba 500d b43e ceb1 003d
00000090: bcf1 d3be d5bd 0abe 2458 26bd 0645 e9bb
000000a0: 97cc a23e 317a 28be 1b14 65bc 3d57 443d
000000b0: 5fb3 f33a 7da3 af3e aab9 f13c ddca b43b
000000c0: ee35 20be 4803 993d 3830 083e 0eeb 403c
000000d0: 6c20 4a3e 880b 083e 1cb1 3dbd 2f45 ebbd
000000e0: 3f35 abbc bdc7 babd 7da9 d13d adf2 70bc
000000f0: c2b1 13bc 9683 00bd 43e4 113c 6065 f2bc
00000100: 4811 6a3c f314 bcbe 922c 223c 8914 93b9
00000110: 8999 eebd 6a72 cebb 5e0c 1f3d 9450 843c
00000120: 8cce ce3c d1e9 cfbe bbf2 f23d 2c28 e0bd
00000130: 15f9 98bb 72e4 503e 6cb2 c7bd 0752 063e
00000140: 7024 28bd b24d 80bd 81bc 2a3c 3415 9a3e
00000150: 32d5 89bb bc40 1ebc a15d aebd 29b2 d53c
00000160: 96dd 5abd e47c 153f 2ba4 5f3e db2c 6c3b
00000170: a48c 423e cbce 423e 9bb7 013e a046 013d
00000180: 851f eabc 9436 67be 1b6b a13e 3e9b 853e
00000190: f2c7 933e 647c fb3a d58c 1b3d 52d9 7e3b
000001a0: 0efb b93c a5b3 973e 5d80 653d 6427 0b3b
000001b0: d688 603c fd5e 4fbd f406 0c3e 8fbf e73c
000001c0: 2de3 843b b283 fbbe b8fc 82bc 1c58 1abd
000001d0: dcfd 06bb f15c 37be 0c51 aebe 2ab9 e9be
000001e0: ca35 8fbc a0b9 cf3c 42e7 083e 82c7 70bd
000001f0: 069f eebc 85fe 4bbb 294c d2bc 3ed3 a13e
00000200: 0c22 debe d0bc de3e b5f9 8fba e97a d33e
00000210: f926 02bd b413 4e3e bdf8 0cbe 124a 523e
00000220: d5fd e13c 285a b2bb c742 a23e 0531 aa3c
00000230: 56c4 be3c 5d9e c53e 0cb5 073f 551e 823e
00000240: a95f 9cbe 4138 31be 2c19 a43c 1644 e43d
00000250: e077 4dbc e863 4d3e 6360 95bb dfef 19be
00000260: 01bd 803e 1481 39bd 14b7 f23e e76d c1bc
00000270: d92f 2bbf a727 0dbf 34ab ca3e 1206 63bd
00000280: 9648 403e a1c8 e9bc 7018 453e b321 863d
00000290: 72ed 7bbe 02bf c3be 42ea debe 6203 8f3e
000002a0: 2fe7 d03e 8cd7 173f 73dc 28bd d257 5e3e
000002b0: c405 033d 2efe f5bc 9e07 863e 4938 f2bc
000002c0: 3530 9a3e 1856 4cbe f5fb 3bbe 373b dd3b
000002d0: 80d7 5b3f e46e e4bc e0df 63bd 8552 1f3f
000002e0: 2e7a 47bc 222c 9e3e d84e 1bbe 1891 29bc
000002f0: af19 8dba 2490 84be f73a 243d a63d 62bc
00000300: 1211 f43e ebda f7bd 74bb 043c 7135 1ebc
00000310: 5414 5cbe b49f bfb9 d516 4dbd cf62 a9bc
00000320: 2504 bcbe 2a1a ff3d c281 a4be af71 bdbd
00000330: d3a7 123d cd4c 9abc 942d b33e b7e7 c0be
00000340: 9c38 223c 2e0b fcbd 163b ea3d 8dd0 653d
00000350: 13ea 0bbc 8286 fbbd 8c91 f6be 377e 2f3d
00000360: b354 003e 9378 01bf af45 19be d6e4 3f3c
00000370: 854a a9be f3d5 b8bc 8c0b 053e 8ef8 1f3e
00000380: c80d b23e c686 14be a5c8 993e f69f 00bd
00000390: d6b6 1a3d 9ceb 0abe 4515 e63d 19c7 2ebe
000003a0: 65b7 6c3c 6fc3 00bd 3010 1d3f 6dfc 27bd
000003b0: 3826 bfbc b520 003d d172 043e 01cb 84bd
000003c0: c86e 8f3d 000d e5be 0056 6cbb ff47 a4bc
000003d0: 477b 1bbd 68cb 31be cf75 6ebd 5fe8 50be
000003e0: 7e1f 16bd ceb0 02bf 3f2e 85be 31e0 1a3d
000003f0: 0411 f9be 4cb2 653d 6bd4 743e 1da3 ecbd

encoder_z.fc_layers.2.bias f4 [128]
-0.10366842 0.5044329 -0.62813973 -0.32159328 -0.07388907 0.008934708 0.07047844 -0.12905866
-0.0064258375 0.1230926 -0.12602673 -0.008385051 0.034672648 0.40089038 0.0132266525 0.2160647
-0.19889511 0.7378164 -0.0211501 -0.613572 -0.54522663 0.5013997 -0.024052948 1.0591519
-0.07563513 0.49158752 -0.29632497 0.03140974 -0.54016685 0.14013118 0.040533394 -0.05708749
0.7693571 0.101043224 0.070045434 -0.051115938 -0.04010779 0.053625338 0.22199228 0.0013464773
0.45990676 -0.41423053 0.00517673 0.12648173 -0.033134457 0.40214416 -0.03677083 -0.053179383
-0.99614704 0.07664926 0.024254618 0.024762219 -0.4103723 -0.112768896 -0.052217152 0.0693999
-0.031858258 -0.050034277 0.7785465 0.11930394 0.5112803 0.04056263 -0.044986904 -0.43051296
0.0007244622 0.015046213 0.770778 -0.37013054 -0.7904619 0.03527526 -0.40854147 0.050021682
0.021683287 0.0378227 0.1324028 0.010531552 0.039438248 -0.7398959 -0.019147966 0.7195714
-0.07243622 0.025637593 0.14546804 0.0024606045 0.44066858 -0.066052966 -0.38321212 -0.79011863
0.4947188 -0.123173036 0.57382476 -0.3323416 0.044599254 0.12734972 -0.29657617 -0.03308331
-0.084655546 1.2500648 0.044200517 -0.6123457 -0.08815204 0.5407684 -0.14963765 0.14131315
0.68881667 0.6414835 -0.7274856 0.15760641 0.06524503 -0.92043716 0.13448891 0.79697204
-0.08458033 0.84253234 0.04255688 0.26488885 0.41313642 -0.71106726 -0.18358958 -0.051597293
-0.0038858354 0.010371186 0.12518457 0.39957237 0.95337343 -0.021706127 -0.3249081 -0.12878515
00000000: 1c50 d4bd 8422 013f c4cd 20bf e0a7 a4be
00000010: 2753 97bd e262 123c 0057 903d f427 04be
00000020: d58f d2bb f917 fc3d 270d 01be 7461 09bc
00000030: e804 0e3d 8141 cd3e 9ab4 583c 1140 5d3e
00000040: 29ab 4bbe 89e1 3c3f f942 adbc 0e13 1dbf
00000050: f993 0bbf bb5b 003f b00a c5bc 4a92 873f
00000060: 97e6 9abd 5cb1 fb3e e8b7 97be 80a7 003d
00000070: 6048 0abf 8c7e 0f3e 5806 263d 92d4 69bd
00000080: 96f4 443f c0ef ce3d fb73 8f3d f25e 51bd
00000090: 1148 24bd 3ea6 5b3d f251 633e 487c b03a
000000a0: e678 eb3e 0616 d4be 8fa1 a93b 6d84 013e
000000b0: ffb7 07bd d7e5 cd3e 039d 16bd a0d2 59bd
000000c0: 7e03 7fbf 4afa 9c3d 9fb1 c63c 23da ca3c
000000d0: 511c d2be 61f3 e6bd a7e1 55bd 8921 8e3d
000000e0: ce7d 02bd bef0 4cbd d34e 473f a055 f43d
000000f0: 44e3 023f 0025 263d 3044 38bd 326c dcbe
00000100: d6e9 3d3a 6484 763c b551 453f c081 bdbe
00000110: b65b 4abf cb7c 103d 592c d1be 89e3 4c3d
00000120: 26a1 b13c faeb 1a3d 9994 073e 888c 2c3c
00000130: 008a 213d d169 3dbf 32dc 9cbc d535 383f
00000140: 7159 94bd ee05 d23c 93f5 143e 1842 213b
00000150: 509f e13e c746 87bd 6134 c4be 3745 4abf
00000160: c84b fd3e 2542 fcbd 2ee6 123f ae28 aabe
00000170: b5ad 363d f767 023e d5d8 97be 5d82 07bd
00000180: e35f adbd 2002 a03f 9a0b 353d b0c2 1cbf
00000190: 0f89 b4bd cc6f 0a3f 9d3a 19be 65b4 103e
000001a0: 4a56 303f 4338 243f 7f3c 3abf 9363 213e
000001b0: 309f 853d c5a1 6bbf 76b7 093e 5c06 4c3f
000001c0: 7438 adbd 33b0 573f 1f50 2e3d 839f 873e
000001d0: 9e86 d33e 8108 36bf e8fe 3bbe af57 53bd
000001e0: 80a9 7ebb e8eb 293c 6230 003e c094 cc3e
000001f0: 4810 743f 0cd1 b1bc 5b5a a6be 41e0 03be

encoder_z.fc11.weight f4 [2, 128]
0.06869579 -0.0044784937 0.0024013817 -3.6739737e-05 -0.0033475435 0.0029142806 -0.03821276 -0.06733829
0.0004948694 0.0036319615 -0.00073758926 0.0019218635 -0.00029872416 0.030925319 -0.0009388708 -0.019434264
-0.0009172676 -0.019510563 -0.0009224077 0.0034844792 0.03397259 0.005672888 -0.0032691106 0.14679189
0.0007939284 -0.015864415 0.023618564 0.0015142043 0.00437075 -0.004329382 0.071127556 0.0009215209
-0.043382466 0.00025519638 0.00064349524 0.002496415 -0.0011036536 -0.00028131285 -0.0038924075 0.0033888044
-0.004362062 -0.10001982 -0.0026499722 -0.000950478 0.00152873 -0.04024656 0.0006897863 0.0006714624
0.007481679 -0.0031625242 -0.0009844452 -0.000106576925 -0.11508363 -0.0034191734 -0.00078429154 -0.0005779089
0.0035996062 0.0011976088 -0.00054581324 0.054725576 -0.002923595 -0.0028309769 -0.00018153421 0.039062764
0.0015829385 -0.0019261229 0.025055233 0.015814155 -0.013402028 0.0003252896 0.0053544766 0.00519732
-0.00506018 0.00054211426 -3.6214478e-06 0.004335578 -0.08040321 0.020260414 -0.0003022906 -0.037767097
-0.0022249098 -5.229318e-05 0.0021863969 -0.0024607738 0.009824032 -0.00016435259 0.005907085 0.0066427225
-0.0028624807 0.00040511732 -0.024973243 0.06364435 0.00078986824 -0.00031388615 -0.07146482 -8.237963e-05
-0.0025892025 0.16970924 -8.616973e-05 0.1928245 0.00035564209 -0.0032078219 0.0007111121 0.000573064
-0.10870752 -0.098039635 0.023981964 -0.046528563 0.0012761899 -0.109114796 0.002243 -0.054518137
-0.0013657716 -0.06781145 0.0015543224 -0.043988764 -0.063081495 0.1086559 0.020329455 0.0028569058
-0.0042650793 0.0018962474 -0.044781692 -0.038429778 -0.08319781 -0.120056935 -0.004767839 0.11690893
0.0024042383 -0.1188492 -0.22897531 0.036261488 -0.0013771534 -0.0012623811 -0.023071656 0.09015773
-0.0010835655 0.0037712615 -0.002734924 -9.2307935e-05 -0.0051983753 0.10002308 -0.003098142 -0.08008477
0.0028150608 -0.18535385 -0.005484394 0.1017566 -0.016325412 0.03484433 -0.001862336 0.028298542
-0.0019077677 -0.03952591 -0.054910637 -0.0008361899 -0.14465892 -0.046737477 -0.111229315 0.0011856222
0.02118747 -0.0005202988 0.004908132 0.00032127113 -0.0026613146 0.0035406754 -0.013071895 -0.00017058631
0.11847266 0.0037408592 0.00017846095 0.0014723912 0.0040884786 0.023816224 0.0006482443 -0.0014710398
-0.3946416 0.0006539057 0.0015157858 0.0029725975 -0.002544923 0.0021445593 0.0026251979 -0.000189129
-0.003910089 0.003932378 -0.13123085 -0.123840265 0.14613934 -0.0015125119 0.0030515527 0.010815239
0.003784246 0.004539711 0.07012485 0.039325476 -0.17893808 0.0007990735 -0.004898817 0.0059261606
-0.00040608982 0.0024671492 -0.0010593383 0.0025971765 0.038441766 0.1545236 0.00016138796 -0.030804398
-0.0013762448 -0.0039805532 -0.0031415562 -0.0032304625 -0.12245874 -0.0022923483 0.082967006 -0.10885898
0.01922014 0.001143439 -0.022830818 -0.010849298 0.0021789211 -0.0017994372 0.15034437 0.0026834917
0.00010143981 0.04975123 0.0071596014 0.077597864 0.001417054 0.06351599 -0.0027303111 0.0015540951
0.11573336 0.051352493 0.031520527 0.015160858 0.0012123616 -0.013683196 0.001257116 -0.014411297
-0.0024180794 -0.14760618 0.0035219695 -0.026214236 -0.028396811 -0.026167592 0.038163006 -0.001671323
-0.0021276912 0.0030293646 0.071695104 -0.00015666487 0.14322458 0.12097436 -0.013885282 0.032801975
00000000: 61b0 8c3d 54c0 92bb 8060 1d3b fe18 1ab8
00000010: 7662 5bbb 84fd 3e3b fc84 1cbd a8e8 89bd
00000020: 20ba 013a 3406 6e3b c75a 41ba 0ae7 fb3a
00000030: 149e 9cb9 1857 fd3c 8e1e 76ba 9b34 9fbc
00000040: c974 70ba 9ed4 9fbc bccd 71ba dc5b 643b
00000050: d826 0b3d a2e3 b93b 933e 56bb 9d50 163e
00000060: a21f 503a 17f6 81bc b87b c13c 4478 c63a
00000070: 8238 8f3b 7ddd 8dbb 53ab 913d 3992 713a
00000080: d0b1 31bd e1cb 8539 3cb0 283a e59a 233b
00000090: 78a8 90ba 2c7d 93b9 c317 7fbb b416 5e3b
000000a0: a1ef 8ebb 31d7 ccbd 28ab 2dbb 8029 79ba
000000b0: ab5f c83a 94d9 24bd c6d2 343a 1405 303a
000000c0: df28 f53b 5a42 4fbb 8008 81ba 0d82 dfb8
000000d0: f7b0 ebbd 3614 60bb ea98 4dba cf7e 17ba
000000e0: 5fe7 6b3b 15f9 9c3a e814 0fba ed27 603d
000000f0: c999 3fbb e987 39bb 385a 3eb9 4700 203d
00000100: 9a7a cf3a f675 fcba a240 cd3c b08c 813c
00000110: 2e94 5bbc a28b aa39 9b74 af3b 484e aa3b
00000120: decf a5bb ac1c 0e3a 0008 73b6 7711 8e3b
00000130: 70aa a4bd 2bf9 a53c c27c 9eb9 acb1 1abd
00000140: cbcf 11bb 6055 5bb8 a749 0f3b ef44 21bb
00000150: faf4 203c 1056 2cb9 3890 c13b 32ab d93b
00000160: 7598 3bbb ed65 d439 b094 ccbc f857 823d
00000170: 290f 4f3a 1691 a4b9 265c 92bd 3ac3 acb8
00000180: 9caf 29bb 42c8 2d3e 06b6 b4b8 c973 453e
00000190: 7975 ba39 523a 52bb ed69 3a3a ad39 163a
000001a0: 0ca2 debd 01c9 c8bd d375 c43c bc94 3ebd
000001b0: d445 a73a 9477 dfbd 4cff 123b 694e 5fbd
000001c0: b103 b3ba bbe0 8abd 68ba cb3a 902d 34bd
000001d0: df30 81bd fc86 de3d f589 a63c ed3a 3b3b
000001e0: 14c2 8bbb 818b f83a 026d 37bd 8b68 1dbd
000001f0: 9d63 aabd 69e0 f5bd 883b 9cbb f36d ef3d
00000200: 6d90 1d3b 3667 f3bd 8178 6abe ed86 143d
00000210: 9a81 b4ba 7b76 a5ba c500 bdbc 9ea4 b83d
00000220: 6d06 8eba 4527 773b 693c 33bb 7295 c1b8
00000230: 2257 aabb e7d8 cc3d 330a 4bbb 7c03 a4bd
00000240: e27c 383b 66cd 3dbe 6eb6 b3bb c465 d03d
00000250: dfbc 85bc eeb8 0e3d a019 f4ba 58d2 e73c
00000260: 100e faba ece5 21bd fae9 60bd c133 5bba
00000270: 7821 14be cc6f 3fbd 32cc e3bd e166 9b3a
00000280: 5891 ad3c a964 08ba 65d4 a03b 4870 a839
00000290: 7369 2ebb ad0a 683b 802b 56bc 6adf 32b9
000002a0: cba1 f23d 3429 753b 3f21 3b39 40fd c03a
000002b0: a5f8 853b 3e1a c33c f0ee 293a e8cf c0ba
000002c0: 770e cabe de6a 2b3a 55ad c63a e9cf 423b
000002d0: b9c8 26bb bc8b 0c3b 830b 2c3b ee50 46b9
000002e0: 3420 80bb 2ddb 803b 6161 06be f79f fdbd
000002f0: 8da5 153e 7a3f c6ba 8ffc 473b 6632 313c
00000300: 1d01 783b dbc1 943b 9e9d 8f3d c013 213d
00000310: 8b3b 37be ea78 513a 4186 a0bb 3d30 c23b
00000320: 74e8 d4b9 e5af 213b 7fd9 8aba 6435 2a3b
00000330: 1d75 1d3d 6f3b 1e3e 403a 2939 8159 fcbc
00000340: 1d63 b4ba 4d6f 82bb 91e2 4dbb 2bb6 53bb
00000350: a6cb fabd 393b 16bb 9bea a93d 75f1 debd
00000360: 8e73 9d3c 72df 953a b207 bbbc 41c1 31bc
00000370: 3bcc 0e3b 18db ebba e0f3 193e 85dd 2f3b
00000380: 15bc d438 f2c7 4b3d 179b ea3b a1eb 9e3d
00000390: 71bc b93a ac14 823d 05ef 32bb c7b2 cb3a
000003a0: 9d05 ed3d fe56 523d ab1b 013d 3f65 783c
000003b0: 1be8 9e3a 7c2f 60bc d0c5 a43a 5c1d 6cbc
000003c0: a478 1ebb 1326 17be d8d0 663b 3dbf d6bc
000003d0: 6ea0 e8bc 6b5d d6bc d050 1c3d 4b10 dbba
000003e0: bc70 0bbb 4e88 463b e2d4 923d 6846 24b9
000003f0: 77a9 123e 68c1 f73d 187f 63bc 5d5b 063d

encoder_z.fc11.bias f4 [2]
-0.12704866 0.295307
00000000: 0b19 02be 7b32 973e

encoder_z.fc12.weight f4 [2, 128]
0.07093211 0.086882286 0.08231458 -0.05384626 0.004483328 0.0021282528 -0.015287332 -0.04826969
-0.010335971 -0.004084335 0.011218114 0.0017466517 -0.0031257092 -0.10106227 0.0028643315 -0.054742157
0.121350676 0.060535528 0.0031735685 0.063345104 0.07114463 -0.048008624 0.004749119 -0.2574361
-0.0037131072 -0.0731709 0.0031219628 -0.00215752 0.04663868 0.012755396 -0.17215358 -0.009225295
-0.08872113 -0.007877397 0.0025028135 -0.010180131 -0.0054957606 0.0011948085 0.04031946 -0.00094878615
-0.007873645 -0.048181176 -0.0012462469 0.002398843 -0.00988192 -0.023658313 0.002169792 0.002389139
-0.00867766 0.0006319948 0.010388468 0.00077866076 0.23703077 0.008267903 -0.006747105 0.0009975041
-0.0013642365 -0.006053335 -0.07818282 -0.11423931 -0.00090684264 0.00615653 0.0010288053 0.0008292572
-0.005712003 -0.000996696 -0.1789961 -0.015808977 0.038802262 0.007986029 0.23101008 -0.004743117
-0.0015289426 -0.0113930795 -0.0065743783 0.0016714754 -0.13812758 0.073425196 -0.00015752742 -0.08155102
0.0030338527 0.00327352 0.0047691087 0.0075476123 -0.004742483 -0.008404166 0.0376629 0.018215766
-0.019365286 -0.00016007581 0.03282001 -0.06307442 0.00061033835 0.0048462176 -0.024797427 0.0052907844
0.0007475501 -0.10654687 -0.0013070804 0.15471143 -0.00024843693 -0.08068163 -0.006442355 0.0076777833
-0.10038334 -0.19725889 -0.08707311 -0.07002688 -0.0067554805 0.13455877 -0.0033183482 -0.15517218
-0.0006022777 0.004010191 -0.0052352655 -0.018193392 -0.06731592 0.19676736 -0.034388788 -0.0037968834
0.002468999 0.0014317082 0.050936136 0.0486594 -0.23946072 0.09701604 -0.005826449 0.11587646
-0.08875859 0.2240386 0.3315887 0.029541995 -0.0017516688 -0.009520057 0.044676747 -0.058444988
-0.005099743 -0.0030944007 0.003674028 -0.0012412526 0.005928045 -0.101807214 0.005582063 -0.1856683
0.038253266 0.095437154 0.0037066643 0.106895626 -0.022911116 -0.031187015 -0.00022621395 0.017649293
-0.0035677326 -0.12926489 -0.13524286 0.0009366019 0.3390698 0.037020057 -0.040220223 0.00025950023
-0.021606274 0.0005930518 -0.003518242 -0.00060579565 0.0037482334 0.00017395904 0.021946557 -0.0011868795
-0.11446926 -0.009196851 0.00491902 0.0042261183 -0.00045989265 0.05879133 -0.004070982 0.0003956279
-0.005712251 0.00044230113 0.0041970424 -0.0034365144 0.06432204 -0.0041587204 0.0027854382 0.004493634
-0.0040777423 -0.00068428856 0.07704591 0.060086675 -0.21362256 -0.0026096962 0.0030910883 -0.027578408
-0.0050301324 -0.004623692 -0.099099696 -0.04797196 0.1181885 0.0025318926 0.14961237 -0.006308373
0.0073128124 -0.0024052337 -0.0043688365 -0.004373471 -0.12079496 -0.20030093 -0.00204798 0.0013485479
0.007948085 -0.0053261495 0.0018748975 0.0030402138 0.04397199 0.0040187803 0.14974552 0.07935451
-0.027053557 -0.00071625697 0.0012134508 -0.016453892 -0.0012419906 -0.0003688439 -0.1401223 0.0022611162
0.0030847131 -0.073315375 -0.010068869 0.120930076 -0.0061009517 -0.38346118 -0.0026595052 -0.0034899756
-0.059033576 -0.061388917 -0.06348098 -0.005631568 0.0027749147 0.06306027 -0.0032510345 -0.08454757
0.006856938 -0.19531529 -0.0008496469 -0.15687473 -0.051205453 0.16991785 -0.036218077 0.00037402895
0.00045332167 -0.001569592 0.07145406 -0.010690567 -0.1936039 0.005698713 0.014914156 0.07242143
00000000: db44 913d 57ef b13d 8c94 a83d e58d 5cbd
00000010: e2e8 923b 287a 0b3b b877 7abc 70b6 45bd
00000020: 3458 29bc e3d5 85bb 2ecc 373c e8ef e43a
00000030: b3d8 4cbb bcf9 cebd 82b7 3b3b 5039 60bd
00000040: b486 f83d 1af4 773d a5fb 4f3b 14bb 813d
00000050: 47b4 913d b1a4 44bd 7f9e 9b3b aace 83be
00000060: 9a57 73bb a0da 95bd d899 4c3b 2e65 0dbb
00000070: 3308 3f3d 02fc 503c 0749 30be b125 17bc
00000080: 6cb3 b5bd 3310 01bc 3e06 243b 90ca 26bc
00000090: c815 b4bb 1f9b 9c3a 0526 253d f6b7 78ba
000000a0: 7600 01bc a059 45bd 1b59 a3ba e835 1d3b
000000b0: c7e7 21bc 14cf c1bc 1233 0e3b 1a93 1c3b
000000c0: be2c 0ebc 74ac 253a 6534 2a3c 0a1f 4c3a
000000d0: 32b8 723e 1976 073c d216 ddbb afbe 823a
000000e0: 2ed0 b2ba 0e5b c6bb 501e a0bd 4df6 e9bd
000000f0: 2eb9 6dba b8bc c93b fad8 863a 8262 593a
00000100: c12b bbbb 91a3 82ba c14a 37be d481 81bc
00000110: 1fef 1e3d d5d7 023c e88d 6c3e 266c 9bbb
00000120: cd66 c8ba 0aaa 3abc e26d d7bb 6815 db3a
00000130: 5171 0dbe f35f 963d f22d 25b9 3904 a7bd
00000140: 9ad3 463b 8d88 563b 2f46 9c3b f651 f73b
00000150: d566 9bbb a1b1 09bc 6a44 1a3d 3b39 953c
00000160: f3a3 9ebc 06da 27b9 466e 063d 292d 81bd
00000170: 1dff 1f3a 05cd 9e3b f923 cbbc 515e ad3b
00000180: 3df7 433a 3f35 dabd 5752 abba ac6c 1e3e
00000190: a440 82b9 693c a5bd 641a d3bb ea95 fb3b
000001a0: c895 cdbd 3cfe 49be 6353 b2bd 416a 8fbd
000001b0: 145d ddbb c6c9 093e a578 59bb 75e5 1ebe
000001c0: 2ce2 1dba ec67 833b 978c abbb 4f0a 95bc
000001d0: eedc 89bd 627d 493e 42db 0cbd 22d5 78bb
000001e0: eece 213b 28a8 bb3a 69a2 503d 144f 473d
000001f0: 3135 75be 58b0 c63d cceb bebb a350 ed3d
00000200: 10c7 b5bd 606a 653e fec5 a93e 0e02 f23c
00000210: 4098 e5ba 03fa 1bbc f7fe 363d 0364 6fbd
00000220: bf1b a7bb 6ecb 4abb f6c7 703b 87b1 a2ba
00000230: 0c40 c23b 4d80 d0bd bde9 b63b d51f 3ebe
00000240: 75af 1c3d 8e74 c33d 82eb 723b 18ec da3d
00000250: 18b0 bbbc e97b ffbc d833 6db9 4095 903c
00000260: 9fd0 69bb 045e 04be 1b7d 0abe 4a86 753a
00000270: 8f9a ad3e 58a2 173d f6bd 24bd 880d 8839
00000280: a4ff b0bc 0877 1b3a 4e92 66bb 42ce 1eba
00000290: eca4 753b c668 3639 44c9 b33c 1191 9bba
000002a0: dc6e eabd 64ae 16bc bb2f a13b 407b 8a3b
000002b0: bf1d f1b9 2dcf 703d df65 85bb 476c cf39
000002c0: d62d bbbb a7e4 e739 5887 893b 2537 61bb
000002d0: 46bb 833d e045 88bb e68b 363b 563f 933b
000002e0: 959e 85bb d461 33ba 3fca 9d3d 721d 763d
000002f0: dfbf 5abe 7007 2bbb db93 4a3b 1dec e1bc
00000300: cfd3 a4bb 5782 97bb c8f4 cabd 3f7e 44bd
00000310: d00c f23d 1cee 253b fc33 193e 78b6 cebb
00000320: 51a0 ef3b 20a1 1dbb 7528 8fbb 554f 8fbb
00000330: 5963 f7bd b01b 4dbe 6737 06bb c2c1 b03a
00000340: af38 023c fb86 aebb 1fbf f53a 533e 473b
00000350: f91b 343d f9af 833b e456 193e 9e84 a23d
00000360: 6c9f ddbc 31c3 3bba a70c 9f3a 50ca 86bc
00000370: 4aca a2ba 6461 c1b9 387c 0fbe 3c2f 143b
00000380: e628 4a3b 5f26 96bd e6f7 24bc 30aa f73d
00000390: 7eea c7bb 0655 c4be 184b 2ebb 13b8 64bb
000003a0: 31cd 71bd f272 7bbd 5102 82bd 0489 b8bb
000003b0: 58db 353b be25 813d 4f0f 55bb 4727 adbd
000003c0: 2ab0 e03b bb00 48be d7ba 5eba c5a3 20be
000003d0: cfbc 51bd f2fe 2d3e 6859 14bd 5119 c439
000003e0: ceab ed39 c5ba cdba 8256 923d 7d27 2fbc
000003f0: 1a40 46be 45bc ba3b 815a 743c b051 943d

encoder_z.fc12.bias f4 [2]
-0.56601 -0.050323647
00000000: 08e6 10bf 2b20 4ebd

decoder.fc_layers.0.weight f4 [128, 2]
1.1959571 0.36607894 -1.0770341 -3.2504025 0.0027276278 -0.009423641 1.3541268 0.11322736
-0.92613745 -0.0866375 -0.049304787 0.7013474 -0.21149914 -0.5767803 1.0349581 0.18005696
0.0022904982 -0.0023820868 0.24384324 -0.47821984 0.23348376 1.2946861 2.2722487 6.4863334
-0.3256823 -0.38709342 0.31570852 -0.37008294 0.0019675107 -0.00733472 1.221741 -0.412547
-0.97137386 0.114666216 0.9394384 0.6296866 -0.00084388 -0.00011424741 0.0027211488 0.0074468167
0.16486612 -0.10357289 7.562989e-05 0.0014215959 1.669039 -0.5091239 0.34773478 -0.6672782
-0.009406204 0.01142289 -1.029443 -1.4600279 -1.082759 0.10355536 -0.0018357363 0.010674213
0.00014071286 0.009396052 0.61248463 0.3190599 -1.4849232 0.6311416 -0.2724387 -0.9912879
-1.5118382 2.8049638 -0.28243673 -0.9987823 -1.3682239 -0.82562536 0.81883556 -0.060211405
-1.5660272 -0.19736725 0.9435072 -0.48527595 -0.1946332 0.43168235 -0.7884434 -0.6261232
0.5205433 0.038038284 0.52794343 -0.035321422 1.8273664 -7.5213003 0.004403576 -0.018410169
-0.43681857 -0.07912286 0.0048628333 -0.0130854 -0.34129348 -1.4022729 0.5949363 0.82632315
0.007953216 -0.006723955 0.88256854 0.18115653 -0.0017729247 -0.8619007 0.10446682 0.032407198
-0.0015951389 0.00870272 -0.011834704 -0.5452364 0.1672568 -0.5851306 -1.397625 -1.1030842
-0.00017946235 0.001739265 0.18078607 -0.42414746 -0.14438325 0.013129795 0.0043589976 -0.0073902537
0.5900155 -0.21815094 -0.0005306119 0.0010021613 -0.6592312 -0.05517974 -0.59936196 0.15899906
-0.0004582084 -0.00069124065 1.1086415 0.1524042 -1.1596038 -1.1685157 0.5968695 1.7453493
-0.18665305 0.35061172 -0.16213202 -0.61427987 -0.007765551 0.0071978383 -5.800615e-05 -0.0023250817
-1.123924 -0.15320356 0.16188213 5.862654 -0.72531617 -0.027865157 0.9903243 1.9294424
1.7125829e-05 0.0043366365 -0.0009009669 -0.0019809285 0.46960568 0.21095417 -0.0012768497 0.008507986
-0.75272405 0.4809162 0.46472383 -0.03161054 -1.0644305 -0.121476255 0.7926271 0.37769467
-1.2767416 -0.3555607 -0.13012633 -0.017843539 -0.0015012228 0.002093492 -1.1030096 -0.37344658
-0.0065211025 0.0174677 -0.68992877 -1.3819202 -0.716047 -0.28381568 -1.166648 0.24203248
-0.03347468 -3.7100554 -4.399391e-05 0.0057192408 -0.62508315 -0.14010195 1.1725469 0.12625638
0.76249516 0.10522654 1.1523777 -0.366636 -1.0553174 -0.61593693 1.4463484 -0.2776167
0.21813081 0.059893195 0.0037669516 -0.0014286931 0.0054632435 -0.0060669454 0.4529615 -0.14677526
1.1455712 0.16048509 0.8729038 0.021904768 0.19701096 -0.43902043 -0.048102044 -0.42057332
0.74687195 0.0931864 1.0489701 0.56400794 -0.004087936 0.0077888607 0.6979903 0.1703363
-0.0042475993 0.0038936266 -0.85282254 -0.0601099 -0.0478963 -0.029687116 0.00086814136 -0.00052388536
-0.23337853 0.28229967 -4.937398e-05 -0.0007216406 0.48981538 -0.10661921 -0.19767797 -0.1182347
1.6137552 2.3414388 -1.4307243 0.38762212 1.4334708 0.8327145 -0.17065746 -0.48326802
1.1542046 -1.2223308 -0.607376 0.3590487 0.2570794 -0.74488443 -0.30043575 -0.14326838
00000000: 1f15 993f b36e bb3e 41dc 89bf 9806 50c0
00000010: 00c2 323b 9d65 1abc 0754 ad3f bfe3 e73d
00000020: 5817 6dbf 006f b1bd d1f3 49bd 818b 333f
00000030: 3b93 58be e0a7 13bf 8279 843f da60 383e
00000040: 2f1c 163b c91c 1cbb 0bb2 793e 3bd9 f4be
00000050: 5e16 6f3e 46b8 a53f 866c 1140 0b90 cf40
00000060: d5bf a6be 1c31 c6be 8ca4 a13e 837b bdbe
00000070: 5af1 003b 1758 f0bb 0262 9c3f 5c39 d3be
00000080: f5ab 78bf 1fd6 ea3d 097f 703f 2433 213f
00000090: d437 5dba 1c98 efb8 4d55 323b 6d04 f43b
000000a0: aad2 283e 061e d4bd 7d9b 9e38 d854 ba3a
000000b0: 12a3 d53f f255 02bf 4b0a b23e bed2 2abf
000000c0: 7b1c 1abc 1327 3b3c cac4 83bf 32e2 babf
000000d0: d997 8abf d514 d43d 179d f0ba e5e2 2e3c
000000e0: 528c 1339 e6f1 193c cbcb 1c3f d25b a33e
000000f0: f711 bebf 7f92 213f 167d 8bbe 0bc5 7dbf
00000100: ea83 c1bf 8784 3340 8c9b 90be 32b0 7fbf
00000110: f621 afbf 2f5c 53bf 359f 513f 3ca0 76bd
00000120: 9473 c8bf a41a 4abe b089 713f 1776 f8be
00000130: ed4d 47be 7805 dd3e 6dd7 49bf 9c49 20bf
00000140: 5342 053f 08ce 1b3d 4d27 073f 32ad 10bd
00000150: 24e7 e93f 7eae f0c0 df4b 903b ecd0 96bc
00000160: afa6 dfbe 2b0b a2bd 6758 9f3b 2564 56bc
00000170: 05be aebe ae7d b3bf bf4d 183f ea89 533f
00000180: 354e 023c 9f54 dcbb 03f0 613f 1981 393e
00000190: 7b61 e8ba 86a5 5cbf b3f2 d53d 69bd 043d
000001a0: fb13 d1ba da95 0e3c 59e6 41bc 9d94 0bbf
000001b0: 5e45 2b3e 1ecb 15bf 60e5 b2bf dd31 8dbf
000001c0: 0f2e 3cb9 0df8 e33a fc1f 393e db29 d9be
000001d0: 34d9 13be 5a1e 573c ecd5 8e3b f129 f2bb
000001e0: 410b 173f f662 5fbe c318 0bba f45a 833a
000001f0: 60c3 28bf 2704 62bd c96f 19bf a6d0 223e
00000200: b13b f0b9 6034 35ba f7e7 8d3f d90f 1c3e
00000210: e66d 94bf ec91 95bf 71cc 183f 9b67 df3f
00000220: fa21 3fbe 6183 b33e f005 26be 7241 1dbf
00000230: 2a76 febb d8db eb3b a14b 73b8 6660 18bb
00000240: bedc 8fbf 65e1 1cbe 6ec4 253e dd9a bb40
00000250: 52ae 39bf 7845 e4bc e585 7d3f f8f7 f63f
00000260: 70a9 8f37 581a 8e3b dd2e 6cba 77d2 01bb
00000270: 2870 f03e 5f04 583e f75b a7ba 1465 0b3c
00000280: 86b2 40bf a63a f63e 48f0 ed3e 0e7a 01bd
00000290: 423f 88bf 8bc8 f8bd 9ce9 4a3f 3261 c13e
000002a0: 456c a3bf 0d0c b6be d63f 05be 9d2c 92bc
000002b0: aec4 c4ba f832 093b 6b2f 8dbf 6434 bfbe
000002c0: f9ae d5bb 6c18 8f3c 2c9f 30bf c3e2 b0bf
000002d0: db4e 37bf 4a50 91be b954 95bf 5dd7 773e
000002e0: bf1c 09bd 8c71 6dc0 1a86 38b8 7868 bb3b
000002f0: 7305 20bf e376 0fbe 0416 963f 5a49 013e
00000300: e232 433f 0381 d73d 1d81 933f b7b7 bbbe
00000310: a414 87bf 0bae 1dbf f221 b93f c723 8ebe
00000320: af5d 5f3e 9152 753d f6de 763b fc42 bbba
00000330: 0205 b33b 3acd c6bb 92ea e73e 414c 16be
00000340: 14a2 923f 3456 243e a076 5f3f a171 b33c
00000350: 3ebd 493e 49c7 e0be a606 45bd 6355 d7be
00000360: 0033 3f3f 83d8 be3d a744 863f d362 103f
00000370: 18f4 85bb b339 ff3b 7eaf 323f a46c 2e3e
00000380: 722f 8bbb 372c 7f3b 9452 5abf cc35 76bd
00000390: e92e 44bd 6532 f3bc fb93 633a 5a55 09ba
000003a0: c8fa 6ebe 9589 903e e816 4fb8 7b2c 3dba
000003b0: 15c9 fa3e 2c5b dabd 186c 4abe 0925 f2bd
000003c0: 888f ce3f 22da 1540 f921 b7bf 6876 c63e
000003d0: f97b b73f c72c 553f d4c0 2ebe e86e f7be
000003e0: fabc 933f 5675 9cbf fe7c 1bbf 3bd5 b73e
000003f0: e99f 833e bfb0 3ebf b7d2 99be f2b4 12be

decoder.fc_layers.0.bias f4 [128]
-0.47412375 1.1944156 -0.007702343 0.51167643 -0.3989265 -1.1797842 -0.6171835 0.67714304
-0.00037468006 1.1304419 -1.2284237 -0.0010852928 -0.54827535 1.0496826 -0.001977904 -0.62218815
0.5919671 -0.922179 0.0008927008 0.0045952396 0.29305783 -0.00466855 -0.19499813 1.5361302
0.006587209 0.52240527 0.66221523 0.0040321345 0.0070042573 -0.08371482 0.012376418 1.3638353
-0.021306785 0.97324806 -0.34947705 -0.36881924 -0.65049785 -0.5273921 -0.9913059 -0.39983183
0.21030481 -0.3560314 0.27234244 -0.011819795 0.27570507 -0.010392631 1.3730148 -1.0481333
-0.0019108533 -0.17987575 1.3356055 -0.042537186 0.003734227 0.97517633 1.1300225 -0.10262078
0.002495679 0.9609906 -0.09779994 -0.0026850689 0.9446269 0.0005635688 0.39207584 -0.8317321
-0.0050744996 0.19852078 -0.026876776 -1.242279 -0.8803656 0.9521208 0.008738057 -0.00050780555
-0.6042414 -0.5092912 -0.84372264 -1.0101879 0.0022033132 -0.0071880883 0.027244477 0.001947394
-0.35283795 0.38763806 -0.47598404 -0.7050304 -0.9404316 -0.117240585 -0.0021014176 -0.49634197
0.011788904 0.8226188 -0.30475432 0.42307356 -0.87915343 0.002367901 0.39943275 0.34478456
-0.36865786 -0.8260585 -0.27131763 -0.3811685 0.16271397 -0.0010346584 0.00030206348 0.69013554
0.54783756 0.8059809 0.8771205 0.68206733 0.2559804 -1.0154963 0.006793869 0.37252966
0.0016911911 0.5465803 0.032711666 0.004178539 -0.71502507 -0.0025847736 0.23269705 0.14770572
0.37435785 0.2549291 0.5427717 0.62026376 -0.23997581 -1.2994473 1.50585 -0.09471163
00000000: 59c0 f2be 9ce2 983f f063 fcbb 3afd 023f
00000010: 1840 ccbe 2b03 97bf bdff 1dbf 3f59 2d3f
00000020: b570 c4b9 52b2 903f fd3c 9dbf 6240 8eba
00000030: c65b 0cbf 005c 863f b99f 01bb b947 1fbf
00000040: 288b 173f ec13 6cbf 2304 6a3a aa93 963b
00000050: ad0b 963e a3fa 98bb 97ad 47be ea9f c43f
00000060: 84d9 d73b 5abc 053f f086 293f ff1f 843b
00000070: f883 e53b ad72 abbd 76c6 4a3c 2892 ae3f
00000080: 918b aebc c926 793f a8ee b2be e0d5 bcbe
00000090: 0787 26bf 2b03 07bf 39c6 7dbf c2b6 ccbe
000000a0: 255a 573e bf49 b6be 7870 8b3e d0a7 41bc
000000b0: 3729 8d3e db45 2abc f3be af3f 3b29 86bf
000000c0: 9975 faba 5931 38be 1ff5 aa3f 793b 2ebd
000000d0: efb9 743b 28a5 793f 94a4 903f d82a d2bd
000000e0: 8c8e 233b 7b03 763f 564b c8bd fbf7 2fbb
000000f0: 12d3 713f 76bc 133a 2abe c83e 65ec 54bf
00000100: fd47 a6bb 0849 4b3e af2c dcbc 0003 9fbf
00000110: a45f 61bf 30be 733f 112a 0f3c 411e 05ba
00000120: 90af 1abf e860 02bf 35fe 57bf d64d 81bf
00000130: 7665 103b 0e8a ebbb cf2f df3c b33f ff3a
00000140: 2da7 b4be 7f78 c63e 2eb4 f3be df7c 34bf
00000150: 20c0 70bf d51b f0bd f0b7 09bb 8920 febe
00000160: 3f26 413c 2597 523f c208 9cbe 199d d83e
00000170: 3310 61bf c92e 1b3b 7382 cc3e 9a87 b03e
00000180: b9c0 bcbe 9278 53bf 25ea 8abe 8528 c3be
00000190: 7e9e 263e 609d 87ba 465e 9e39 b9ac 303f
000001a0: 153f 0c3f c454 4e3f f88a 603f f79b 2e3f
000001b0: dd0f 833e c8fb 81bf 1b9f de3b 35bc be3e
000001c0: f5aa dd3a b0ec 0b3f abfc 053d 20ec 883b
000001d0: e20b 37bf 4e65 29bb 2348 6e3e 2b40 173e
000001e0: d5ab bf3e 1186 823e 16f3 0a3f 9bc9 1e3f
000001f0: 38bc 75be 4a54 a6bf b1bf c03f 2cf8 c1bd

decoder.fc_layers.2.weight f4 [128, 128]
-0.37377387 -0.29951736 0.0010469481 -0.6009567 0.56117153 0.2084607 0.046424195 -0.2626445
0.029302958 -0.07885545 0.08693897 0.34278628 -0.06300007 -0.032618795 0.01083435 -0.35141814
0.38631883 -0.051605456 0.038038637 -0.040359527 -0.036502756 -0.031501826 -0.4917692 -0.3531457
-0.025411747 0.3274546 0.3252957 -0.006764761 0.025665518 -0.2140081 0.45651492 -0.15179265
0.013775857 -0.029465944 0.31250218 -0.45825344 0.7182928 -0.30305463 0.19446608 0.1333908
-0.5610648 -0.19346812 0.2143147 -0.0282378 0.12790304 -0.061604645 0.016516231 0.062277023
-0.0017422107 -0.37854955 -0.35160163 -0.3471345 -0.01866063 -0.16953854 -0.36653695 0.34946635
-0.018527452 -0.056883823 0.12374349 -0.012031014 -0.0962494 -0.0083733825 0.18394098 0.19597138
0.016439002 -0.70275056 0.26566747 -0.24742451 0.028155971 -0.103502534 -0.005725033 -0.018909309
0.48488596 0.3337891 0.02751311 -0.28561363 -0.023755657 0.0262194 -0.2614993 -0.017678708
0.4823249 -0.2905175 0.5575211 -0.15863863 0.29104295 -0.021940073 -0.0069324626 0.3277619
-0.03836142 0.19683577 0.1883552 0.3469184 0.06595741 0.024921438 0.2931016 -0.8310674
-0.27554256 -0.20392092 0.3390322 -0.45799956 -0.101156585 0.015462826 -0.0019113044 -0.009592166
-0.5222012 -0.16461699 -0.29224548 -0.12732247 -0.6213102 -0.1661527 0.019991094 -0.33908367
-0.036256332 0.17400835 0.104018986 0.015915673 0.14588934 0.024574421 -0.4734228 0.22670767
-0.048912592 0.45583484 -0.2868477 0.016676994 -0.11170155 0.13358834 -0.3991527 0.14674504
0.36317548 -0.7635506 0.04476907 0.25838646 -0.037550043 0.5972192 -0.14534421 -0.1567881
-0.053748447 -0.4920892 0.7439068 0.3555405 -0.21086876 -0.4021778 -0.03819196 -0.06728051
0.04408637 0.24865381 -0.03849428 0.06725191 -0.37749526 -0.008077772 0.33379814 -0.48234612
0.019769493 -0.6378362 -0.13803248 0.04398248 0.08547733 0.32450792 -0.35648885 -0.46285123
0.5912191 -0.9559976 -0.015187321 -0.050004248 -0.2191595 -0.12978724 0.35136425 -0.032603018
-0.097740196 -0.11954474 -0.46167183 -0.008905452 0.11752084 0.015009274 -1.2227007 0.15485999
0.021517318 0.37729168 -0.6771839 0.084441006 0.07900372 -0.35743007 -0.47170624 -0.18068351
-0.066783205 -0.42755768 0.23210652 0.0001752399 -0.43044373 -0.042757608 0.06546314 0.35686606
0.011689312 0.39333397 -0.29803878 1.4523631 0.35328454 -0.2848733 -0.016169427 0.058307238
0.10673947 0.69026273 0.20016459 0.82501584 0.0786465 0.013375012 0.10433862 -0.015565225
-0.061610296 -0.30428845 -0.09652888 -0.057723444 0.2865697 -0.078970715 -0.011683249 0.09087695
-0.039526016 -0.77208114 0.021683382 -0.14947821 -0.15075257 0.07610637 -0.057899553 0.23576596
0.18271333 -0.13501029 -0.14830303 0.32843584 0.00537552 0.060636654 -0.019820293 -0.21896745
-0.06258937 -0.42008263 -0.3710148 -0.3979937 0.03816065 0.017738482 -0.003167739 -0.008754163
-0.08622222 -0.077069804 0.021957783 -0.022706367 0.28201222 -0.042442348 0.102514714 -0.12505904
0.25906295 -0.31059095 -0.044366106 -0.58972305 -0.32557854 0.49206468 -0.58893704 -0.19340289
00000000: 4a5f bfbe 575a 99be c039 893a 4cd8 19bf
00000010: f0a8 0f3f b976 553e 4c27 3e3d 5779 86be
00000020: c20c f03c f77e a1bd 0f0d b23d af81 af3e
00000030: 2e06 81bd 499b 05bd 8f82 313c 14ed b3be
00000040: 95cb c53e 3e60 53bd 67ce 1b3d 0850 25bd
00000050: ea83 15bd 0f08 01bd 2cc9 fbbe 83cf b4be
00000060: 4c2c d0bc 21a8 a73e 288d a63e eeaa ddbb
00000070: 7e40 d23c f024 5bbe 53bc e93e 886f 1bbe
00000080: 22b4 613c 9062 f1bc 4900 a03e 32a0 eabe
00000090: 09e2 373f fa29 9bbe 1e22 473e 9997 083e
000000a0: f1a1 0fbf 821c 46be 5075 5b3e f552 e7bc
000000b0: 04f9 023e 2755 7cbd 0c4d 873c 3116 7f3d
000000c0: e45a e4ba 3fd1 c1be 2105 b4be 9dbb b1be
000000d0: 2dde 98bc 839b 2dbe bbaa bbbe 41ed b23e
000000e0: e2c6 97bc 03ff 68bd 3a6d fd3d bb1d 45bc
000000f0: 681e c5bd 8330 09bc 065b 3c3e b9ac 483e
00000100: 16ab 863c 76e7 33bf 9105 883e da5c 7dbe
00000110: 5aa7 e63c 23f9 d3bd 0f99 bbbb b2e7 9abc
00000120: f942 f83e 68e6 aa3e 2c63 e13c f33b 92be
00000130: 399b c2bc 11ca d63c 3ce3 85be f0d2 90bc
00000140: 4af3 f63e b6be 94be b4b9 0e3f 2a72 22be
00000150: 9503 953e abbb b3bc b629 e3bb 68d0 a73e
00000160: dd20 1dbd 518f 493e 30e0 403e 4a9f b13e
00000170: ae14 873d 0b28 cc3c 6a11 963e d5c0 54bf
00000180: ea13 8dbe a5d0 50be a195 ad3e eb7e eabe
00000190: 2f2b cfbd cb57 7d3c bc84 faba 7628 1dbc
000001a0: faae 05bf 5b91 28be 33a1 95be d260 02be
000001b0: 2f0e 1fbf ef23 2abe 5dc4 a33c 609c adbe
000001c0: 8581 14bd 3f2f 323e e807 d53d 9661 823c
000001d0: 0464 153e 4c50 c93c 7964 f2be 0e26 683e
000001e0: 9258 48bd 2f63 e93e b4dd 92be 319e 883c
000001f0: c8c3 e4bd 62cb 083e be5d ccbe 5544 163e
00000200: 23f2 b93e 0d78 43bf c65f 373d 3b4b 843e
00000210: 13ce 19bd 5ce3 183f 1dd5 14be 0f8d 20be
00000220: 5527 5cbd 1ef3 fbbe ad70 3e3f 6809 b63e
00000230: fbed 57be 40ea cdbe 2c6f 1cbd 5dca 89bd
00000240: e993 343d 1b9f 7e3e 2eac 1dbd 5fbb 893d
00000250: 0f47 c1be a258 04bc 97e7 aa3e 12f6 f6be
00000260: a2f3 a13c 3c49 23bf 6358 0dbe f926 343d
00000270: bd0e af3d e725 a63e b585 b6be d6fa ecbe
00000280: 235a 173f 42bc 74bf 3ed4 78bc 41d1 4cbd
00000290: 596b 60be f2e6 04be 04e6 b33e be8a 05bd
000002a0: 032c c8bd dfd3 f4bd 4060 ecbe 2ce8 11bc
000002b0: c4ae f03d 75e9 753c 7581 9cbf 9e93 1e3e
000002c0: 1645 b03c 602c c13e ed5b 2dbf 68ef ac3d
000002d0: b4cc a13d 1301 b7be 7b83 f1be 1905 39be
000002e0: a2c5 88bd d7e8 dabe 55ad 6d3e 9ac0 3739
000002f0: 1f63 dcbe 9a22 2fbd 8a11 863d 26b7 b63e
00000300: 8784 3f3c 1263 c93e 8a98 98be 09e7 b93f
00000310: b6e1 b43e eada 91be bf75 84bc 92d3 6e3d
00000320: 399a da3d 0fb5 303f f2f7 4c3e 3d34 533f
00000330: 6b11 a13d de22 5b3c 7daf d53d 4905 7fbc
00000340: 145b 7cbd b2cb 9bbe efb0 c5bd 6b6f 6cbd
00000350: 44b9 923e 66bb a1bd 196b 3fbc b21d ba3d
00000360: 08e6 21bd 1ca7 45bf 59a1 b13c d110 19be
00000370: e25e 1abe a8dd 9b3d 1528 6dbd a26c 713e
00000380: 3419 3b3e 2340 0abe c0dc 17be be28 a83e
00000390: 2125 b03b 245e 783d 2b5e a2bc 0139 60be
000003a0: db2e 80bd 1215 d7be a7f5 bdbe d5c5 cbbe
000003b0: 574e 1c3d 4b50 913c d799 4fbb 9f6d 0fbc
000003c0: 4695 b0bd c6d6 9dbd cfe0 b33c b402 babc
000003d0: e863 903e 07d8 2dbd 3cf3 d13d 7a0f 00be
000003e0: e6a3 843e c705 9fbe 3cb9 35bd 17f8 16bf
000003f0: 3bb2 a6be e7ef fb3e 94c4 16bf 680b 46be

decoder.fc_layers.2.bias f4 [128]
0.066936985 0.08046984 0.24529932 -0.4725807 -0.2129461 -0.568972 0.63936687 -0.012206083
0.46628913 -2.3555012 -0.02517875 -1.8440046 -0.34922147 0.17836472 0.48071575 -0.1612317
-0.21039097 -0.074704826 -0.38988113 -0.051260795 0.4197358 0.4298067 0.63461006 0.006058113
0.04159806 -0.3564283 0.32161847 -0.43498403 -2.0720503 -1.0173347 -0.2602355 -0.619025
0.20020936 0.004293513 0.122797646 -0.13673438 -0.64884037 0.41459388 -0.07745562 0.76865685
0.290418 -0.24346854 -0.109925725 -0.63075227 -1.1074655 -1.6042535 1.1409837 1.4242833
0.686976 0.03288076 -2.3039064 -1.4119178 0.3403038 0.4406671 -0.19778684 -0.1147654
0.114032 0.46511373 -0.54110867 -0.42015073 0.08290453 -0.42978048 -0.5529805 -0.17065573
0.23416804 0.6270048 -0.043041345 0.029270867 -0.09765506 -0.04313869 0.008756087 -0.46011746
0.4653014 -0.2743862 0.04650731 -0.09203242 2.4575293 0.32378092 -0.075470835 0.58114165
-0.4935358 0.012758521 1.5507511 -0.4512737 0.3852277 2.0544145 -0.37453136 -0.50021243
2.2740984 -2.2429192 -0.29115278 0.27254745 -0.0688606 0.008022754 -0.039574105 0.4626726
-0.027272297 -0.048903838 0.6491022 0.83977664 0.051845662 0.12997957 -0.05201863 0.3935175
0.06274442 -0.1877412 -0.52448267 -1.2273244 -0.47146028 0.2597032 -0.0706391 -2.0768123
0.00057028676 -0.25927106 1.8457234 -0.8178486 0.1471069 2.084903 0.48184085 -0.45946094
0.482428 0.27235806 0.5279223 -1.2317212 -0.42396304 -1.6086355 0.3107952 0.10586793
00000000: 4216 893d 5fcd a43d bf2f 7b3e 19f6 f1be
00000010: 8b0e 5abe 26a8 11bf 8cad 233f 06fc 47bc
00000020: 73bd ee3e 88c0 16c0 aa43 cebc 5808 ecbf
00000030: 28cd b2be 3ea5 363e 6020 f63e ec19 25be
00000040: bb70 57be d8fe 98bd 809e c7be d7f6 51bd
00000050: 9ce7 d63e a00f dc3e ce75 223f 2383 c63b
00000060: ba62 2a3d c57d b6be 2dab a43e 3ab6 debe
00000070: 799c 04c0 0638 82bf 963d 85be 6c78 1ebf
00000080: af03 4d3e 99b0 8c3b 557d fb3d 1904 0cbe
00000090: 671a 26bf a645 d43e 0da1 9ebd b2c6 443f
000000a0: abb1 943e d14f 79be bd20 e1bd fb78 21bf
000000b0: 6ec1 8dbf 2e58 cdbf c10b 923f ea4e b63f
000000c0: a9dd 2f3f faad 063d 3473 13c0 b9b9 b4bf
000000d0: 4d3c ae3e 1e9f e13e a288 4abe 1f0a ebbd
000000e0: 9c89 e93d 6323 ee3e 1986 0abf ff1d d7be
000000f0: dac9 a93d 300c dcbe 2190 0dbf 60c0 2ebe
00000100: bfc9 6f3e 6383 203f 1f4c 30bd 75c9 ef3c
00000110: 60ff c7bd 32b2 30bd b175 0f3c 8494 ebbe
00000120: fc3b ee3e 597c 8cbe 737e 3e3d 7e7b bcbd
00000130: 2948 1d40 9dc6 a53e 7490 9abd b3c5 143f
00000140: b9b0 fcbe 1e09 513c 037f c63f 590d e7be
00000150: 913c c53e 877b 0340 93c2 bfbe ec0d 00bf
00000160: d48a 1140 fd8b 0fc0 fa11 95be 578b 8b3e
00000170: c906 8dbd df71 033c 7518 22bd 6ce3 ec3e
00000180: 276a dfbc 644f 48bd 902b 263f 9afb 563f
00000190: 1e5c 543d 5d19 053e 7d11 55bd 207b c93e
000001a0: 2580 803d 3b3f 40be 7f44 06bf f718 9dbf
000001b0: 3e63 f1be d1f7 843e 3cab 90bd 7eea 04c0
000001c0: 4c7f 153a 2dbf 84be aa40 ec3f 875e 51bf
000001d0: 31a3 163e 0d6f 0540 d8b3 f63e 773e ebbe
000001e0: ce00 f73e 8472 8b3e ea25 073f 0aa9 9dbf
000001f0: af11 d9be c5e7 cdbf 8c20 9f3e 49d1 d83d
