2DVAE_Ch0_200.pth (torch, 552920 bytes, 14 tensors)

encoder_z.fc_layers.0.weight f4 [128, 400]
00000000: 4c5b 09bf 9ff4 02bf 3fa6 2fbf a9a9 29bf
00000010: c862 1abf 13d9 28bf 8acb 29bf 45b5 1abf
00000020: 8e3e 04bf 9e5a d2be fd67 65be 9634 06be
00000030: 59a1 62be 8d87 7fbe 170c 0fbe d929 47bd
00000040: c775 dabc a206 703d fd00 f13b 4e42 253d
00000050: d76d ebbc c64f 263e 4f62 54bd 0b72 04bd
00000060: 5bd0 69bd 09ef fcbb b45a f63d 7117 d33d
00000070: dce4 7e3d efad 303e 7dbf 703e 16a3 a53e
00000080: ef05 0e3e 7914 64bd 0445 0d3e 5c84 013e
00000090: c669 793e 0cea 183e 8c79 463d 7ca3 0b3d
000000a0: 5ac2 a0bc 4d08 583d ef81 b53d 1855 2a3e
000000b0: b94a 543e d7e6 9e3c 37f9 3abc 05ab 03bd
000000c0: 3f71 88bd 2718 9d3d 54b9 693d 4f52 89bb
000000d0: 67b9 24bd 809e 0abb 4948 f73d 3253 083e
000000e0: 6179 013e 5311 21b9 b78f 01be d8d4 febd
000000f0: 5536 0a3d 7abd 103d b046 b93c 4b1b 133e
00000100: 5bc9 903e d6a8 243e f1a7 b33e 9bbe f13e
00000110: 227f 093f 3ce1 3e3f 2943 453f aff4 653f
00000120: ba31 593f 9d44 393f 1832 213f 2464 0b3f
00000130: 8bc8 0c3f b767 c93e 2daf f33e d512 a23e
00000140: 7927 d33e 517b f63e 3a70 e23e 674e 853e
00000150: 7fb4 663e 99d7 2a3e 0a59 813e 3e01 893e
00000160: 0ed2 ac3e ab8f a83e 6faa b53e 6419 943e
00000170: fca1 8d3e 59f3 443e b3c3 f43d 2dc5 113e
00000180: 8393 133e 49ba 983d 565a 963c ea42 0d3d
00000190: f4d1 f93c 9dcc 803c ca2a d0bd 9a31 38be
000001a0: 2d1e 7abe e872 9abd e921 b4bd 9977 2ebe
000001b0: 2807 3abe 13bd ccbd 24e1 bebd c850 dfbd
000001c0: 26f2 3ebe c076 04be 58a1 80be c66d b0be
000001d0: 1458 94be 1a99 82be 9678 78be a76e 3abe
000001e0: 332b 30bd c5ce 5abd f15f 51be 0c5a 8cbe
000001f0: 1533 b9be aa36 a6be fcf2 50be 1840 62be
00000200: 89f4 15be 61b7 70be c226 a9be b6ce 85be
00000210: f3d6 47be 8a03 0ebe c7fe 5bbe dd12 56be
00000220: 641d 51be 32fc 83be 0982 3abe b9a5 50be
00000230: 7ce7 81bd 1ea9 eebd 4c70 2fbe 85b9 7dbe
00000240: b65b a3be c3c0 b7be 68e2 ccbe c061 f0be
00000250: e0c3 82be c1a1 8bbe dc88 89be 480c 49be
00000260: 41b0 1bbe a0a8 9ebd 3c23 07be 0d7d 02be
00000270: 6143 5e3d 42d6 863c c98d f1bd d530 a3bd
00000280: 9410 a53d b81b aa3d 3236 063e c7a7 e43d
00000290: b0f2 4b3e a2f3 2e3e 471a d13d 2cb0 f23d
000002a0: 2dd6 c0bc 7131 853d 87f0 c5bd 924e a7be
000002b0: 4fc5 9fbe ae2e 96be 8d1c e0be 1128 d6be
000002c0: 7a6a ccbe 020f 02bf 60a7 d1be e9fe dfbe
000002d0: 45b0 dbbe 6da0 04bf c2ae 01bf 8fdf eabe
000002e0: 0e14 edbe 646c e3be a5c1 ebbe aa85 07bf
000002f0: ddb8 1bbf 33c9 f8be 89b9 03bf 580c 0fbf
00000300: a1d7 38bf 4f37 2ebf 208d 37bf aea9 3dbf
00000310: 7bed 48bf af12 27bf 8706 2ebf 0447 3dbf
00000320: 648c 2bbf 1bdc d6be 2f35 dabd 6990 b53e
00000330: c148 5e3f 151c b33f 093c cc3f ade0 d73f
00000340: be40 d03f 76fa ba3f 993b 913f 4d4a 6e3f
00000350: 5393 4e3f cec6 373f 2768 293f 265b 233f
00000360: af6a fe3e c381 d93e da1b ee3e 4169 b73e
00000370: e329 a83e faa0 d33e 88f0 d53e 0bbb b13e
00000380: dc1a 943e c54c a73e c427 403e fd43 583e
00000390: 33ed 833e ed5b 813e 5686 4d3e ed8b 803e
000003a0: ea1b 153e 8424 0f3e be34 f23d faa8 4f3d
000003b0: 87a0 7f3d 3fd4 5d3c 74b0 8c3d 60f8 f73d
000003c0: aa63 f03d 456b 8e3d b2eb 47bc 81d6 373c
000003d0: 2c74 a13d 955c 203c 3959 9c3d e854 e8bc
000003e0: 8860 083d 506c c93a cbd0 31bd c92a c5bc
000003f0: 6f0e e3bb 8914 62bd eae5 d3bd 6d89 0ebe
-0.5365493 -0.5115451 -0.68613046 -0.66274506 -0.6030698 -0.6595623 -0.663262 -0.60432845
-0.5165795 -0.4108476 -0.2240295 -0.13105997 -0.22131862 -0.24954052 -0.13969456 -0.048623893
-0.026667489 0.058600076 0.007354854 0.040346436 -0.0287389 0.16241369 -0.051851567 -0.032335322
-0.05708347 -0.007718925 0.12029019 0.103072055 0.062229976 0.1725385 0.23510547 0.32350987
0.13869451 -0.055683587 0.13795859 0.12648147 0.24356756 0.14933032 0.04845576 0.034091458
-0.019623924 0.05274229 0.088626735 0.16634023 0.2073163 0.019397182 -0.0114119565 -0.03214552
-0.06662225 0.07670622 0.05706151 -0.00419072 -0.040215876 -0.0021151602 0.12074334 0.13312986
0.12643959 -0.0001536061 -0.12652479 -0.124429405 0.03374322 0.03533695 0.022616714 0.1436588
0.28278622 0.16080031 0.35089067 0.47215733 0.53709614 0.7456243 0.77055603 0.8982648
0.848415 0.7237032 0.6296706 0.5444968 0.54993504 0.3933694 0.47594586 0.31654993
0.41241053 0.48140958 0.44226247 0.2603638 0.22529791 0.16683806 0.25263244 0.2675876
0.3375401 0.3292211 0.35481593 0.28925622 0.27662647 0.19233455 0.11951389 0.14235373
0.1441174 0.07457406 0.018353622 0.034487642 0.030495621 0.015722567 -0.10164411 -0.17987671
-0.24425574 -0.07541448 -0.0879553 -0.1703781 -0.18166792 -0.099970005 -0.09320286 -0.1090408
-0.1864706 -0.12935925 -0.25123096 -0.3445875 -0.28973448 -0.25507432 -0.2426475 -0.18206273
-0.043009948 -0.053419847 -0.20446755 -0.2741245 -0.36171785 -0.3246358 -0.20405191 -0.22094762
-0.14644064 -0.23507454 -0.33037382 -0.2613427 -0.1951559 -0.13868538 -0.21483909 -0.20905633
-0.20421368 -0.25778347 -0.18213667 -0.20375718 -0.0634298 -0.1165335 -0.17132682 -0.24777801
-0.31905907 -0.35889253 -0.40016484 -0.46949577 -0.25540066 -0.27271846 -0.26862228 -0.19633591
-0.15203954 -0.077470064 -0.13197035 -0.12743016 0.054263476 0.016459588 -0.117946215 -0.07968298
0.08059803 0.08306068 0.13106611 0.111648135 0.19916797 0.17085126 0.1021009 0.11850008
-0.023539627 0.06503571 -0.096650176 -0.32677132 -0.31205222 -0.2933249 -0.43771783 -0.41827443
-0.39924985 -0.5080415 -0.4094801 -0.4374917 -0.4290792 -0.5180729 -0.50657284 -0.45873687
-0.46304363 -0.44418633 -0.46046177 -0.5293833 -0.60828954 -0.48591003 -0.5145498 -0.5587821
-0.72204024 -0.68053144 -0.71699715 -0.74087036 -0.78487366 -0.65262884 -0.6797871 -0.73936486
-0.67011094 -0.41964802 -0.10654675 0.3546174 0.86829764 1.3992945 1.5955821 1.6865441
1.6269758 1.4607685 1.1346313 0.93082124 0.8069355 0.71787727 0.6617455 0.63810956
0.49690768 0.42481813 0.46505624 0.3582249 0.32844457 0.41333753 0.41785073 0.34713015
0.28926742 0.32675758 0.1876517 0.21119685 0.25766906 0.25265446 0.20070776 0.25106755
0.1456143 0.13978773 0.11826466 0.050698258 0.06240895 0.013539373 0.06869593 0.12107921
0.117377594 0.06954054 -0.01220219 0.011220575 0.07883486 0.009787698 0.07634205 -0.028360799
0.033295184 0.0015367363 -0.04341201 -0.024068253 -0.006929211 -0.055195365 -0.10346587 -0.13919611

encoder_z.fc_layers.0.bias f4 [128]
00000000: 7d23 a4bf 8917 debe 6ab1 43be e1cc 2e40
00000010: 51fc 8340 66f2 b93f 4532 b3bf c2f7 703f
00000020: 8357 2f40 81e4 f8be 2785 5d3f 09da 273f
00000030: 417e c0bf 7c4f 8040 b115 0bbf 7fa9 53bf
00000040: 2c0b 4fc0 851c 27c0 0f7d 48be e3d2 113f
00000050: f9fe e4be 1ce3 f13f b2cc 38be 0c33 acbf
00000060: 3a87 143f 89a7 7cbf 36cb 293f 8a9d ca3d
00000070: f7b1 91bf 2812 b5be a6ce 723f d198 4e3f
00000080: d3df 963e 77b4 8fc0 4a2a 87bb 6f3f 0fbf
00000090: 5bac d43e 0bcc 52c0 be0d e8bf ce0a bcbf
000000a0: cb01 a8bf b2b3 443f 617c 7440 833a 233f
000000b0: 5325 a03f 3434 843f f4af 5bbf dcd3 4b3e
000000c0: e2e3 213f 262e e73e 3928 8abe 8df4 ecbc
000000d0: db72 dc3f 732f 95bf 678d a5bd 88d1 2c3e
000000e0: 43be b53f cf4f 67c0 5bc0 81bf 6d61 7cbf
000000f0: 7bb5 f5bf 2f18 4140 b2c5 60c0 e8c2 b33e
00000100: 27c0 1fbe f730 adbf 11f3 e83f 3755 ff3e
00000110: fe22 b6bf 15ec 733e 8d23 bf3f 492b 653b
00000120: 24b4 583f 1887 61bf e4a3 8a3f dbe9 1bbe
00000130: 85a1 54c0 bd37 4fbf b7d5 2fc0 9ee3 dcbf
00000140: e010 cf3f 8767 f23f 36ac 0f3d 24b2 ca3f
00000150: e426 76bf 5170 82c0 2099 6dbf a85b 46be
00000160: c226 2bbe c51e d0bf 1580 8bbe 11ea efbe
00000170: 76b5 5e3f 74f1 15c0 2e5f 6fbe 6254 13bf
00000180: 3625 f53d 7aaa 163f 2876 b23f a8ad a2be
00000190: 6aea 9abf 4ec8 7040 3aa2 8440 6212 0d3f
000001a0: d187 9dc0 f5fe 0ebf 2798 e4bd 3a00 20be
000001b0: 4636 8c3f c86f 12c0 20a5 313e ec2b aabd
000001c0: cd1d 86bf 7236 233e a3fc 6240 9d61 9bbf
000001d0: 6ccb d4be 1d93 223f 8dd9 9abe 657b f23e
000001e0: c3ec 1d40 1c04 76c0 f162 6bc0 d117 5abf
000001f0: 1aaa d7be 0cfa 4f3f 510c 4b3f c0e9 6640
-1.282333 -0.4337733 -0.19110647 2.7312548 4.1245503 1.4527099 -1.3999716 0.9412805
2.7397163 -0.48611835 0.865313 0.6556707 -1.503853 4.0097027 -0.54329973 -0.82680506
-3.2350569 -2.6111157 -0.19578956 0.5696241 -0.4472578 1.8897433 -0.18046835 -1.3453078
0.5801884 -0.9869314 0.663257 0.098933294 -1.1382436 -0.35365415 0.9484657 0.8070193
0.2946764 -4.4907794 -0.0041249143 -0.55956167 0.41537747 -3.2937038 -1.8129194 -1.4690797
-1.3125547 0.76836693 3.8200915 0.63761157 1.251139 1.0328431 -0.8581536 0.19905037
0.63238347 0.45152396 -0.26983812 -0.028925205 1.7222551 -1.1655105 -0.08083611 0.16876805
1.4198688 -3.6142461 -1.0136827 -0.9858616 -1.9196008 3.017101 -3.5120664 0.3510964
-0.15600644 -1.3530568 1.8199178 0.498697 -1.4229429 0.23820527 1.4932724 0.0034968427
0.8464987 -0.8809676 1.0831265 -0.15225928 -3.3223584 -0.80944425 -2.747419 -1.7256963
1.6177025 1.8937844 0.035076343 1.5835614 -0.9615309 -4.0762105 -0.92811775 -0.19370902
-0.16714004 -1.625939 -0.27246156 -0.46858266 0.8699564 -2.3428621 -0.23376152 -0.5755063
0.11969988 0.58853877 1.3942308 -0.31773114 -1.2102787 3.7622256 4.144803 0.55106175
-4.922829 -0.55857784 -0.11161833 -0.15625086 1.0954063 -2.2880726 0.17348146 -0.08309159
-1.0477844 0.15938738 3.5466697 -1.2139164 -0.4156145 0.6350573 -0.30244103 0.47359768
2.4675758 -3.8440008 -3.677914 -0.8519259 -0.42121965 0.81240916 0.7931567 3.608017

encoder_z.fc_layers.2.weight f4 [128, 128]
00000000: b32b 26be dd86 cb3d 5dae 5f3d 8189 24bd
00000010: 2268 bd3d 47f0 a33e a616 21bf 0b7f 623c
00000020: cb81 d33c d9a8 99bf 3845 323e b656 c53c
00000030: 83d2 6a3d 8fb3 ff3e 3fb6 043b d816 863e
00000040: 8945 b3be 7d2d 81be 4a8e 40bf dc5b 9cbe
00000050: e0c9 513f f222 1bbe dddc 2dbf 044d 253f
00000060: 8e1e a8bf 30bb 793f cda2 f3be 586d 16bf
00000070: c0da 7cbe d040 033d 6590 8bbe 407e 84bf
00000080: fc69 3abe 07d9 04be 3c9d 833e a480 cebd
00000090: fe33 a4be f49d 013e 2ced 143f 1ece 39be
000000a0: d198 883e 7104 74be a79e 873e 1fa6 73be
000000b0: fa0f b33f 3991 02be 5788 d33e 67a4 0c3e
000000c0: c43b 38bf 799d 5cbd 5a4e 88bd 832c 70bf
000000d0: 30d5 81bf 1b46 533e 77ea bf3e 5b8a 3cbc
000000e0: ae07 09bf e7b9 ec3d 51ec a13e 2b89 943e
000000f0: 1b77 e93d 2dc5 4bbb 8f62 08bf 8b57 00bf
00000100: 23f2 5fbf a489 3b3f 76b9 18bf 2ff8 f73e
00000110: 522a 82bf da78 a63f 706d a03d 1776 223f
00000120: dd3c 893f 49ad d7be fbf1 17be 763f f83e
00000130: 7b88 14bf 8a26 a53f 2d06 d63d 8d5e 10bf
00000140: 51e6 843c 130d 8bbd 2b8b 0cbe dd67 4dbf
00000150: 2067 eebd 1186 d8be 0abe 97be 7a81 1b3f
00000160: 9f61 0ebe 6222 4abf 13a3 ac3e 7dd4 253e
00000170: a9f1 4b3e fb7f 67be d130 3b3e f089 713e
00000180: 4722 093f 77a8 edbe 972b 783e fbda 17be
00000190: 45ea 733e 57c2 3f3f de82 033f 07b6 bf3b
000001a0: ca72 6d3e 6c9a 033f 649a ae3c 2f25 8c3e
000001b0: e888 833e aa6b a33d 0279 503f 1979 093f
000001c0: aebe 343d 5251 043f f697 393e 3fd8 5cbf
000001d0: 4964 51be d846 c9be 98ea 7abe 40e7 b6be
000001e0: 8677 18be 7081 9abe 2a7e 973d 1f3a 75bd
000001f0: 235e 133f fbc8 913e 6f92 0a3c d0bc 2abf
00000200: 7265 c13d 9e2b 053f 34d0 993e 8902 cb3d
00000210: e1be 2dbd 5971 ac3e 6ec0 dcbd 3e79 ae3e
00000220: 5a16 aa3e 612a 8bbd 9924 8c3e d5c1 6ebe
00000230: a655 2b3e 5254 553d e447 c43e c2c2 38bd
00000240: 2c4d 43be f876 f5bd 3b99 b6bd 60fb 9b3e
00000250: 50ed cdbe 5839 30be c5c0 67bf b1bc cc3e
00000260: 81f2 643e 51e6 bd3d d134 bd3e 7b48 60bf
00000270: a4e6 633e a0b0 da3e 5168 8d3e 2e8a a2bd
00000280: 07f0 91bd aac0 5abe 11f8 ce3e feaf 79be
00000290: b00f 513c c865 beba b7f9 96be d7f7 323e
000002a0: 0062 e1be bb19 d83e 26df 4bbd 007b 033f
000002b0: 5d91 5c3e 4681 52be 726f 913e 5943 c2be
000002c0: ade7 2fbf 458b b0be 7514 933e 6b26 d83e
000002d0: 8bd0 f63c 6f05 793e 5305 0b3e 5f11 b23e
000002e0: 0369 a5be 1ebd ebbd bc09 2cbd 1327 76be
000002f0: c5bb 8f3c 0438 51be d4eb 2dbf eca5 8b3e
00000300: 66ba 423d f405 fbbe e575 c23e 3d10 d4be
00000310: 129e d9bd c3eb 743e 7842 fe3e 6700 f53e
00000320: 29b6 a9be 838d 28be 71ef 74be ecce 66be
00000330: 042c d5bd 9f5e a33e 4670 1ebe 0bb1 373d
00000340: a2ec 813d 486b 833c e546 023e 2f94 9d3e
00000350: 6bd4 a73e 6742 1cbf 8c5b a2be 619a 7f3f
00000360: 9432 e03e 301a 7bbe 62a6 c9be f7bf e83b
00000370: 4fe1 35be f7bd 8c3b 59b7 ddbd 63f0 a4bd
00000380: 0a4f 283f 776a 0abf 976c 6bbe 7c94 cf3e
00000390: e7c4 963e a721 2a3e 8a37 813e f265 70be
000003a0: aa9b 83be 6113 b03e 60e9 123e eff7 0ebe
000003b0: d7f3 3abe 7b0b e7be 9f92 2bbf 2f9b a2be
000003c0: 48fd 40be 0eb5 f03e b282 643d 226e 5e3e
000003d0: 2529 9a3e 764f 1abf 4c00 803e d0dc 71bd
000003e0: 8f9d 483e be9d eebe ba6d d3be 01c3 95be
000003f0: 69e2 5fbe 0cda d3be 2e4a e03d ca18 883e
-0.16227607 0.099378325 0.054609645 -0.040170196 0.092483774 0.32019255 -0.62925184 0.013824235
0.025818726 -1.2004653 0.17409217 0.024089199 0.057329666 0.4994168 0.0020250229 0.26189303
-0.3501399 -0.25230017 -0.75217116 -0.30538833 0.8194866 -0.1515005 -0.67915136 0.6457064
-1.3134325 0.9755125 -0.47585145 -0.58760595 -0.24692822 0.032044232 -0.27258602 -1.0351028
-0.18204492 -0.12973414 0.25705898 -0.1008313 -0.32070917 0.1265791 0.58174396 -0.18145034
0.2667909 -0.2382982 0.2648823 -0.23793839 1.3989251 -0.1275071 0.41314957 0.1373459
-0.71966195 -0.053861115 -0.066555694 -0.9381792 -1.0143185 0.20632212 0.3748357 -0.011507596
-0.53527343 0.115588956 0.31625608 0.290109 0.11399671 -0.0031092868 -0.5327539 -0.5013358
-0.87478846 0.732569 -0.5965799 0.48431537 -1.0169165 1.3005631 0.078333735 0.6346144
1.0721699 -0.42124394 -0.14838402 0.48485917 -0.5802075 1.2902386 0.10450397 -0.56394273
0.016223105 -0.06789603 -0.13724963 -0.8023661 -0.11640763 -0.42289785 -0.29637176 0.6074444
-0.13904427 -0.78958714 0.33718166 0.16194339 0.19916405 -0.22607414 0.1828034 0.23587775
0.5356793 -0.4641759 0.24235378 -0.14829628 0.23819835 0.74905914 0.5137156 0.005850557
0.2318832 0.51407504 0.021313854 0.2737212 0.2569039 0.0797952 0.81434643 0.53700405
0.04412716 0.51686585 0.18124375 -0.86267465 -0.20448412 -0.39311862 -0.24503553 -0.35723305
-0.14889345 -0.30176878 0.07397111 -0.05986988 0.57565516 0.28473648 0.008457764 -0.66694355
0.09443177 0.5201968 0.3004166 0.09912593 -0.042418364 0.33680227 -0.107788906 0.34076875
0.33220178 -0.067951925 0.27371672 -0.23316129 0.16731891 0.052082367 0.38336098 -0.04510761
-0.19072407 -0.11985582 -0.08915945 0.3046522 -0.40220118 -0.17209375 -0.9052852 0.3998771
0.22358133 0.09272445 0.36954358 -0.87610596 0.22255951 0.4271288 0.2761865 -0.07936512
-0.0712586 -0.21362558 0.40423635 -0.24383542 0.012760088 -0.0014526183 -0.29487392 0.17477356
-0.4402008 0.4220713 -0.049773358 0.5135956 0.21539827 -0.20557126 0.2840534 -0.37942007
-0.68712884 -0.34481254 0.28726545 0.4221681 0.030128738 0.24318479 0.1357625 0.34778878
-0.3230668 -0.115106806 -0.04200147 -0.24038343 0.01754559 -0.20431525 -0.6793797 0.27275026
0.047541045 -0.4902798 0.3798057 -0.4141864 -0.10625853 0.23918061 0.49660087 0.4785187
-0.3314679 -0.16460232 -0.23919465 -0.22539872 -0.10408786 0.31908128 -0.15472516 0.044846576
0.06343962 0.016042367 0.12722357 0.30777118 0.3277925 -0.6103882 -0.3171047 0.9984494
0.43788588 -0.24521708 -0.39384753 0.007102962 -0.1776173 0.0042951065 -0.108259864 -0.08053663
0.65745604 -0.540687 -0.22990642 0.40542972 0.294471 0.166144 0.25237685 -0.23476389
-0.257047 0.34389785 0.14346838 -0.13961767 -0.1825708 -0.45125946 -0.670206 -0.3175902
-0.18846619 0.47013134 0.055788703 0.217217 0.30109516 -0.602775 0.25000226 -0.059048474
0.19591354 -0.46604723 -0.41294652 -0.2925034 -0.21863712 -0.41377294 0.10951649 0.26581413

encoder_z.fc_layers.2.bias f4 [128]
00000000: 5e55 f5bd 9922 c33e 7650 bbbe 955e 9dbe
00000010: 0ef9 0abe 93c0 d2be 4852 3d3e a09e 08bd
00000020: 096b 28bc f80c 3abb 0d37 0ebd 8430 3fbe
00000030: 2c4a ec3e 2dd1 483f 2389 e23e 958d 433e
00000040: 9af7 62be b323 003f b79e d83e 18ba 07bf
00000050: a6c8 443d 7039 fc3e 8baa ffbe 5207 af3d
00000060: f303 29be 9c80 71bd 1795 6fbd ee4e 55bd
00000070: 2cca 24bf d7ab df3e 1a5e 72bd e091 cdbe
00000080: 1449 d0bd 901d be3e 0b9f 1ebf be71 963e
00000090: 9461 64bd 3584 ad3e 7a7c c8be 65f3 ac3e
000000a0: b8fb 263e c919 d9be 0a67 02bf 7997 1a3f
000000b0: 73a1 a8be acf0 38bd ca40 e33d e80c 1a3d
000000c0: 16f5 54bd 5213 e33d 35c7 ecbe 0c9f 943e
000000d0: 5c84 b7bd 2dfb 40be 0ee0 913e b357 cdbe
000000e0: 9153 0a3b 0fe3 1ebf fcab 073f 1bc1 413f
000000f0: 720b 493f 0474 d13c eaed a9bd cfe7 bfbd
00000100: ed3d a0be 2f29 12be 27d4 0e3e d41c b4be
00000110: f55d 42be 2899 ddbe 1976 5cbd 4a8f 163d
00000120: 1b6b 7d3a d9f7 88bc 5767 8c3d b1d0 4dbf
00000130: 6f16 5c3d eb96 33bf 229a 973e 0e29 da3e
00000140: 415d bdbc fa35 0abd ea42 a03d 3c7f edbc
00000150: 7d50 dd3e 204d 2bbf 02d4 2bbe cf02 36bf
00000160: 4cda 46bb 26b9 89bd 38ae 113e 65d1 783e
00000170: 5e74 013e 6681 4e3d 2cb9 eebe fca6 4ebd
00000180: 11b9 593e 88eb b83e 0c7e 0c3d daa8 9e3d
00000190: ff16 9e3d dfc3 cd3d aab4 f63c d5ef 9abe
000001a0: 7f69 073f 2659 7f3e 47be 49be 487d 2dbc
000001b0: 9e5c 473e 145b f2bd af16 463f da20 373d
000001c0: 1aae ebbd dc3c c53e 5ff6 963d a2aa 083e
000001d0: c6b8 da3d a18b 13bf 1cb0 84bd 3b16 d2bc
000001e0: c64e 18bf 5416 5a3d 2310 983c c997 fe3c
000001f0: 9b5f 483e 25a5 7cbe 138d b03c 9490 a13e
-0.11979173 0.38112333 -0.36584824 -0.30736223 -0.1357157 -0.41162547 0.18488419 -0.0333544
-0.010279425 -0.0028389078 -0.03472047 -0.18670851 0.4615034 0.78444177 0.44245252 0.19096978
-0.22164765 0.5005447 0.4230859 -0.5301833 0.048042916 0.4926257 -0.499348 0.08546318
-0.16505413 -0.058960542 -0.058491793 -0.052077226 -0.6437099 0.4368579 -0.059171773 -0.40150356
-0.101701885 0.3713193 -0.6196143 0.29383653 -0.05575712 0.33889928 -0.39157468 0.33779445
0.1630696 -0.42402485 -0.50938475 0.6038738 -0.32935676 -0.045151398 0.11096342 0.037609965
-0.051991545 0.110876694 -0.46245733 0.29027593 -0.089607924 -0.18845816 0.28491253 -0.40105972
0.0021106938 -0.62065214 0.529968 0.7568528 0.7853309 0.025568016 -0.08297332 -0.09370386
-0.31297246 -0.14273523 0.13948117 -0.35178244 -0.18981154 -0.4328091 -0.053823564 0.036757745
0.0009667144 -0.016719745 0.06855648 -0.8039656 0.05373233 -0.7015216 0.29609782 0.42609447
-0.023115756 -0.033742882 0.07825263 -0.028991334 0.4322547 -0.6691456 -0.16780093 -0.71098036
-0.0030342517 -0.067247674 0.14226615 0.24298628 0.12642047 0.050416373 -0.4662565 -0.050452217
0.21262003 0.36117196 0.034299895 0.0774705 0.0771923 0.10047125 0.030115444 -0.30261102
0.5289535 0.24936351 -0.19701491 -0.010588951 0.19468924 -0.11833778 0.7737836 0.044709064
-0.115078166 0.38522995 0.0737121 0.13346341 0.10679774 -0.5763493 -0.06478903 -0.025645366
-0.594952 0.05324395 0.018562382 0.031078236 0.1956772 -0.24672373 0.021551644 0.31555617

encoder_z.fc11.weight f4 [2, 128]
00000000: 4128 f13d 1db5 413d ac2f aebb 86dc aeba
00000010: 0391 c33a 0621 02bd 9839 75bd fc85 99ba
00000020: 51a9 aaba 6848 05bc fe7e 21bb 6947 9d3a
00000030: e932 923c 6155 d83d 9628 d63d 9193 76bc
00000040: 578f cf3d a282 ff3d 3f0e 0abd 55d1 cf3c
00000050: 36f3 c73a 4721 42bc 8781 02be 527f dfba
00000060: 947d e2bb 9c60 cdb8 5e7c e63c 3b8d 1c3a
00000070: 2cd5 adbc a4fc 51bb 4409 0e3b fead 6d3d
00000080: a6ce 6fbc 12bc 8b3c fdd9 813b a3c3 f338
00000090: 50f3 983a 7a68 273d ae60 d6bd fb91 683d
000000a0: 5701 813c badd d9bd 4c59 c43b 7baf 2e3c
000000b0: f06a 15bc 2e9e aaba 760f e33c 3d9e 09ba
000000c0: 66e4 93b9 c837 10bd 49f1 0cbe 4763 023c
000000d0: 1b51 113b 3a2e a839 781d 583d 0ee3 c6bc
000000e0: 8509 e43a 244e 11be 39f7 adbb 4ae8 993d
000000f0: 7082 3f3e e5c9 993a ac4c cf3d 7a12 d83b
00000100: 485e febc 6e76 babd 5ffa 3c3c 67b3 bbbd
00000110: 3a00 1abc b666 073e 6f61 81bb cae9 093b
00000120: d72d 80ba 04ce 6a3b d413 f738 91c4 e7bd
00000130: 2cd0 09be da92 213d 37d8 3f3d 604d 8fbd
00000140: 6c32 28bb 8ce0 8bba a722 d639 5698 04b9
00000150: 1ce4 00bc 2821 80b9 4ff8 023d 4dce 3b3d
00000160: feee d2ba 555c e3bc 32f5 4bbb 0710 003d
00000170: 593d 89bd 5e8e 8d3a 7697 e43a f676 033b
00000180: 2679 113d f4c2 373d d331 47ba 326c 9139
00000190: 8823 db3c 7b95 ffbc b592 a83c cebc f33a
000001a0: 6090 dbbd 1001 f7bd 1d94 193c 34e7 1aba
000001b0: b535 a4bc cef1 15ba 6f8f 0c3d 1305 83b9
000001c0: 7fcf 5aba e062 c5bd fb77 0ebb 6ce7 4cbd
000001d0: 9e3d 22be 28f3 253c 33c4 e53c 7299 b13a
000001e0: 4ff1 84bd e03b cfb6 c5f1 d13a 593f a4bc
000001f0: 6ba2 3b3b d5c6 ecbb 4d46 083a 4a7c d73c
00000200: 2a1f b43c e175 18be 1bad 33be de75 423e
00000210: 4498 62bc 2625 6abc 90f2 213d 4ea3 2dbb
00000220: 14de aa39 3aa4 73bc 000e 8c39 8c33 6dbe
00000230: bb31 913d d9da ff3d d7ef 05bc a1db 79bd
00000240: caee c2bd bf7b bbbc c438 a4bd 66a0 6c3d
00000250: 4757 0fbb 07eb 9c3d 920f 8c3c e536 483b
00000260: e99a acbd c3e7 3bbe 92fe 08bd e86e 0bbc
00000270: 45d1 dbbd e188 a1be c794 6fbb e38f 62bd
00000280: 3030 81bd 36a1 033d 6cf3 a2bd 5765 873d
00000290: d1d7 d93b d16c b53c 1ecb 533d 8363 1d3d
000002a0: 1d72 ba3d 643f 263e a9e9 1c3e ea5e 82bc
000002b0: a08f 303d b77f e43b 47b3 873d 9f5a 153c
000002c0: 9f25 7e3b 6161 5fbc 70ee e3bc 48a2 9d3d
000002d0: 987a a4bb 88fc a2bd ad12 cabc 316e afbd
000002e0: 9302 d0bb 8557 a2bc 69ed 9fbd 7090 8b3c
000002f0: d24d 413c 8298 823a 6200 16bc 7707 e4bd
00000300: bc99 523c fecc aabb 6e84 163e 0cbe a03d
00000310: 0108 293d 1cf8 2cbe 00c2 7735 5ce9 8dbb
00000320: 1c50 bbbb 5977 8c3a aee9 b63a bbd5 a6bc
00000330: cf1c c3bc 2c6a f5bb bfcb ac3c 3c5c e4bb
00000340: 18f1 a73b a5db 7ebb 3eba f7b9 3bac abba
00000350: e77c 95be e0a6 6bbd c299 ef3c 9fee 86be
00000360: 0197 503e 0e24 88bc 774f 313d c45b 5dbc
00000370: 002c c53c c8fa 36ba b2ee b3bd 5611 163b
00000380: 1461 21be 86a8 2c3d cb8c 173b 9aaa e1bb
00000390: f103 65bd b078 213d 6ee3 0bbd a6b4 593e
000003a0: cb24 023d 46b7 4d3d 66ed ba3d 14fd 21b9
000003b0: 7fa7 67bd eca2 d2ba 8139 a93d 4b44 a23b
000003c0: 047e 9b3b b4aa 5abe e91c cd3a 42fe 6fba
000003d0: c619 a43b 6d5b 133c 2d2c 023d 404c 8cbb
000003e0: 2899 ef3c cd77 0bbb 4e85 9a3b fabc d0bd
000003f0: f5c2 df3d 9590 e0bb b2d7 01ba c6de 693d
0.11775256 0.047291864 -0.0053157415 -0.0013340868 0.0014920536 -0.031769775 -0.05986938 -0.0011712904
-0.0013020431 -0.008134939 -0.0024642344 0.0011999431 0.017846541 0.1056316 0.1045696 -0.015049831
0.10134762 0.12476088 -0.033704992 0.025368372 0.0015254978 -0.011848754 -0.12744723 -0.0017051494
-0.0069119427 -9.793157e-05 0.028135475 0.0005971973 -0.021219812 -0.0032041455 0.0021673003 0.05802726
-0.014636671 0.017057452 0.003962754 0.00011623583 0.0011669192 0.04087112 -0.10467659 0.056779843
0.01574771 -0.10637994 0.0059920903 0.010661955 -0.009119734 -0.0013017112 0.027717333 -0.00052497146
-0.00028208195 -0.035209447 -0.13763918 0.00795824 0.0022173587 0.00032077899 0.05276248 -0.02427819
0.0017397857 -0.14189965 -0.0053090123 0.07515009 0.18702102 0.0011733143 0.10122046 0.0065939995
-0.031050816 -0.0910462 0.0115343025 -0.09165078 -0.009399468 0.13222775 -0.0039483826 0.002104389
-0.0009779286 0.0035828361 0.00011781571 -0.11316789 -0.13458318 0.03944669 0.046837058 -0.0699718
-0.002566482 -0.0010671779 0.0004084308 -0.0001264525 -0.0078668855 -0.00024438766 0.031975087 0.04585104
-0.0016092954 -0.027753988 -0.003112149 0.031265285 -0.06701154 0.0010799875 0.0017440158 0.002005992
0.035515927 0.044863656 -0.0007598672 0.00027737167 0.026750341 -0.031199208 0.020577768 0.0018595697
-0.10720897 -0.120607495 0.009373692 -0.0005909086 -0.02004514 -0.00057199306 0.034316476 -0.00024990048
-0.00083469594 -0.096379995 -0.0021738994 -0.05002539 -0.15843818 0.010128774 0.028047657 0.0013549759
-0.064913385 -6.176051e-06 0.0016017488 -0.020049738 0.0028630744 -0.007225851 0.0005198464 0.026304383
0.021987516 -0.14888717 -0.17546503 0.18990275 -0.013830248 -0.014291083 0.039537966 -0.0026495042
0.00032590388 -0.014870698 0.00026713312 -0.23164195 0.070895635 0.12492914 -0.008174858 -0.06100047
-0.09518202 -0.022886155 -0.0801864 0.057770155 -0.002187209 0.076620154 0.017097268 0.0030550298
-0.08427984 -0.18350129 -0.033445902 -0.008510329 -0.10733274 -0.31549743 -0.0036557184 -0.055313002
-0.06308019 0.032136165 -0.07956585 0.06611126 0.006648042 0.022146614 0.05170738 0.03842498
0.09103797 0.16235119 0.1532351 -0.0159144 0.04310572 0.0069732326 0.06625991 0.009115844
0.0038779748 -0.013634057 -0.027823657 0.07696968 -0.005019497 -0.07958323 -0.024667108 -0.08565939
-0.006347963 -0.019817123 -0.07808954 0.017036647 0.011798339 0.0009963664 -0.009155365 -0.11134236
0.012854036 -0.0052124253 0.14698955 0.078487486 0.0412674 -0.16891521 9.229698e-07 -0.004330797
-0.005716337 0.0010716721 0.001395514 -0.020365587 -0.023817448 -0.0074894633 0.021093247 -0.006969003
0.005125176 -0.0038888243 -0.00047250272 -0.0013097593 -0.29196855 -0.05753219 0.029248122 -0.26353928
0.20370103 -0.016618755 0.043288674 -0.013510648 0.024068832 -0.00069801183 -0.08785762 0.0022898517
-0.15759689 0.042152904 0.002312469 -0.0068867924 -0.055911962 0.039421737 -0.03415244 0.21260318
0.03177337 0.05022361 0.091273114 -0.00015448435 -0.05655622 -0.0016070283 0.08262921 0.004951989
0.004745247 -0.2135418 0.0015648875 -0.0009155014 0.0050079552 0.008993966 0.03178041 -0.0042815506
0.029247835 -0.0021281124 0.004715598 -0.101922944 0.10925857 -0.006853173 -0.00049531006 0.05709722

encoder_z.fc11.bias f4 [2]
00000000: 90f0 fb3d 7fd2 193e
0.12301743 0.15021704

encoder_z.fc12.weight f4 [2, 128]
00000000: 3e48 bcbc d617 89bd 7406 9dbd e2d0 bf3c
00000010: 2fe5 febb 6de9 c1bd b5df 08bd 0da4 a53b
00000020: 1c78 2338 def5 0bbe a57d fa3b 93cc e4bc
00000030: 5c13 d7bd 17b9 83be 9c2d 123d e026 7fbb
00000040: 306d c03c 53d6 d6bc a2bd 0bbd a581 c639
00000050: 38a5 ce3b 14f0 a73b 8b33 c2bb 25dd 2bba
00000060: ff97 453d 403c fb3b ba17 1a3d c841 b53b
00000070: 7c98 073e 99ab 3ebd 3962 113c b770 82bc
00000080: 2cf8 edbc 323a 753b 741b 02bc 6766 963c
00000090: 55b7 5c3b 6fa8 bfbd 9273 f53c ed0a 66bd
000000a0: a334 813a 96d1 ce3c 8b87 c23d 063e bfba
000000b0: cacf 9a3d 3515 b53a 38b6 0f3d 6a6c f4ba
000000c0: b084 853b 5a38 243b 3440 923d dd1d 063d
000000d0: 640c 60bb 5833 8dbd f1a8 91bd 28a4 eabc
000000e0: 860e 1ebc e096 833e 5f23 ccbc 3c33 fbbe
000000f0: 4eb8 0dbe be6d d3bb 32a8 4ebe bb4d 47bd
00000100: 8b96 b23d e424 0f3e 66bc 333d 55e1 663d
00000110: 35a0 173e 39dc be3d cb67 6c3b a573 643b
00000120: e66d 203c 8896 10bb da59 1ebb a705 923e
00000130: 9709 92be fc00 943d ca68 70bd fcde 23bd
00000140: ad3a f8ba ee36 71ba 17b0 a53b add9 12bc
00000150: d772 7c3d 48c1 2b3e 5e9d 82bd 81ce 1e3d
00000160: 0f0f f53c a696 973d c325 afbd 9a8b 793d
00000170: c86e 343e 47ff 583b a774 813c 2889 f9bb
00000180: 5e3f 9cbd a85b f53c b36d 9fbb 5f2c 113b
00000190: 170c a83d da01 66bd 3dca 8dbc 9733 afbb
000001a0: 6d85 9ebe 2153 b0bd d292 6b3d a5f0 ff3b
000001b0: dc82 e2bc dabf 8dbb b352 97be 6bf0 a23b
000001c0: 9cc3 aebb 93b4 ebbe 9d14 ae3a 1a5d 99bd
000001d0: 4b96 aa3e c232 e3bc bc36 b33c 776e 193c
000001e0: 32bf 7d3c 687d 71b9 3f43 ed3b 4a71 593d
000001f0: 8bcc e83b c115 13bd 3c78 f8b9 b958 513d
00000200: 5aa3 553c e71a 91bd e6aa 70be f8d3 8c3c
00000210: aaee c73a e897 8e3c f73e 783b d803 0bbc
00000220: 2de2 d63a 6979 a6bd 7814 89bc f5a4 9cbe
00000230: 46f6 8dbd 48d4 0abe c9f2 46bc df0c 06be
00000240: c00f d63d e494 853d 0f13 3b3d e430 943d
00000250: 54d1 9dba 2111 0fbe df07 23bc 4d74 fd3b
00000260: 7f96 293c 5478 d6bd 7992 283c 64b6 b3bb
00000270: 87bc ed3d 12bc 723e 4255 2dbb 4c0f ab3c
00000280: 9669 273d 449d 4dbd fb87 943d fd8a 3c3d
00000290: f112 503c 0700 dcbd efd8 3c3d bb7f 3abd
000002a0: c453 993d 122e ff3d 8621 c9be 5384 46bc
000002b0: 4093 1ebe 0255 29bb a07e 5b3c b3b1 a4ba
000002c0: 02cc fa3b 8867 e8bd bdba 7ebc 7820 b3ba
000002d0: 0c7d 8237 1a3c 5ebd 8b64 afbd f049 ec3c
000002e0: 3aa2 603b b4d7 1b3d 615b 10be 91ad 90be
000002f0: 4d37 2bbe d723 12bc fc06 88bd 1777 2bbe
00000300: 0859 8abd 0948 0fbd bae2 783e 65e2 383d
00000310: f932 b83b 66e6 0e3e 7f5b 313b 958c 4bba
00000320: c209 c53a 36d8 a83b 8e66 9e3b 6ab2 4f3e
00000330: 503e 1b3c 324d df3d d84f 27bd 467d e03d
00000340: f208 803b dbdc 4bbb 3e37 0bbb 6674 353a
00000350: 5adf b33e 4f1f 993d ca3e cf3b e060 423e
00000360: c216 8ebd 68a4 b73d 6f8b 153c 74c0 0fbd
00000370: b59b 813e d153 863b 75ef 30bc 7eb6 9d3a
00000380: 1594 33be 2d37 a8bc ea78 9cbb 24d1 0abc
00000390: f9fe 84be 8393 7bbc ca06 fd3b ff98 14be
000003a0: 2c0f 01be 3b22 adbd aab2 473d 2d04 9dbb
000003b0: 5f02 8fbd 54f5 b13a 2488 31be 9314 84bb
000003c0: 9166 98ba 6b5a 83be 8876 433c a215 013c
000003d0: 92f4 1c3d 6998 6d3e 9eab b3bc a058 3139
000003e0: 1ecd cb3d f8ae 353c 9c19 3dbb 20b0 bbbd
000003f0: fb3b 9b3d 266e 8a3d 28ee d8ba 76b3 b0bd
-0.022983667 -0.066939995 -0.076672465 0.023415033 -0.0077787857 -0.094683506 -0.03341647 0.005054957
3.897409e-05 -0.1366801 0.0076443725 -0.02792958 -0.105017394 -0.2572715 0.035688028 -0.0038933083
0.023489565 -0.026225245 -0.034116395 0.00037862096 0.0063063167 0.005125055 -0.0059265546 -0.00065560854
0.048240658 0.0076670945 0.037620284 0.0055315234 0.13241762 -0.046550367 0.008873516 -0.015922887
-0.029049002 0.003741872 -0.007941116 0.018359376 0.003367861 -0.09358298 0.029962335 -0.056162763
0.0009857606 0.025246423 0.09498509 -0.0014590628 0.07559164 0.0013815524 0.035085887 -0.0018648033
0.0040746555 0.0025058002 0.07141152 0.032743324 -0.0034187073 -0.06894559 -0.07112301 -0.028642729
-0.009647017 0.25701046 -0.02491921 -0.49062526 -0.13839838 -0.0064522913 -0.20181349 -0.048658114
0.0872012 0.13978916 0.043880843 0.056367237 0.14807208 0.09319348 0.0036072608 0.0034858969
0.009791827 -0.002206238 -0.0024162442 0.28519937 -0.2852294 0.0722675 -0.058693685 -0.040007576
-0.0018938385 -0.00092016056 0.005056392 -0.008963031 0.061632957 0.1677295 -0.06377672 0.038771156
0.029914407 0.07401781 -0.08552124 0.06092415 0.17620385 0.0033111142 0.015802694 -0.0076152273
-0.07629274 0.029950932 -0.004865372 0.0022151691 0.08205431 -0.05615411 -0.017308349 -0.005346726
-0.3096117 -0.086096056 0.057513066 0.0078106695 -0.02765029 -0.004325849 -0.29555282 0.0049725077
-0.005333377 -0.46036205 0.001328129 -0.07488461 0.3331779 -0.027734164 0.021876685 0.009364716
0.015487479 -0.00023030268 0.0072406824 0.053086556 0.0071044615 -0.035909418 -0.00047391828 0.051110003
0.013039434 -0.07085209 -0.23502693 0.017190918 0.0015253623 0.017406419 0.0037879327 -0.008484803
0.001639431 -0.08128626 -0.016733393 -0.30594602 -0.069317386 -0.13557541 -0.012142845 -0.13090847
0.10452223 0.06522539 0.045672473 0.07235888 -0.0012040534 -0.13971378 -0.009950607 0.0077348114
0.0103508225 -0.104721695 0.010288828 -0.005484389 0.11608224 0.23704556 -0.0026448523 0.020881318
0.04087218 -0.05019881 0.07252499 0.046030987 0.0126998285 -0.10742193 0.04610532 -0.04553197
0.0748668 0.12459959 -0.3928339 -0.0121165095 -0.15485859 -0.0025838022 0.013396889 -0.0012565166
0.007653714 -0.11347872 -0.015547452 -0.0013666293 1.5555437e-05 -0.054256536 -0.08564099 0.02884385
0.0034276382 0.038047507 -0.14097358 -0.2825742 -0.16720314 -0.008919678 -0.06641957 -0.16744648
-0.067552626 -0.034980807 0.2430524 0.04513778 0.005621311 0.13955078 0.0027062593 -0.0007764784
0.0015032815 0.0051527275 0.004834003 0.20282903 0.009475306 0.10903396 -0.04084763 0.10961394
0.0039073164 -0.0031106982 -0.0021242644 0.0006921947 0.3513134 0.07476675 0.0063246237 0.18982267
-0.069379345 0.08966905 0.009127482 -0.035095647 0.25314108 0.004099347 -0.0107992785 0.0012032536
-0.17536958 -0.020534122 -0.0047751563 -0.008472715 -0.2597578 -0.015354994 0.0077217566 -0.14511488
-0.12603444 -0.084537946 0.04875437 -0.0047917576 -0.06982874 0.0013577142 -0.1733709 -0.004030773
-0.0011627247 -0.2565492 0.0119301155 0.007878693 0.038319178 0.23202671 -0.02193242 0.00016913051
0.099512324 0.011089079 -0.0028854376 -0.091644526 0.075798 0.067592904 -0.0016550468 -0.086279795

encoder_z.fc12.bias f4 [2]
00000000: 5fc7 86be cde8 25be
-0.26323983 -0.16202088

decoder.fc_layers.0.weight f4 [128, 2]
00000000: 1776 023f a4b6 c83e 3a7e 66bb a8c2 263b
00000010: 8ae5 56bf de07 7d3e 5e7c b73f 84f8 94bd
00000020: 33e3 f1be ea0f bebd 1c24 3b3e 61d4 0d3e
00000030: 9aa2 ab3e 45a3 2dbf 7a52 413f 2be5 ef3e
00000040: 14b4 69ba eea9 d0ba 3633 123f b8dc 96be
00000050: f2b8 36bf 261f fc3f 52ee 3dbe 0c25 103f
00000060: d760 7d3e 630a 1cbf 0e03 c8bb a1fe 403b
00000070: e236 803b 2fff 973b 9a52 843f bf61 15bf
00000080: 5feb 1bc0 fbdd 4c3e 2df4 323f bff2 223f
00000090: 502e d0bb 4b40 93ba 883b f7bb a328 b63a
000000a0: b166 ed3e 5981 ddbd e015 a83e c13a 583c
000000b0: cd48 0540 0757 c8be 161b 563f ade4 f8be
000000c0: ab64 59bd ffc5 46bc f2eb 2fbe 7b67 71c0
000000d0: de2b cabe 2681 f53c 4b94 35bc a66f 923c
000000e0: ff31 f6be 30cd 31bd 228e f03d 662f 943d
000000f0: 550f 40c0 c735 a33e f0dd f0be a803 0bbf
00000100: 40cb 8ebe f4d0 bc3e 5fa1 1b3c 0d53 223b
00000110: 75e1 02be a9fe 94be 6f74 123f 1adc 9ebe
00000120: e0c3 c1bf ce22 c9be af8f 6a3f a204 64bf
00000130: c857 d8be 0101 283e 0496 ac3d c94a 19bf
00000140: 7088 bb3e af8e 853d d035 d53e 3f2d a7be
00000150: 4788 513f a159 6fbf c434 94be 794b d13e
00000160: b9fc ddbe 8edc ca3e 47d1 833e e025 80bd
00000170: a240 cbbe 0009 0fbf 9673 523f 30ca 523f
00000180: c05a bf3f 8e84 46be c7a4 c53c d3ae 9b3a
00000190: 2199 bcbe 0711 febe b3d0 683f a396 943d
000001a0: 3a8b 59ba 030d 373b d9ec edbe 7094 93be
000001b0: ab7d ae3f 79ca 0abf 35a9 1abf 099e 90bf
000001c0: d902 09be 2a4b eb3e ce72 ec3e 71a4 79be
000001d0: 02ba 4abb de92 a2ba f591 d1be 775c 393c
000001e0: 7ee9 513f 18fa c7be 8747 2abe f498 e03e
000001f0: 849b c7be 1284 293d c735 54bf 6d13 cb3e
00000200: 222f a1ba e1fd a5bb 25b5 8e3b faac 0bbb
00000210: 029e d43b 850e 93bb 7850 063f 6b38 4840
00000220: 6fd4 a13e fbb2 cebd 08e5 dbbe 5389 b0be
00000230: dccf 4eba fe6d a83b f70a a33e e659 98be
00000240: 574d 53bf 1af7 ebbe 04e1 18bc a82e 19bb
00000250: 39b8 3fbe 35dc d5be f76e 6f3f cae3 893f
00000260: f856 063c f176 dbbb e281 01c0 ef3c 803e
00000270: 3882 ee3f 2b5b 1e40 cf84 e33b 43b7 9439
00000280: 34a2 ccbf a79c e33e 1ce1 fe3e e90c 083e
00000290: 4828 f5bf 1776 58be 0882 283f df2f d03c
000002a0: 129e 47bf 7ffe 0dbf 1711 20be 0b15 ddbe
000002b0: 2e3d a63b 3f52 89ba 6472 32bf 82c0 47bf
000002c0: 4ffb 9bbb 7430 20bb 5570 3abf 8f66 5ebf
000002d0: 4bd2 0138 7392 683b 62c0 c7bf ecf6 253e
000002e0: 1bd8 ae3e 71c4 1bbf d929 243e ccbd 3c3c
000002f0: 527b 04bf ef91 dcbc 2dd6 8e40 5280 613f
00000300: 991a 783e f260 013c 066d ab3f e3ff 2abf
00000310: 00e3 66ba 4ffc ba39 3e6f 6840 ef55 a93e
00000320: 95ed 16be fb0a 093f ef46 c3be 7da9 f63e
00000330: 7f30 bc3f 2543 73bd 3098 1dbb e28e 02bb
00000340: e406 6f3f 858c cd3e 795c 4a3f 83b3 adbe
00000350: 5285 5b3f dc0a ddbe 1d9e 9bbe 271e 2fbd
00000360: 21d5 413f 98d4 2e3e 2d38 073f c454 ed3e
00000370: 05ee 7dbb 41cd 10bc 394f ba3b 9f7f 243c
00000380: e450 a8bf 356d 183f 6da2 05bf 1785 b43c
00000390: 33b9 0dbf 35a3 0a3d 97bb c3bb e276 49bb
000003a0: b821 c5be 8416 013e 463e b83b 5a9d 06bc
000003b0: ce6c 0b40 5ade 86be 52fc 45be d251 c9bd
000003c0: ce3e 10be 502f 043f f769 aebf 6fb8 203f
000003d0: c6ba 853e 75b2 323f c57b 12bd c7e7 2fbc
000003e0: d655 a63f 0463 49bf 050e 2fbf 223d ab3e
000003f0: 9c82 4d3f 9fc0 fabe c121 523a 41bd 343b
0.5096144 0.39201844 -0.0035170452 0.0025445614 -0.83944 0.24710032 1.4334829 -0.07273963
-0.47243652 -0.09280379 0.18275493 0.13850547 0.33522493 -0.67827255 0.75516474 0.4685453
-0.00089150784 -0.0015919784 0.5710939 -0.2946527 -0.71375954 1.9697006 -0.18547943 0.5630653
0.24743973 -0.6095335 -0.00610388 0.0029448646 0.0039127925 0.0046385746 1.0337708 -0.58352274
-2.436241 0.20006554 0.6990383 0.6365165 -0.006353177 -0.0011234371 -0.0075449385 0.0013897609
0.4636741 -0.10815687 0.3282919 0.013197602 2.0825684 -0.39128897 0.8363508 -0.48611966
-0.05307452 -0.012132167 -0.1717985 -3.771941 -0.39486593 0.02996881 -0.011082719 0.017875504
-0.4808502 -0.043408573 0.1174586 0.07235603 -3.0009358 0.31876966 -0.47044325 -0.54302454
-0.27889442 0.3687817 0.009498923 0.002476874 -0.12781318 -0.2910054 0.57208914 -0.310273
-1.5137901 -0.39284366 0.91625494 -0.8906957 -0.42254472 0.16406633 0.08427051 -0.5987974
0.3662753 0.06521355 0.41642618 -0.32651708 0.8184857 -0.9349614 -0.28946507 0.40877894
-0.43356875 0.39621395 0.25745603 -0.06257224 -0.39697748 -0.5587311 0.8220762 0.82339764
1.494957 -0.19386503 0.024126424 0.0011877663 -0.36835578 -0.49622366 0.9094345 0.07255294
-0.00082986394 0.002793134 -0.46469763 -0.28824186 1.3632101 -0.542152 -0.6041444 -1.1298229
-0.13379993 0.45955783 0.4618134 -0.24379136 -0.0030933623 -0.0012403389 -0.4093167 0.011313549
0.81996906 -0.39057994 -0.16628848 0.43866694 -0.38985837 0.041385718 -0.8289456 0.39663258
-0.0012297372 -0.005065665 0.00435509 -0.002131282 0.0064885626 -0.004487815 0.52466536 3.1284435
0.31607386 -0.100927316 -0.42948174 -0.3447977 -0.000788925 0.005140065 0.31844303 -0.29756087
-0.82539886 -0.4608696 -0.009330992 -0.0023373757 -0.18722619 -0.41769567 0.93528694 1.0772641
0.008199446 -0.0066975285 -2.0235524 0.2504649 1.863349 2.4743145 0.0069433223 0.000283653
-1.5987 0.44455454 0.4978112 0.13286175 -1.9152918 -0.21138798 0.6582341 0.025413452
-0.7797557 -0.55466455 -0.1563152 -0.43180117 0.005073211 -0.0010476782 -0.69705796 -0.7802812
-0.004760183 -0.0024442943 -0.72827655 -0.8687524 3.0951847e-05 0.003548768 -1.5605586 0.16207474
0.3414925 -0.6084662 0.16031589 0.0115198605 -0.5175067 -0.026925055 4.4636445 0.88086426
0.24228896 0.007896649 1.3392646 -0.667967 -0.00088076293 0.0003566467 3.6317897 0.33073375
-0.14739068 0.5353238 -0.38140056 0.48176184 1.47023 -0.059390206 -0.002404701 -0.001992159
0.9336989 0.4014627 0.7904735 -0.3392602 0.85750306 -0.43172348 -0.30394068 -0.042753365
0.75715834 0.17073286 0.5282009 0.46353734 -0.0038746607 -0.008837999 0.0056857136 0.010040193
-1.3149686 0.59541637 -0.5220097 0.022036118 -0.55360717 0.033847053 -0.00597329 -0.0030741026
-0.38502288 0.12606245 0.005622658 -0.0082162265 2.178516 -0.26341516 -0.19334534 -0.09830059
-0.14086458 0.51634693 -1.3626088 0.62781423 0.2611906 0.69803554 -0.035762567 -0.010736412
1.2994945 -0.7866671 -0.6838077 0.33445078 0.8027742 -0.48975083 0.0008015894 0.0027578624

decoder.fc_layers.0.bias f4 [128]
00000000: 57ab 50bf c849 86ba f721 c4be e454 813e
00000010: bead 87bc 6832 41be bb98 bcbf b5aa 4b3f
00000020: 58b0 88bb b5c2 6e3f 3b48 273f 4c92 723f
00000030: b63e a4bf 3017 1eba 452d aa3b 2c55 8ebf
00000040: 598a 863f 21ce a7bf 5b28 acbb 438b 263b
00000050: 72f2 e13e ef1c d73d 9aa4 67bf 1447 8c3f
00000060: db91 0f3d b7da c7bf 6886 253f 11cf 913c
00000070: d57b 153e c972 63bd f465 ae3e dfdc aa3f
00000080: 6f52 493f f67d bd3b 9a86 acbe 8f0d 51bf
00000090: a633 d1be 990b b5bf f769 05bf 46c2 91bf
000000a0: 1a1c dbbc b706 81bf 00ad aabf 3950 743f
000000b0: 0f9a 8c3f ae41 c7be 8755 763f 09d8 afbf
000000c0: d7dd 44be 6c7a 13bc 5398 823f e5c9 d5be
000000d0: f8a7 38bb bbfe 893f 2080 413f 8b10 7cbf
000000e0: bf89 5c3f e01a 2e3f 259c 99ba be62 313f
000000f0: f082 583f 18e9 5b3f e01b 243f e2de 6dbf
00000100: d4e7 cdba 51e7 e33b 6141 81b9 815d 96bf
00000110: c879 0cbf 3ef6 823f c7bb 6c3a 66a1 51bf
00000120: 859d 34bf f402 dabb 5821 19bf 69e4 1dbf
00000130: 5bd7 7b3a 0ec3 20be 2e60 3c3f 1b28 d9ba
00000140: e3c4 e7be b54a 683e 1035 0fbe 5833 c1bf
00000150: 7aa0 7ebf 857f 23bf 3456 ba3b 9363 2fbf
00000160: df56 bdbb 7b50 223f cf8b 423a e079 113f
00000170: f453 a8bf 1308 12be 59a6 863f 5d8c 553d
00000180: d238 92be 759d bcbf a033 06bb 05f4 81bf
00000190: dca1 843f c805 963f bcf8 c0be 9496 dc3b
000001a0: a471 f23e 1d9e 603f dce1 4e3f 06da d03e
000001b0: 390c c83c fc46 b4bf f10b 2cba 69f3 8d3b
000001c0: 93fa 803e 71da 863f 3226 973f 2948 fabb
000001d0: c55a c6be 7c36 cc3b cdd2 823e 9f62 413e
000001e0: e010 7e3f 4352 553f 1b95 8e3f ada2 863c
000001f0: f65a acbf 76ce 96bf 23ea 653f 3824 ee37
-0.81511444 -0.0010245377 -0.38307163 0.2526008 -0.016562339 -0.18866885 -1.473411 0.79557353
-0.0041714124 0.9326585 0.6534459 0.9475448 -1.2831638 -0.0006030677 0.005193385 -1.1119742
1.051097 -1.310978 -0.005253834 0.0025412596 0.44130284 0.105035655 -0.9048554 1.0959191
0.035051208 -1.5613621 0.6465821 0.017798932 0.1459802 -0.05552939 0.3406216 1.3348655
0.7864141 0.005782838 -0.33696443 -0.81661314 -0.40859717 -1.4144164 -0.52114815 -1.1387413
-0.026746798 -1.0080174 -1.3334045 0.9543491 1.0984515 -0.38917297 0.96224254 -1.3737804
-0.1922525 -0.009001356 1.0202736 -0.41755596 -0.002817629 1.0780863 0.7558613 -0.9846274
0.86147684 0.6800976 -0.0011719508 0.69291294 0.84574795 0.8590255 0.64105034 -0.9291822
-0.0015709349 0.0069550653 -0.00024653508 -1.1747285 -0.54873323 1.0231397 0.00090306666 -0.818869
-0.70552856 -0.006653184 -0.59816504 -0.6167665 0.00096069806 -0.15699407 0.7358426 -0.0016567738
-0.452674 0.22684748 -0.13985085 -1.5093794 -0.9946362 -0.63866454 0.0056865457 -0.68511313
-0.005778178 0.63404053 0.0007421346 0.5682659 -1.315062 -0.14260893 1.0519515 0.052135814
-0.28558975 -1.4735552 -0.0020477548 -1.0152594 1.0361896 1.1720514 -0.3768977 0.0067318175
0.47352326 0.8774126 0.80813384 0.4079134 0.02441989 -1.4084163 -0.00065630587 0.0043319953
0.25191173 1.0535413 1.1808531 -0.0076379967 -0.38741127 0.006232081 0.25551453 0.18885277
0.992445 0.83328646 1.1139253 0.016434992 -1.3465259 -1.1781757 0.8981039 2.8388677e-05

decoder.fc_layers.2.weight f4 [128, 128]
00000000: 9fcf 1cbd 2cc2 733c 97b8 e9bc 96af 06be
00000010: fad5 013e d633 d0be b3d6 013f e9ca 973a
00000020: 16bd 8d3c 42d4 733e ec29 dbbe 2aac 3dbf
00000030: c52b 853e 79a8 093d debe f3bc e804 523e
00000040: d15a 9ebd 2d22 903c c8bf 96bc 2387 f2be
00000050: bcde 6c3e 223e 1b3e 416b ba3d 3bfd 0ebe
00000060: f607 4b3d a880 023f 59f7 6bbe 0ce4 bbbd
00000070: ebd3 a8bd 895e 0e3d 40a8 d43e 598d c33e
00000080: 1bb6 59bf 1bc0 ffbc a982 a13d c946 533e
00000090: ccc1 d43e 09f7 c13e f541 30be 52c4 063e
000000a0: 88cb a1bd 8e64 f53e 1d6f 2d3f 046c ddbe
000000b0: b1b5 1ebf 3be9 3a3e 4fba c63e 56ed 3a3d
000000c0: ebce 8b3d 7148 2d3d 8a84 d23e 5b62 f1bd
000000d0: f96a e13c f76a ff3d 57f6 263d 9580 4b3e
000000e0: 4616 8fbe de6e 9f3e 2d52 54bc c552 efbd
000000f0: 9973 dd3c c5ae a0be ec8c 9cbe 33d5 c53d
00000100: 8127 28bd 7a3b 203b 0950 193d 4ea4 9fbf
00000110: a36c 4f3e 4594 883e 4967 1cbd 998e 913e
00000120: 72df 373e a8ce b23c c765 2abe 4fc0 eebd
00000130: 1e99 b4bc a604 3e3e d481 9fbe 2d4a 8ebd
00000140: 3d14 f5bd fd06 abbd 240a d23e b152 a23d
00000150: a8cf 293d e555 c7bd b186 ebbc 0a09 823e
00000160: 824f 18bd 2e40 91bd 1a1e 203a bc49 21be
00000170: 4869 163f f611 f13c 5d36 90bb 88e7 00bf
00000180: b010 553e 6f87 3b3e d4d5 c93b 116d 623e
00000190: 1581 a7be 5962 0bbf 336b 3dbb 836e fbbc
000001a0: 40d2 7ebe bffc 0c3d 1159 57bb f580 f5bb
000001b0: 0b1f 66be eb59 7cbe f244 c0bc df8b 0cbc
000001c0: e207 99be 0c64 86be 5636 71be 803a 8fbc
000001d0: 821b 30be 19e6 3ebd 4c2e 50be 07f3 433d
000001e0: cb69 c2be e974 4abe cfee bcbc cefa 133e
000001f0: b576 133e d055 0d3d 2a15 a1bc 9b9d 44bc
00000200: 15b8 3a3f 527d 243c 73c3 093f 9c2a e53d
00000210: 4769 3cbe 2601 2b3f 42de 1b3e 0758 07be
00000220: c9bf f93d 1010 a0bf e013 4f3e 5bae 19bd
00000230: eda7 213d eb31 df3c 957f 2b3d 507c df3c
00000240: 2401 ccbd bf60 913f 869b 813d 855d 453e
00000250: 35af 7dbf 521b 44bf fc6e f7bc 8341 27bf
00000260: 60f0 963e ab44 39bd 1b4d a6bc 1862 d4bd
00000270: 54a1 1a3e eaec 753e a6ea d9bd 2b97 8ebf
00000280: f13b 293d 7b4a a7bd b943 cd3d 0c27 cebd
00000290: cd4f e9be b2c5 b13d 921a b43f 77ea 343e
000002a0: bfca d33d e227 3c3d b585 81bc c895 89bd
000002b0: 0c2d 29bd cf05 103d c2c0 4abf d699 653f
000002c0: 8864 45bc bc09 3c3d 1f81 88bf 221d bb3d
000002d0: 836c 363c 3b41 0abf b663 cabe 35de ee3d
000002e0: 1856 96bd b76e b7bf 0aff 563e d27e baba
000002f0: 8ef6 3abf 9a64 05be 69af 923d 59ac 323f
00000300: 105d 963d 8498 64bd 73db 923d a0e7 de3d
00000310: 0c1c 1b3e 1194 28bf 1abf f3bd b586 ab3d
00000320: 54b1 013e c86f 9f3d c452 b03d 11e2 143e
00000330: 4bdc 753d 2f97 a03e bd23 2e3d d48a 9abd
00000340: dfc4 bb3e 69f8 2fbe 6745 24bf 6385 9bbc
00000350: 3163 463e 25b7 d53c bec0 7dbd e50a f83d
00000360: bfa4 b9bd 2e5c 94be 3811 b13c dd71 3fbd
00000370: 7327 0c3e ec74 8ebd f47a 8bbd d47b a83f
00000380: fd30 16bd 305e d23d fb4b 3e3d f015 80bf
00000390: 8ac5 13be 6fe4 17bd 3b6c e8bd 280b 823c
000003a0: bfad 953d 9053 21bf aa71 08bf 63fe 31be
000003b0: 408b c53e e0a3 1f3f d4a5 1dbe 66d0 e1bc
000003c0: 2c53 243e d32f 24bd fe96 c6bd d40b 85bd
000003d0: 94d6 9d3f f1d6 0e3e f3b7 b6be 8487 94be
000003e0: e10b dbbd c566 863c 6bc9 e4bd 4741 20bd
000003f0: 6173 583d 26fa 6d3f f1be 0ebf 1180 1c3c
-0.03828394 0.014877837 -0.028530402 -0.13152918 0.12679282 -0.40664548 0.5071823 0.0011580858
0.017302077 0.23811439 -0.4280542 -0.74090827 0.26009956 0.033607934 -0.029754099 0.20509684
-0.077321656 0.017594421 -0.018401995 -0.47368726 0.23131841 0.1516042 0.09102488 -0.13963787
0.04956814 0.50977564 -0.23043574 -0.09174356 -0.08243545 0.034758125 0.41534615 0.38193777
-0.85043496 -0.031219533 0.078862496 0.20632471 0.41554105 0.37883785 -0.1721266 0.13160828
-0.07900149 0.4792828 0.6774767 -0.43246472 -0.6199599 0.18253033 0.38814017 0.045636497
0.06826576 0.042305414 0.41116744 -0.11786338 0.027516829 0.12471574 0.04076227 0.19873269
-0.2794668 0.31139272 -0.012959045 -0.11685709 0.02703266 -0.3138334 -0.30576265 0.09659805
-0.0410533 0.0024449513 0.037429843 -1.2472017 0.20256285 0.2667562 -0.038184438 0.28429106
0.17956331 0.021827057 -0.16640387 -0.11657774 -0.022045668 0.1855646 -0.31153738 -0.06947742
-0.11966751 -0.08350942 0.41023362 0.079259284 0.041457802 -0.0973318 -0.02875075 0.2539752
-0.0371852 -0.070923194 0.0006108001 -0.15750784 0.58754396 0.02942751 -0.004401012 -0.5035329
0.20807147 0.18313383 0.0061595235 0.22111918 -0.3271567 -0.5444694 -0.0028903007 -0.030692345
-0.24884892 0.034420725 -0.0032859484 -0.0074921795 -0.2247278 -0.24643676 -0.023470376 -0.00857827
-0.29888827 -0.26248205 -0.23555884 -0.01748395 -0.17197993 -0.046606157 -0.20330161 0.04783919
-0.3797134 -0.1977116 -0.023063092 0.14451143 0.14400752 0.034505665 -0.019663412 -0.012000467
0.72937137 0.010039644 0.53813857 0.11189768 -0.18399535 0.6679863 0.15221503 -0.13217174
0.12194783 -1.2504902 0.20222425 -0.037519794 0.039466787 0.027245482 0.04186972 0.027280957
-0.09961155 1.135765 0.06328492 0.19273956 -0.9909547 -0.7660419 -0.030204289 -0.6533434
0.29480267 -0.045231503 -0.020300439 -0.103702724 0.15100604 0.24016157 -0.10640459 -1.1139883
0.04131693 -0.08168503 0.10022683 -0.10066041 -0.45568696 0.086802855 1.4070609 0.17667566
0.10341405 0.045936473 -0.015810827 -0.06718022 -0.041302726 0.03516179 -0.79200375 0.8968786
-0.012047894 0.04590772 -1.0664405 0.09136416 0.01113427 -0.54005784 -0.39529198 0.116634764
-0.0734064 -1.4330662 0.20995727 -0.0014228469 -0.7303246 -0.13026658 0.07162363 0.6979423
0.07341969 -0.055809513 0.07170763 0.10884023 0.15147418 -0.6585093 -0.11901684 0.08375303
0.12665302 0.077849925 0.08609536 0.14539362 0.06002454 0.31365344 0.04251455 -0.075460106
0.36673638 -0.17184605 -0.641684 -0.018984502 0.19373776 0.026088307 -0.06195139 0.12111453
-0.09064626 -0.28976578 0.021614656 -0.046739448 0.13686924 -0.06955895 -0.06810561 1.3162789
-0.036667813 0.10271871 0.04645918 -1.0006695 -0.14430824 -0.037083086 -0.11348768 0.01587446
0.0730853 -0.6301813 -0.5329844 -0.17382197 0.38582802 0.6235943 -0.1539529 -0.027565192
0.16047353 -0.04008467 -0.09696768 -0.06496397 1.2331109 0.13949181 -0.35687217 -0.2900964
-0.10695625 0.016406426 -0.1117123 -0.039124753 0.05284441 0.9295982 -0.55760103 0.009552018

decoder.fc_layers.2.bias f4 [128]
00000000: 9e0c a13e 5e7b 1abe 05d5 2d3e 67be b93e
00000010: c35c 08be 0237 e33e 5dca 45bd 7d63 a23c
00000020: d825 a93f 7988 053e 2c73 823c 102b 67bd
00000030: d913 6bbd d153 683c 8d9f ff3d 68da 5a3d
00000040: d533 97be 828c 9f3d f75e 85be dbc6 9b3d
00000050: 7950 a13e 21bb 963f f4e1 af3d b9e2 42be
00000060: ada5 e93d 4989 983d f89c 103d c48b d4bf
00000070: 3cd0 91be 740d b5be 2fce 86bd 7267 c1bd
00000080: 4b54 c9bc 4911 ddbd e050 84be 9d93 f1bd
00000090: 552d 9e3d 0868 c03f 381b 76bd dc6e c43e
000000a0: 2ba1 d5bd 2926 a93f df78 3abe aa8e 7b3d
000000b0: 77ed f9bd 3941 13c0 3a49 48be 463f e53f
000000c0: 8550 ab3d b1b9 85bd d625 10bf 2fdd 4ebe
000000d0: ba19 ba3e 55e2 993d b351 ba3e 0ba4 7dbe
000000e0: 890f cfbd 87a6 663f 1cbd 163e 3762 0ebe
000000f0: f394 f13d 3503 bfbe 4287 ccbf 8b10 7fbe
00000100: 1d75 a73d d2ff 993d e232 d73c 04a9 6e3e
00000110: 5096 8fbd 42ef 333e 188c 3a3d 4f97 583e
00000120: 6ffa 573e 1d48 23be eb11 323e be26 2dbe
00000130: 3d9b a43d f049 533e 2f85 d03d 7729 093e
00000140: ecdd 0abd c893 f23e 18da 123e a377 01c0
00000150: 09a2 69be 64de 1abe 3774 623e 3517 c93d
00000160: 5aac d53f 7727 93be 052a e7bf e7b0 e43d
00000170: a896 a43e 5f50 873e e27a 493f 81f5 2c3d
00000180: 343e bfbe 486b b83e e979 e0bc ffab 4ebe
00000190: 2147 6cbe e4e9 803e ba71 c93d c8cc 1abe
000001a0: d4d0 87bd b59e 3a3e 14ac 6abc 6b36 98be
000001b0: 8b3c 41be 9a76 a0be 8551 a2bd dedc c5be
000001c0: bec5 043e ad74 ccbd c10d 9b3e a92b 48be
000001d0: ee37 0d3e 0b8f cc3d 72f2 d3bd 347e c5bc
000001e0: 24be a83e 9253 e13d 67d6 823e 82f6 b2be
000001f0: b69a 873e 9b44 d3be 0776 0dbe d81a 63bd
0.3145494 -0.15086123 0.16975792 0.36278078 -0.13316636 0.44377905 -0.04828869 0.01982283
1.3214674 0.13040341 0.015924059 -0.056437552 -0.057391975 0.01418014 0.12481604 0.053430945
-0.29531732 0.077904716 -0.26049015 0.07606288 0.31506708 1.1775857 0.08588019 -0.190318
0.11408553 0.0744806 0.035305947 -1.6605153 -0.28479183 -0.35361826 -0.06582295 -0.09443559
-0.024576327 -0.107943125 -0.25842953 -0.11795733 0.0772349 1.5031748 -0.06008455 0.3836583
-0.10431131 1.321477 -0.18210171 0.061415352 -0.12203496 -2.3008559 -0.19559184 1.7909935
0.08364967 -0.065295584 -0.56307733 -0.20201562 0.36347753 0.075138725 0.36390457 -0.24769609
-0.10110385 0.9009785 0.14720577 -0.13904653 0.11795988 -0.37307134 -1.5978777 -0.24908654
0.081766345 0.07519497 0.02626938 0.23306662 -0.07011092 0.17571738 0.04554376 0.2115147
0.21091627 -0.15945478 0.17389648 -0.1690931 0.08037422 0.20633674 0.10181653 0.13394724
-0.033903047 0.47378373 0.14341009 -2.022927 -0.22815718 -0.15123898 0.22114645 0.098188795
1.6693223 -0.28741047 -1.8059698 0.11166554 0.32146192 0.26428506 0.7870313 0.04222632
-0.37352145 0.3601935 -0.027401881 -0.20182799 -0.23074009 0.25178444 0.09836145 -0.1511718
-0.06631628 0.18224604 -0.014323253 -0.29729018 -0.18870752 -0.31340486 -0.07925705 -0.3864507
0.12966058 -0.09983192 0.3028393 -0.19547905 0.13790867 0.09988221 -0.10348977 -0.02410803
0.32957566 0.11002268 0.255542 -0.34953696 0.26485223 -0.4126328 -0.13814555 -0.055445522
