2DVAE_Ch1_200.pth (torch, 552920 bytes, 14 tensors)

encoder_z.fc_layers.0.weight f4 [128, 400]
000000 7c 26 96 bf c9 14 83 be 65 84 b7 bf a9 f0 f9 be
       -1.1730494 -0.25601795 -1.4337279 -0.48816422
000010 90 a0 9e be 14 a9 91 bf 6a 61 83 bf 98 af 01 be
       -0.30981874 -1.1379724 -1.0264103 -0.1266464
000020 1e 13 ea 3e 56 3d 1d bf af a2 45 3d 21 80 dd bd
       0.4571771 -0.61421716 0.04825085 -0.10815454
000030 b7 8c 51 3d e3 a8 5b bb 61 2f 12 bc 98 19 06 bf
       0.051159587 -0.0033517412 -0.008922429 -0.523828
000040 54 90 e9 3d c4 f0 94 be 58 99 d8 3e fa 22 94 bd
       0.114044815 -0.2908994 0.42304492 -0.07233234
000050 14 b7 ab be 72 94 5f be 3b ee ea 3e 8b c0 cb 3e
       -0.33538115 -0.21833971 0.4588488 0.39795336
000060 60 55 93 3e 16 ab 2d be e0 e2 a0 3e af 29 83 3d
       0.28776073 -0.16959795 0.31423092 0.06404435
000070 fd 3c 82 3f a9 5a 22 3f b5 dc 8e 3e ee 5c 9a 3c
       1.0174862 0.63419586 0.2790276 0.01884314
000080 62 14 15 be ca e7 c2 bd 4a a2 b9 be e3 b8 d3 3e
       -0.14558557 -0.095168665 -0.3625663 0.41351995
000090 e7 8c 1d 3e 96 02 0c bf 71 9a bd be b7 ba fe bd
       0.15385781 -0.54691446 -0.37031892 -0.12437957
0000a0 bd e0 51 3e bf 8e e0 bc 18 1e e3 3e 66 82 64 bd
       0.20495887 -0.027411817 0.44358897 -0.05578842
0000b0 ad 29 d6 be e8 fa b6 3e 0a 4e bf bd 5a 84 6c 3e
       -0.4182867 0.357383 -0.09341057 0.23097363
0000c0 50 1d 69 be ac 07 0c 3f 75 7e 20 bd 92 77 c4 3d
       -0.22765088 0.54699206 -0.0391831 0.09593119
0000d0 26 19 26 be 9a d3 86 3f 16 18 e7 3c 12 ee 7b 3e
       -0.16220531 1.0533326 0.028209727 0.24602535
0000e0 e9 e4 8b 3e 39 d0 85 bd cf d5 33 3e 0b 40 02 3f
       0.27323082 -0.06533856 0.1756203 0.5087897
0000f0 cf bc eb 3d 17 1d 6e be 85 d4 1b be 99 b1 02 3f
       0.11510622 -0.23253284 -0.15217789 0.5105224
000100 36 5e 02 3e 59 a0 06 3e 77 2a 7a 3e da f6 02 be
       0.12731251 0.13147105 0.24430262 -0.12789479
000110 12 44 ee 3e 5b 52 8e 3e 95 80 ca bd db 8a e5 3e
       0.4653631 0.27797207 -0.09887806 0.448325
000120 98 7d 7d 3e 25 5f c7 3e 68 b8 13 be 8f b0 14 3e
       0.24754941 0.38939777 -0.14425814 0.14520477
000130 c7 4d fb 3d 29 bc ab be 46 84 91 3e c6 ba 6b 3e
       0.12270694 -0.33541992 0.2842123 0.23020467
000140 68 79 79 bd 4f ad a7 bd 10 8c 07 3c 07 e2 b1 3d
       -0.060906798 -0.08187353 0.00827314 0.086856894
000150 7e 19 26 3e e0 3e 54 be bb 47 31 be 1c 50 4f 3e
       0.16220662 -0.2072711 -0.17312519 0.20245403
000160 d9 8f 84 bd 53 2f 4c be 6f f4 c4 bc d2 0d ca bd
       -0.06472749 -0.19939928 -0.024042336 -0.09865917
000170 ac 17 ae 3e 30 9c d3 3e 37 83 77 3e 0c 55 58 3c
       0.34002435 0.413301 0.24171148 0.0132038705
000180 92 14 50 bc 92 78 0a be 4e 37 a4 be e1 6a 1a bf
       -0.012700217 -0.13522556 -0.32073444 -0.60319334
000190 dd d6 fc bd 74 a6 3d 3e 96 1d 16 be 03 ac d2 bd
       -0.123456694 0.18520528 -0.14659724 -0.10286715
0001a0 96 dc e5 bd 64 5d 88 3e 42 43 f4 3e 12 99 33 3e
       -0.11223714 0.2663375 0.47707564 0.1753886
0001b0 ba 99 66 3b 00 f8 de 3b 84 89 41 be 25 e3 80 be
       0.0035186843 0.0068044662 -0.18900114 -0.25173298
0001c0 c6 bf e1 bc d9 75 9d bd e7 2d 29 be 2f 3c b1 3e
       -0.027557265 -0.07688493 -0.16521417 0.3461623
0001d0 9c 40 32 be f2 dd 86 bd 9a 69 77 3e 0f 3f 81 3e
       -0.17407459 -0.065853015 0.24161378 0.25243422
0001e0 a5 d2 0b 3f ba 6e 99 be c4 77 80 3e 06 fc d4 3e
       0.54618293 -0.2996729 0.25091374 0.4159853
0001f0 5b eb 38 be 3c 7c ad 3d 25 28 65 be 6a 35 6c be
       -0.18058531 0.084709615 -0.22378595 -0.23067251
000200 d7 f7 4a bf c6 4e c5 be 2c 0e e8 bd 4a 24 15 bf
       -0.79284424 -0.38536662 -0.11330828 -0.582585
000210 2c 3b 00 bd fe b2 9d be 11 73 86 be ea a1 a8 be
       -0.03130643 -0.30800623 -0.26259664 -0.3293603
000220 7d ea ab be 2e d5 3d be f6 a7 a7 3d ff 4c 6d 3c
       -0.33577338 -0.18538353 0.08186333 0.014483689
000230 f4 e4 bd be 1d 9d bf 3d c3 45 60 3e 9f 25 a5 be
       -0.3708874 0.09356139 0.21901612 -0.32255265
000240 f6 e9 d4 be 02 6d 0e bf 7b 30 27 bf 53 1a 05 bf
       -0.41584748 -0.5563508 -0.6530835 -0.5199329
000250 47 f8 0e bf 29 a2 16 bf 85 e7 46 bf 09 7c c7 be
       -0.5584759 -0.58841187 -0.7769702 -0.3896182
000260 6f 68 da 3e 19 d7 a9 bd 72 41 ea be a6 6c 66 bf
       0.42657802 -0.0829298 -0.45753056 -0.90009534
000270 21 88 60 bf f2 a7 08 bf a7 4e f5 be 3c f5 81 be
       -0.87707716 -0.53381264 -0.4791157 -0.2538241
000280 cb 93 dd bd 9a 5d d0 3d 3c fd 33 3e 9b 18 2a 3c
       -0.10819205 0.10174103 0.1757707 0.010381843
000290 fd f2 84 3e 9f 76 2b be 44 ee f9 3d 1e 06 bd bd
       0.25966635 -0.16744469 0.12203649 -0.092296824
0002a0 74 fd cb bd 46 bf 93 3d 21 a8 d9 be 7b ee 01 bf
       -0.09960452 0.07214217 -0.42511085 -0.5075452
0002b0 6b b5 d5 be 71 1f 08 bf 62 e0 a4 be a5 68 04 bf
       -0.41739973 -0.53172976 -0.3220244 -0.51722175
0002c0 ad ec 5e bf 15 8c 82 bf 2f 10 48 bf 29 e0 af be
       -0.8707989 -1.0199 -0.78149694 -0.34350708
0002d0 45 4e 55 3c 8f 37 eb 3d 1b 9e 60 3d fd 73 fb 3e
       0.013019149 0.11485206 0.05483828 0.4911193
0002e0 5f 42 06 be 89 ce d9 3d 2c b4 14 3e 98 a1 29 be
       -0.13111256 0.106350966 0.14521855 -0.1656555
0002f0 38 e2 62 3d 17 04 76 3e 1a e7 8b 3e 6a 7a 21 bd
       0.05539152 0.24024998 0.27324754 -0.039423384
000300 02 a5 0b 3f 28 fe 8a 3e 85 5c 78 be 87 85 66 be
       0.54548657 0.2714703 -0.24254043 -0.22511874
000310 cd 13 81 bd db 14 5c be be b2 53 bf 8c dc ce bf
       -0.06302605 -0.2149233 -0.82694614 -1.6161056
000320 1b 3d 9a bf 6c 59 bb bf 68 d5 d0 bf 6c 20 e2 bf
       -1.2049898 -1.4636664 -1.6315126 -1.7666144
000330 24 e2 02 c0 77 e1 ee bf 87 be ab bf 03 2c 83 bf
       -2.0450525 -1.8662556 -1.3417519 -1.0247806
000340 11 13 48 bf ad 90 02 bf 47 bd c6 be fc 88 fb bd
       -0.78154093 -0.5100201 -0.38816282 -0.12281987
000350 9c 64 2e bd 72 dd 1e 3e 8a 3b 40 3e 29 f5 b4 3e
       -0.042576417 0.15514162 0.18772712 0.35343292
000360 cc 1a fd 3e 88 9b 04 3f a6 8f 32 3f e1 e6 3b 3f
       0.49434507 0.5179982 0.6975044 0.7339917
000370 61 26 21 3f 0d 35 49 3f 41 75 42 3f db bd 5e 3f
       0.62949187 0.78596574 0.75960165 0.87008446
000380 d6 f6 08 3f da 44 43 3f 6a ad 09 3f e5 0e bf 3e
       0.5350164 0.76276934 0.53780234 0.3731605
000390 dc 53 0b 3f 1e 5a 1b 3f 9b 99 0f 3f c8 ad 91 3e
       0.54424834 0.6068438 0.5609376 0.28452897
0003a0 8a 22 80 bd a2 dc 44 3e 7c 64 2e 3d 2b 6e 81 bc
       -0.06256588 0.1922479 0.042576298 -0.015799602
0003b0 89 5b a9 3e 82 9e 9f 3e 8c 5d 10 3f 0d 35 10 3f
       0.33077648 0.3117562 0.5639274 0.5633095
0003c0 bc a4 fd 3e c7 63 cd 3e 9f de b8 3e 72 9d 9c 3e
       0.49539745 0.40115187 0.36107346 0.3058887
0003d0 70 86 09 3f a2 63 af 3e 00 37 d6 3e 1c 5c a4 3e
       0.5372076 0.342557 0.41838837 0.32101524
0003e0 7a fa 96 3e 0b ea 08 3f 64 b3 f9 3e ad dc 29 3f
       0.29487973 0.5348212 0.48769677 0.6635235
0003f0 97 83 36 3f 2a 9e 6f 3f 8f 1c 40 3f 64 04 4a 3f
       0.7129454 0.93600714 0.75043577 0.7891295

encoder_z.fc_layers.0.bias f4 [128]
000000 c2 cc b6 3e 15 88 1e 40 32 31 91 bd bd 2a ca 3c
       0.35703093 2.4770558 -0.070894614 0.024678582
000010 80 c7 f1 3c 89 25 7a 3f ee d2 4e bf df 00 73 3f
       0.029514074 0.97713524 -0.80790603 0.94923204
000020 f8 a4 1a bd 6c 4f 0f bf b6 ac f9 3f ff e5 0e 3c
       -0.037754983 -0.55980563 1.9505832 0.0087218275
000030 2c db 31 3c 9f e0 b6 3f 20 35 03 40 05 cd 18 3f
       0.010855477 1.4287299 2.0501175 0.59687835
000040 54 2e e3 bf 9a 3e e0 bf 1b 6d 9a 3c 34 e9 16 40
       -1.7748513 -1.7519104 0.018850854 2.3579836
000050 9c 33 06 3f 33 15 9a 3d 9a 58 4c 3c c9 c4 50 3f
       0.524225 0.07523575 0.012472296 0.8155027
000060 c7 ca 0a 3f 57 b5 23 bd df 1a ae 3f 27 fc 6b be
       0.54215664 -0.03996786 1.360195 -0.23045407
000070 79 e5 e4 bf 0d 9a 47 bf 9f e0 75 3f 57 1b 1f bf
       -1.788253 -0.7796944 0.9604587 -0.6215109
000080 af ae 83 be 9a 59 13 40 31 44 42 3f 95 70 05 40
       -0.2571921 2.3023438 0.758853 2.0849965
000090 52 5c c7 bf f9 5d 24 bf ce 99 f2 bd 4d 94 ec 3f
       -1.5575049 -0.6420589 -0.11845742 1.8482758
0000a0 a7 9f 25 be 6d 75 b1 3f 2b 79 c2 3b 5f 70 9e 3f
       -0.16174184 1.386396 0.0059348545 1.2378043
0000b0 e4 36 1a bc fb dc 1b bf 95 f3 1d 3f 20 51 3b bf
       -0.009412501 -0.60884064 0.616998 -0.7317066
0000c0 87 81 26 3e ae 91 17 c0 c7 00 73 bf a8 7e 4e 3f
       0.16260348 -2.3682666 -0.9492306 0.8066201
0000d0 c4 d8 f9 3f 2f 2e 97 bf a7 44 76 3f 8e d2 1d 40
       1.9519277 -1.1810969 0.96198505 2.4659762
0000e0 73 6a 74 3b 54 14 65 be a4 83 5c bf d6 db 92 bb
       0.0037294894 -0.22371036 -0.8613837 -0.004481773
0000f0 b2 31 67 bf ab c1 e5 bf 82 38 b0 bb 21 92 de be
       -0.90310204 -1.7949728 -0.00537783 -0.43470863
000100 60 6b 47 3f f3 d5 16 3f aa b0 b1 bb 3c e5 f7 bd
       0.77898216 0.5892021 -0.0054226713 -0.1210427
000110 03 47 0c c0 cc 6c a6 3c 0f 92 71 be 53 27 23 3a
       -2.1918342 0.02031555 -0.23590873 0.00062238163
000120 6f 9b a1 be d3 51 f9 3e 58 16 01 c0 f6 10 21 bf
       -0.315639 0.4869524 -2.0169888 -0.62916505
000130 83 2c cc bb f6 b7 c3 3f 20 f1 d5 3f cf 31 1e bf
       -0.006230892 1.5290515 1.671421 -0.6179475
000140 11 ed 8c be 8b 77 4a bf a2 59 cd 3f c8 89 d5 be
       -0.27524617 -0.7908866 1.6042979 -0.4170668
000150 47 c4 b0 bc d9 55 e9 3d 31 66 4c c0 72 d6 1c bf
       -0.021577967 0.11393327 -3.1937373 -0.6126472
000160 4a b0 e9 3e aa 1b e9 bf 80 b1 df ba 32 53 27 bf
       0.4564231 -1.8211567 -0.0017066449 -0.6536132
000170 c9 85 b5 3e 89 48 eb bf d5 73 0d 3d dd e8 d8 bd
       0.35453632 -1.8381511 0.034534294 -0.1059129
000180 80 3e fb 3f 93 5e b3 3e ee 5e 38 bf 1d db b2 bf
       1.9628448 0.35033092 -0.7201985 -1.3973118
000190 e7 0a df bf 6b 67 e4 3f 4b 01 32 3e 04 3c 05 bf
       -1.7425202 1.7844061 0.17383306 -0.520447
0001a0 a9 19 ae bf a8 22 dc be 02 10 1f 40 f1 53 3e b9
       -1.3601581 -0.4299519 2.485352 -0.00018151083
0001b0 93 77 15 3d c9 88 13 c0 47 69 07 3f 07 ac 67 3e
       0.036490988 -2.3052237 0.52895015 0.22624217
0001c0 ad 74 5b 3e c3 47 b8 3e 72 93 b6 3c e4 f4 b2 39
       0.21431227 0.3599225 0.022287104 0.00034133263
0001d0 ee bf cb 3b 86 4d 88 bf f5 42 7d bf ab be 4c be
       0.006217948 -1.0648658 -0.98930293 -0.19994609
0001e0 3f 3e 39 3c e3 ef 6a bf 10 a5 37 c0 a7 21 62 bf
       0.0113063445 -0.9177229 -2.8694496 -0.883326
0001f0 ba 8f 80 bf d2 2a 40 bf 55 e2 24 40 e7 df a3 3c
       -1.0043862 -0.7506534 2.5763142 0.020004226

encoder_z.fc_layers.2.weight f4 [128, 128]
000000 6e 05 53 3e d3 19 6b 3d 43 ba 86 3c 88 31 12 3f
       0.2060754 0.057397675 0.016446238 0.5710683
000010 26 40 26 b9 15 01 9b 3c 46 fe 7c 3e f9 5d 16 be
       -0.00015854891 0.018921414 0.24706373 -0.14684285
000020 cb 24 10 bc ea 0d 37 bd e7 31 44 bd c2 60 4d bc
       -0.008797835 -0.044691004 -0.047899153 -0.012535276
000030 4b ec da 3b 01 fb 68 bd 18 6e b3 3d 10 03 a6 bd
       0.0066810003 -0.05688 0.08761233 -0.08106053
000040 c5 50 cf bd 62 a6 bc bd f8 f2 fa ba 61 b4 84 be
       -0.101228274 -0.092114225 -0.0019145897 -0.25918868
000050 cc 3a d1 3c 82 c9 e0 3d 1e db 6c 3c 3f 84 37 3e
       0.025540732 0.109759346 0.0144565385 0.17921542
000060 e4 2a 21 3d 4c 6f a9 bb af e3 60 bc f3 8a 53 3c
       0.039347544 -0.0051707383 -0.013726159 0.012911546
000070 fc 3c 79 3e 0c 27 22 be 79 4c ce bd e5 40 46 3c
       0.2433967 -0.15835208 -0.1007318 0.012100433
000080 ee d6 26 be 20 83 b6 3c 08 e3 c5 3d e0 0d bf 3d
       -0.16292927 0.022279322 0.096624434 0.09328818
000090 1d 5d 59 be 96 4c 9b bd a5 69 a6 3d ef e4 c0 bc
       -0.21226926 -0.07582967 0.08125619 -0.023546664
0000a0 89 e3 65 3e 96 37 cb bd e6 b0 15 bc c9 cd c4 3c
       0.22450079 -0.099227116 -0.009136414 0.024023907
0000b0 b9 47 b6 bb d4 ab 23 3f 91 de 80 be b2 b1 02 be
       -0.005562749 0.63934064 -0.25169805 -0.12763098
0000c0 95 d4 0a 3d 94 a4 69 3b 4b 05 a1 3e 4c 6e 44 bc
       0.03389414 0.0035651075 0.3144935 -0.011989187
0000d0 f5 dd c5 3d 2d cc 9a 3d 27 32 0b 3c 80 d1 f3 bd
       0.096614756 0.07558475 0.008495844 -0.11905193
0000e0 49 eb 70 bc 5f 33 5e be 2c 69 bd bd 87 95 6a 3c
       -0.014704534 -0.21699284 -0.092485756 0.014317877
0000f0 14 6f f1 39 09 97 fe 3d f5 c1 9f 3c 6b 5e 81 bd
       0.00046049862 0.124311514 0.019501666 -0.06316837
000100 01 2f 28 bd 7b 48 50 be e8 1f a9 3b 17 69 b9 3c
       -0.04106045 -0.20340149 0.005161274 0.022633119
000110 fd 81 b4 bd be 87 01 3c 4a 94 0c 3d a1 21 35 3c
       -0.08813856 0.007905899 0.034321107 0.011055381
000120 00 eb 97 3c 16 84 fc be 56 bc 59 3d de 1b d8 bd
       0.018544674 -0.49319524 0.053158127 -0.1055219
000130 f8 10 2a 3c 07 3d 7d 3d 05 31 7d be bd e8 22 bd
       0.010380022 0.06182578 -0.2472573 -0.039772738
000140 ba c9 91 bc fc d7 d3 3d bd 94 26 3d e8 0e b1 3e
       -0.017796386 0.1034393 0.04066919 0.34581685
000150 c5 4e cb ba 90 78 25 3d 17 43 78 be 19 4e c7 3c
       -0.0015511146 0.04039818 -0.24244343 0.024329232
000160 1d 2f 0e 3e 9c 84 e6 3e 5f 43 ba 3c 92 ba 1d 3d
       0.1388516 0.45023048 0.022737203 0.038508005
000170 f3 d5 a0 3d a3 ae 66 3e 99 07 d4 3d 21 6e 1e 3d
       0.078533076 0.22527556 0.10353012 0.038679246
000180 5c 8a 22 be 2b 43 05 be b6 7a 03 3f 06 ca f6 3c
       -0.15873092 -0.13013904 0.5135912 0.03012563
000190 2b 29 aa 3e ac b9 e1 3e 7f 8a cf 3d b6 38 c7 3d
       0.33234534 0.4408697 0.10133838 0.09727614
0001a0 f8 eb 05 3d 24 62 15 3d fd 36 0a 3e be 44 47 bb
       0.03269574 0.036470547 0.13497539 -0.0030405964
0001b0 5c b2 76 3c 06 bd fb bd a3 61 10 3e 1c 4a 9e bc
       0.015057173 -0.12291913 0.14099745 -0.019322447
0001c0 22 49 75 3c b2 9e 1e bf fa 07 70 3b 61 81 07 bc
       0.0149710495 -0.619609 0.0036625848 -0.008270592
0001d0 17 da 5f bc d3 9a 8c be 7f 9e ab bd 7c 1a 27 be
       -0.0136628365 -0.27461872 -0.0837984 -0.16318697
0001e0 a8 79 85 3c 5f 80 1d bd 2c f9 0e bc a0 61 f6 3c
       0.016293362 -0.038452502 -0.008726399 0.030075848
0001f0 04 eb c9 bc 3e 75 12 bc ba b7 0a 3c b0 9d 1e 3d
       -0.024648197 -0.0089390855 0.008466655 0.0387246
000200 51 53 b0 be 22 a8 0d 3f 24 2a 94 bd c3 85 66 3e
       -0.34438565 0.55334675 -0.072346 0.22511964
000210 d4 b9 af bc ea ce 2c 3e 37 d9 3d be 8a 51 18 3e
       -0.021450914 0.16875806 -0.18539892 0.14874855
000220 b8 7c 3b bc 4e c9 13 be 91 2d 8a 3d ad e2 44 3c
       -0.0114433095 -0.1443226 0.06746972 0.012016934
000230 0b b1 c0 3c b3 6a 77 3e c0 43 0c 3f 2d 5c 47 3e
       0.02352192 0.24161796 0.5479088 0.19468756
000240 62 6f 8d be 2b 75 9e be d5 d9 92 3b 50 7a c4 3e
       -0.2762404 -0.30948767 0.004481534 0.38374567
000250 cb 66 d9 bc 6e c1 e0 3e 26 26 45 3c e6 34 04 3e
       -0.026538273 0.43897575 0.012033021 0.12910804
000260 db a5 6a bd 24 94 b2 bc 44 43 1c 3f 9a f4 2b 3d
       -0.05728708 -0.021799155 0.6104014 0.041981317
000270 9f d0 32 bf ed 15 63 be e3 ac 00 3f 20 e2 b7 be
       -0.6984958 -0.22176333 0.50263804 -0.35914707
000280 16 78 4f 3d 03 47 01 3e 3b 89 89 3e 61 39 e6 3e
       0.050651632 0.12624745 0.2686251 0.44965652
000290 2a ca b4 bd 8c fa eb be 71 f8 41 be f9 72 c1 3e
       -0.08827622 -0.4608959 -0.18942429 0.3778303
0002a0 c5 f3 93 3e 59 f8 2b 3f e7 fe 1e bd da 98 06 3f
       0.2889692 0.67175823 -0.038817313 0.5257698
0002b0 ce 89 2d 3d fa e0 a7 be af 0c 7d bd d2 00 55 be
       0.04236775 -0.3278883 -0.061779674 -0.20801094
0002c0 78 b9 be 3e fa ca 6d be d0 70 82 be dc 14 6a 3c
       0.37250876 -0.2322196 -0.25476694 0.0142872
0002d0 5b 5f 06 3f 49 95 07 be 1b 7e 98 3d 8e 58 19 3f
       0.5248925 -0.13240542 0.07445928 0.5990075
0002e0 6e 12 61 ba e0 18 10 3f 11 39 fd be f8 68 74 bc
       -0.0008585815 0.56287956 -0.494576 -0.014917605
0002f0 47 e3 03 bd da f8 47 be 75 e0 77 bb 55 52 f0 bd
       -0.03219917 -0.19528523 -0.0037822996 -0.117344536
000300 cd 0e 2b 3f 05 02 18 3d 23 33 b1 bc d4 5e 85 bc
       0.6681946 0.0371113 -0.02163083 -0.01628057
000310 20 b1 66 3d 75 b2 2e bb 76 2a 0c 3c a6 a3 d7 bb
       0.056321263 -0.0026656662 0.008555045 -0.0065807877
000320 78 69 b4 be 93 1c 01 bd 3c 93 8f be 75 31 52 bc
       -0.35236716 -0.03152139 -0.28042018 -0.012829174
000330 62 f9 ef bb 00 4c c3 bd cc 28 a1 3e 30 25 07 bc
       -0.00732343 -0.0953598 0.31476438 -0.008248612
000340 dd ea 40 bd 6b 7b f7 bb 38 b9 01 3d 7b 6f 54 3e
       -0.047098983 -0.0075525544 0.03167078 0.20745651
000350 e9 8a ac 3c 86 1d 6d 3d 23 91 40 bf 28 4d 02 3d
       0.021062331 0.057889484 -0.7522146 0.031811863
000360 23 86 55 3e b3 a0 17 bf 9d 7e 50 3b 47 05 03 be
       0.2085195 -0.5922958 0.0031813749 -0.12794982
000370 07 4e 24 be f4 ab 05 3c d1 bf c0 3d 80 ef 12 bd
       -0.1604539 0.008158673 0.09411586 -0.035872936
000380 27 49 b7 be 40 c0 74 be a4 28 0b 3f 50 f8 69 be
       -0.35797998 -0.23901463 0.5435889 -0.2284863
000390 8b ed 0b bd 6c 9e 7f 3e 34 08 19 bc 17 bb 81 3d
       -0.034162086 0.24962777 -0.009340335 0.06334513
0003a0 57 75 3b 3e 84 f2 e8 3c c0 83 fb 3e 9e ea b5 bc
       0.1830648 0.028435953 0.49123955 -0.0222066
0003b0 69 2e 19 bb 33 50 05 be ea 2d fe 3d ed ae b2 3c
       -0.002337361 -0.13018875 0.12411101 0.021811927
0003c0 0b ed 46 3c c3 e2 ed be c3 d7 0e 3b 63 1e eb 3c
       0.012141476 -0.46462068 0.0021796084 0.028701013
0003d0 18 a1 69 bd 6a 2a c8 be ea 34 0b 3e 9d 07 c1 bc
       -0.057038397 -0.3909486 0.13594404 -0.0235632
0003e0 29 c3 05 bc 01 28 0d bf bc da bc be e9 95 5c bd
       -0.008164206 -0.55139166 -0.3688563 -0.053853903
0003f0 40 1c 16 bf 61 f0 4b be 32 36 3b 3e 98 90 0d be
       -0.58636856 -0.19915916 0.18282393 -0.1382469

encoder_z.fc_layers.2.bias f4 [128]
000000 9a b7 45 bd 8f 4e 15 3f d1 75 48 bf b7 f8 3d be
       -0.0482708 0.58322996 -0.78304774 -0.18551908
000010 2e b5 ca bd 72 59 43 bd e8 9d e3 3d 6b 50 aa bd
       -0.098978385 -0.047692724 0.111141026 -0.0831612
000020 05 1b c7 bb 07 d7 18 3e da 77 e2 bd dc e3 d2 bc
       -0.006076219 0.14925776 -0.11058016 -0.025743417
000030 07 c5 2c 3c 71 a3 c6 3e df c0 a1 3c f6 9f aa 3e
       0.010545022 0.3879657 0.019745288 0.33325166
000040 47 84 84 ba 59 67 47 3f f5 88 2c 3c 51 58 1d bf
       -0.0010110223 0.7789207 0.0105307 -0.61462885
000050 ac de 0c bf 61 fb 74 3e b5 27 77 bd a4 7e 32 3f
       -0.5502727 0.23924018 -0.060340602 0.6972449
000060 c1 1c 77 bd 5b b8 af 3e 3c b5 8e be fa 60 a2 3c
       -0.060330156 0.3432034 -0.27872646 0.019821633
000070 d4 73 07 bf 6e 6c a1 3e 60 a3 f6 3b fb 63 7e bd
       -0.52911115 0.31528038 0.0075268 -0.062107068
000080 30 36 4c 3f 12 9f b1 3d a5 3c 5e 3d 9c 8d 81 bd
       0.79770184 0.086729184 0.054257054 -0.06325838
000090 eb 56 0c bd cc ee 27 3d 43 8c c3 be 93 32 dc 3b
       -0.03426258 0.04099922 -0.3819295 0.006719896
0000a0 b5 22 aa 3e 36 2c c2 be 76 55 f3 bc e5 55 09 3e
       0.33229604 -0.37924355 -0.029703837 0.13411672
0000b0 c8 6a 57 3c 89 ad d6 3e 49 68 35 bc 10 23 85 bd
       0.013148017 0.41929272 -0.011072227 -0.06500828
0000c0 22 4d 3d bf 0f 51 a8 3d bf d1 51 3a 8a 30 00 3d
       -0.7394582 0.08218586 0.0008003972 0.03129629
0000d0 40 d9 06 bf 1d bc e9 bd 60 21 9d bd 9c 0a 81 3d
       -0.5267525 -0.11412833 -0.076723814 0.06300852
0000e0 23 a5 50 bd 54 25 2e bd a5 ad 54 3f c5 da 3c bb
       -0.050938737 -0.042516068 0.8307746 -0.002881692
0000f0 50 ff 58 3e 9e f9 3a 3d 3b 18 1b bd bd f2 7f be
       0.21191144 0.04564821 -0.037864905 -0.24994941
000100 cf 11 cf bb d3 23 09 bb 06 73 02 3f b9 6b 8b be
       -0.0063192616 -0.0020925894 0.5095676 -0.27230623
000110 0e b1 7a bf 0b 51 08 3d 5a 31 57 be f2 ea 47 3d
       -0.97926414 0.033280414 -0.2101492 0.048808046
000120 fc be 91 3c 13 bf 21 bc b9 cc 0f 3e 51 ed 08 bd
       0.017791264 -0.009872216 0.14042939 -0.033429448
000130 22 43 d0 3d c4 f7 5e bf d7 9b 66 bc d8 3d 37 3f
       0.101690546 -0.8709681 -0.014075241 0.7157874
000140 e2 fc 17 bd fd 3c ab 3c 50 b6 d7 3d c9 cd 00 bc
       -0.037106402 0.020903105 0.1053282 -0.007861563
000150 1e 8b df 3e b5 82 5c bd 98 88 87 be 93 c2 31 bf
       0.43660825 -0.05383559 -0.264714 -0.6943752
000160 e9 86 e0 3e 11 5e c6 bd 7a 7d fd 3e d6 db c6 be
       0.43852928 -0.096859105 0.49509794 -0.38839597
000170 1f c9 52 3d 5e 8d 10 3e f7 62 8b be 02 2d 8e bb
       0.051461335 0.14116427 -0.27223942 -0.0043388614
000180 14 d1 77 bd 84 87 89 3f a0 05 e7 3c e2 b3 28 bf
       -0.060502127 1.0744481 0.028200924 -0.6589948
000190 d1 97 b7 bd 7a 61 1e 3f 12 32 1c be 62 34 10 3e
       -0.089645036 0.6186749 -0.15253475 0.14082482
0001a0 4d a9 4b 3f 28 4a 2b 3f 40 a0 de be 81 af 03 3e
       0.7955521 0.6691003 -0.43481636 0.12859918
0001b0 18 0c c6 3d f4 2c 61 bf 9c f1 31 3e 49 7e 4b 3f
       0.096702754 -0.8795922 0.17377323 0.7948957
0001c0 bc 2a b5 bd 41 bc 49 3f 16 05 1a 3d 04 7d 86 3e
       -0.088460416 0.7880288 0.037602507 0.26267254
0001d0 76 2f e0 3e a6 45 3c bf c0 86 ec bd 6d 43 98 bd
       0.4378621 -0.73543775 -0.11549139 -0.074347354
0001e0 2e 11 50 3d 2f 8c 5f 3c d4 c0 a7 bd 1b de a8 3e
       0.050797634 0.013644262 -0.08191076 0.32981953
0001f0 1d f2 51 3f ce b9 06 bd be a2 c1 bd cf 60 85 bd
       0.8201006 -0.03289204 -0.09454869 -0.065126054

encoder_z.fc11.weight f4 [2, 128]
000000 c3 db 96 3d 9a 03 2a b9 2b 7a fe bb c6 6b fe 3b
       0.07366135 -0.00016213805 -0.0077660284 0.0077643124
000010 86 3a 8e ba 26 be cc 39 74 8c 1b bd 6e f8 67 bd
       -0.0010851182 0.00039051584 -0.037975743 -0.056633405
000020 d0 a6 ff ba b9 32 3b 3b f0 4d 82 3a b4 10 39 39
       -0.001950467 0.0028564169 0.000994144 0.00017649197
000030 89 36 a1 bb 19 63 f6 3c 9d f0 23 3b 84 2a b2 bc
       -0.004919831 0.03007655 0.0025015243 -0.021748789
000040 30 98 82 ba cc 6d 46 bc 6c 7f 1a bb 12 e1 93 3a
       -0.0009963568 -0.012111139 -0.0023574485 0.0011282286
000050 8f 82 ec 3c d8 04 86 3a 08 00 13 3a dd e6 c2 3d
       0.028870849 0.0010224832 0.00056076096 0.0951669
000060 7b 78 58 ba 0a 67 40 bc a3 dc 3b 3d 7a bc 66 3a
       -0.0008257699 -0.011743316 0.045864712 0.0008801889
000070 53 98 ac 3b 24 90 d7 bb 90 8f 8b 3d c6 3f fb ba
       0.005267182 -0.006578462 0.06814492 -0.0019168786
000080 e9 88 89 bd 3c 8e f1 3a fc cb 17 3b 38 29 44 3a
       -0.06715567 0.001842923 0.0023162356 0.0007482949
000090 3b 04 9d 3a 6b 8e 43 3b ef 90 e6 bb da e1 bc ba
       0.001197941 0.0029839526 -0.0070363204 -0.0014410571
0000a0 2e b2 8e 3b 4b 32 b1 bd 11 f9 ca 3a 63 db 1e ba
       0.004354737 -0.08652171 0.0015485605 -0.0006059913
0000b0 ef aa 43 bb 50 7f 1b bd f7 41 83 39 c7 d9 09 ba
       -0.0029856523 -0.03796321 0.00025035415 -0.00052585866
0000c0 41 00 b5 bc 42 f6 56 ba 1c 07 f5 3a 52 e2 45 b9
       -0.022094848 -0.00082001474 0.0018694135 -0.00018871695
0000d0 0d 53 de bd e0 83 db 39 71 6a ad 3b a9 0e 1a bb
       -0.108556844 0.0004186919 0.00529223 -0.0023507273
0000e0 0b 8f cb ba 8e 41 80 3b 1a 6f 44 bc 60 d4 23 3d
       -0.0015530301 0.0039140647 -0.011989379 0.03999746
0000f0 ef de 23 bb f9 02 58 bb 89 c8 03 bb 1e 6a 45 3d
       -0.0025004705 -0.0032960756 -0.0020108542 0.048196904
000100 fa 12 14 ba c8 85 e2 3a ee 77 c6 3b 3c 6c b4 3c
       -0.00056485797 0.0017282302 0.006056777 0.022024266
000110 29 96 53 bc 0f 2b a7 ba 6b 3e ac 3b f8 bd 07 bb
       -0.012914219 -0.0012753921 0.0052564642 -0.0020712595
000120 46 b7 ea 39 ab da 3c bb ab 80 76 bb 22 12 5e bb
       0.00044768507 -0.002881686 -0.0037613313 -0.003388532
000130 dc 2e c3 bd 39 50 e9 3c 44 77 3b ba e6 16 df bc
       -0.09530422 0.028480636 -0.0007151256 -0.027232599
000140 73 d4 05 3a 43 d0 c1 3a 85 a5 a8 b9 f6 6c 07 3a
       0.0005105205 0.0014786798 -0.0003216678 0.0005166078
000150 6e 31 ea bb b2 26 2d ba 55 7a 01 3c 54 9b 99 3a
       -0.0071470058 -0.00066051923 0.007902701 0.0011719265
000160 5a 78 e4 3b 62 9d 8b 3b c8 28 4e bc 86 af 6b 3d
       0.006972355 0.004260705 -0.012582965 0.05754044
000170 4c 90 f0 b9 8a 55 97 39 bc 14 8b bd ee 4c 0a 3b
       -0.00045883877 0.00028864696 -0.06791064 0.0021102983
000180 9b e4 ba ba 10 ce 52 3e c0 0e 39 3a 53 96 29 3e
       -0.0014258804 0.20586419 0.0007059388 0.1656125
000190 43 1a fb ba 8a 4f b2 bb f5 1f 39 bb 8b 7b 06 3b
       -0.0019157607 -0.0054416107 -0.0028247808 0.0020520415
0001a0 4e 19 1a be ba 7b b8 bd 12 02 a8 3c 1d b2 51 bd
       -0.15048715 -0.09007974 0.0205088 -0.051195253
0001b0 87 0f 0d 3b ba 27 16 be c9 98 ab 3a 23 9d 85 bd
       0.0021524148 -0.14663592 0.0013091798 -0.06524112
0001c0 38 47 fd ba 85 5a a5 bd 72 44 6c 3b b2 fc 58 bd
       -0.0019323593 -0.08073906 0.0036051539 -0.052975364
0001d0 6a 73 79 bd ef ad a4 3d 07 4f 4a 3c f6 cf 82 3a
       -0.060901083 0.08040988 0.012347943 0.000998019
0001e0 02 cf 92 3a 04 ad 92 3a 15 2b 26 bd 66 3d 17 bd
       0.0011200609 0.0011190479 -0.04056843 -0.03692379
0001f0 45 80 35 bd 66 47 a2 bd b4 7c 49 bb 1a 68 ed 3d
       -0.04431178 -0.079237744 -0.0030744495 0.115921214
000200 ff a4 74 bd ad 6c 1a be 7a 8f 41 be 1d 5d 42 3d
       -0.059727665 -0.15080519 -0.18902388 0.04745208
000210 b7 77 e6 b9 7e 27 dd 3a c5 b0 ea 3c 0e 97 ce 3d
       -0.00043958213 0.0016872732 0.028648743 0.10087405
000220 8c 6b 8e ba 56 8d c8 3b 3e cc 99 3a bd be d9 ba
       -0.0010865792 0.006120364 0.0011733843 -0.001661263
000230 97 36 96 3a 6a 45 4c 3d f4 70 67 bb 82 ae 83 bd
       0.0011460361 0.049870886 -0.0035315128 -0.06429769
000240 49 12 4b bb 3c 41 07 be 2e 7d 39 ba 43 6c fd 3d
       -0.003098624 -0.13208479 -0.0007075843 0.12374165
000250 a3 98 ae ba 00 ca 17 3d ca 2c 97 bb d8 f1 65 bc
       -0.0013320636 0.037057877 -0.0046134936 -0.014034711
000260 84 30 19 3b 74 a7 36 bd 7a ef 86 bd b7 5b cf 39
       0.0023374865 -0.04459329 -0.06588645 0.0003955045
000270 ff 9f 02 be 69 26 26 bd 52 22 e9 bd f1 16 d6 b9
       -0.12756346 -0.040563975 -0.11383499 -0.00040834353
000280 cd ef d0 3c ac 63 3f 3a 59 d3 1e 3b dc 53 a4 bb
       0.02550497 0.0007300924 0.002423486 -0.0050148796
000290 ec 48 46 3a 4f 68 08 bb 3f 9b d1 3b d5 d3 3f bb
       0.0007563967 -0.0020814126 0.0063966806 -0.002927055
0002a0 3a 24 f3 3d 32 11 99 3c da 2b 48 3d 9e bc f0 3a
       0.11872144 0.018684957 0.048869945 0.0018366759
0002b0 e2 9f 33 3a 3e 4b 14 3d 7a 61 97 ba 96 71 da 39
       0.00068521325 0.03620457 -0.0011549436 0.00041664828
0002c0 29 28 51 be 16 cb 4a 39 b0 da 9e 38 23 55 7b 3b
       -0.20425476 0.00019339877 7.574761e-05 0.0038350306
0002d0 7e cf 06 bd 2c 78 4a bb f9 64 1f bc 5e 22 a4 3a
       -0.032912724 -0.0030894382 -0.009728664 0.0012522449
0002e0 f1 fa bb 3b bc fa f1 3a 93 21 3a be d1 df f7 bd
       0.0057367017 0.0018461565 -0.1817687 -0.121032365
0002f0 97 b3 01 3e c9 a3 b6 b9 3c 22 03 39 8d 3e ae 3a
       0.12666164 -0.00034835775 0.00012505887 0.0013293788
000300 19 63 15 bb 2f 53 06 bc f9 1d 77 3e 40 80 2a 3d
       -0.0022794663 -0.008198543 0.24132527 0.041626215
000310 2f a6 c9 be 5c d8 ad b9 cb b6 45 bb c8 0a 24 bb
       -0.393846 -0.00033158332 -0.0030168768 -0.002503084
000320 fa f3 cd 3b 94 46 b0 ba b2 a9 fa ba 11 c7 37 ba
       0.006285188 -0.0013448768 -0.001912406 -0.0007010559
000330 b2 a9 bb 3d 91 09 2c 3e 43 97 61 3a 00 c5 c3 bb
       0.09163226 0.16800524 0.00086056086 -0.005974412
000340 3e 4f c3 39 c6 e3 83 3b 80 70 00 bb 7f 20 af b9
       0.00037252338 0.0040249554 -0.0019598305 -0.00033402813
000350 f0 cf b0 bd d6 e4 97 3b f6 c0 b9 3d ab 12 24 be
       -0.08633411 0.0046354337 0.090700075 -0.16022746
000360 bc 26 35 3d 4d 52 28 3b 53 04 a6 bc e2 d9 e6 bc
       0.044226393 0.002568382 -0.020265734 -0.028180066
000370 85 b2 19 ba ea e9 31 3b 8f c0 e3 3d ee 58 ce b9
       -0.00058630883 0.002714748 0.11120712 -0.0003935764
000380 4e 0c 29 bb aa 55 37 3d 7d a1 ae 3b 19 51 8e 3d
       -0.0025794688 0.04475943 0.0053293095 0.06949062
000390 88 b8 0b bb 58 00 51 3d 37 77 8f bb 02 1f 5e 3a
       -0.0021319706 0.05102572 -0.004378225 0.00084732485
0003a0 b5 ab 11 3e 27 3a 2d 3d b5 72 3e 3d e1 71 24 3d
       0.14225657 0.042291787 0.046496112 0.040147666
0003b0 fc 71 8f ba 23 87 19 bc 3d 99 a2 ba 6e cd dd bc
       -0.0010944004 -0.009370598 -0.0012405288 -0.027075496
0003c0 a6 93 15 3a a3 19 34 be 8c 8a b2 bb d8 d2 a4 bc
       0.00057059 -0.17587905 -0.005448645 -0.02012007
0003d0 08 c9 bb bb 14 7e 96 bc 5b bf 01 3d 1f 13 25 bb
       -0.005730752 -0.018370666 0.03167663 -0.00251884
0003e0 4c bf 82 3a 60 3f 79 b7 27 fc a0 bc b2 56 c9 3c
       0.0009975224 -1.4856312e-05 -0.019651486 0.024577472
0003f0 e8 c0 b3 3d 41 84 1a 3e 5b 7d 2d bd c5 a6 29 3d
       0.08777028 0.15089513 -0.042355876 0.04141881

encoder_z.fc11.bias f4 [2]
000000 45 ec 07 be 0e 6c 91 3e
       -0.13273723 0.28402752

encoder_z.fc12.weight f4 [2, 128]
000000 d7 d2 c0 3d 11 62 9f 3d 74 21 ac 3d 20 47 76 bd
       0.094152145 0.077823766 0.08404818 -0.060126424
000010 51 de 2e ba 34 1f 5d bb 2b d8 d4 bc ea 17 51 3c
       -0.0006670701 -0.0033740522 -0.025981983 0.012762049
000020 d6 43 c9 ba 0c 58 72 3b c9 24 0f 3b be b7 a1 ba
       -0.00153553 0.003697875 0.0021841994 -0.0012338085
000030 46 62 f8 b9 40 7b f3 bd b3 86 8e bb 4f 04 4b bd
       -0.00047375466 -0.118887424 -0.0043495535 -0.049564656
000040 27 99 61 bc 90 42 1a 3d 0b af 70 3b 20 2a 92 3d
       -0.0137694245 0.037661135 0.0036725427 0.07136941
000050 96 92 a1 3d 3d 29 75 bc ec 5a 40 3c 01 f2 4a be
       0.07889287 -0.014963445 0.011740427 -0.1981888
000060 38 5e 44 bb 8d 90 4c bd 4f 01 a1 3a b9 89 6a 3b
       -0.0029963385 -0.049942542 0.0012283715 0.0035787656
000070 93 12 90 3c 9c ed 34 3c 44 8b e0 bd a8 b8 b3 bb
       0.017586982 0.011042979 -0.10964063 -0.005484659
000080 19 a4 5e be 0c 02 5d bb cc b4 f5 ba 6c ff 97 b9
       -0.21742286 -0.0033723144 -0.0018745898 -0.00028991268
000090 40 9c 8b 3b 74 db 04 bc 19 f8 03 bc 74 65 ac bb
       0.00426057 -0.008108962 -0.008054757 -0.0052611176
0000a0 56 e3 ab bc e6 cc 57 bd 8b b2 92 bc bb ad da bb
       -0.020982426 -0.05268564 -0.017907402 -0.0066735423
0000b0 be be d3 ba 80 59 99 bd ac a9 27 3a 75 92 f4 39
       -0.0016154868 -0.07487774 0.00063958275 0.00046648426
0000c0 50 fc 54 3d 7b f4 0c bb 65 e2 42 3c a4 a4 81 39
       0.051998436 -0.0021508026 0.011894797 0.00024727464
0000d0 a3 1b 09 3e 9b bb ac bb 4b 98 67 bd b8 aa ef 3b
       0.13389449 -0.0052713878 -0.056541722 0.0073140524
0000e0 ca 86 d4 3b c3 61 1a bb 64 9b be bd 5f e7 b7 bd
       0.0064857947 -0.0023556806 -0.09306982 -0.089796774
0000f0 19 43 6b bd 8e 5a a1 3b 40 7e 6b 3b dc 62 cf 3c
       -0.057437036 0.004924125 0.0035933405 0.025315695
000100 43 a7 cf bb 90 0c 13 b9 06 8e d9 bd 09 e7 52 bd
       -0.006337078 -0.00014023692 -0.10622792 -0.051489864
000110 9c bd bc 3b 9d 8d c0 bb f0 05 25 3e a8 ef 8a bb
       0.005759908 -0.0058762566 0.16115546 -0.004239995
000120 48 ae f3 3a 60 d5 2f 39 9e dc 7c bb 42 bf a0 3b
       0.0018591369 0.00016768789 -0.0038583647 0.004905612
000130 03 c6 d0 3b d0 66 22 bc 89 65 ad b9 0f a4 27 bd
       0.006371261 -0.009912208 -0.0003307278 -0.040927943
000140 2c c2 d7 3b be ff 1f 3b 41 59 c9 bb 18 6d 69 bb
       0.0065844264 0.0024413909 -0.006144673 -0.0035618003
000150 4f 3e 86 3c 6d 03 54 bb 3d d3 f0 3b 30 b0 b3 3b
       0.016387133 -0.0032350675 0.0073494003 0.0054836497
000160 01 92 8f bc 3b 55 27 3b 64 b9 29 3c 05 3b 82 bd
       -0.017525675 0.002553298 0.010359142 -0.06358913
000170 e2 41 87 3b 05 09 c3 b9 2a 47 ae bd b5 18 6f 3b
       0.004127727 -0.00037200018 -0.08509667 0.0036483232
000180 2c fe a9 b8 82 36 7b be b6 52 5c 3b 56 90 04 3e
       -8.105891e-05 -0.24532512 0.0033618635 0.12945685
000190 a2 67 90 bb 26 f9 75 bd 64 a0 f4 3b 6f 25 c6 bb
       -0.0044068852 -0.06005206 0.007465409 -0.006046943
0001a0 3e fe af bd 3a 07 49 be d1 be ac bd dc 05 0e bd
       -0.08593415 -0.19631663 -0.08434833 -0.034673557
0001b0 64 15 12 bc 8c fb 04 3e c7 b0 9a ba 51 98 44 be
       -0.008916233 0.12986583 -0.0011801951 -0.19198729
0001c0 cb 37 dd 3b 81 23 61 bd b9 da 3f bc 22 74 b3 bd
       0.006751036 -0.0549655 -0.011709862 -0.08762385
0001d0 1a 07 ea bc 92 e7 27 3e 25 70 c8 bc c7 e1 9d bb
       -0.02856784 0.16396931 -0.024467537 -0.0048181745
0001e0 c4 ec 8e bb 0b 98 40 3b d7 4d f9 3d f0 56 c0 3d
       -0.0043617208 0.00293875 0.1217305 0.09391582
0001f0 eb 99 8d be a0 19 f4 3d 24 e2 18 bd 2e 2b 9d 3d
       -0.27656493 0.1191895 -0.03732504 0.076742515
000200 45 d5 4c 3d 4e 82 88 3e a9 3a 83 3e 0e 66 d8 3c
       0.050008077 0.26661915 0.25630692 0.026415851
000210 30 60 ae bb 18 0a 99 bb 7b a5 0b bc 06 6d 9c bd
       -0.005321525 -0.0046703927 -0.00852334 -0.07637982
000220 1e f8 65 ba 36 d4 53 3b 13 94 e1 3b 1f 2b b2 3a
       -0.0008772629 0.0032322532 0.006884107 0.0013593173
000230 23 1f 87 bc d0 b6 f8 bc fe ec d8 ba 9f 0f ac bd
       -0.01649434 -0.03036061 -0.0016550121 -0.08401417
000240 eb c4 06 bb 01 f2 dd 3c a7 27 e1 bb 80 aa de 3d
       -0.002056415 0.027092936 -0.006871182 0.10872364
000250 48 ca c4 bc a1 ff 78 bc 4e 51 4c bb 49 23 5b 3b
       -0.024022236 -0.015197665 -0.003117639 0.003343778
000260 a6 1c fb 3b 18 39 d7 bd 9b e0 b4 bd b5 7a ec 3a
       0.0076633273 -0.10508937 -0.088319026 0.0018041941
000270 9c be 1e 3e 66 d0 db 3c 1a ea a3 3c 43 21 cd bb
       0.15502399 0.02683277 0.02000909 -0.0062600686
000280 d9 c7 9e bd 89 33 f8 bb 61 ac b3 3b 68 64 7f bb
       -0.07752962 -0.007574503 0.0054831957 -0.003896976
000290 54 06 93 bb 76 3b f3 3b 3e 70 84 bb a4 e3 f9 bb
       -0.0044868384 0.00742286 -0.0040417006 -0.007626014
0002a0 1b f5 b0 bd b8 5c 28 3c e9 29 2e bd 86 e8 9c bb
       -0.086405 0.010276012 -0.042520437 -0.004788461
0002b0 3d 2c b8 bb dc 73 d4 3d 18 5b cf bb d3 89 03 3b
       -0.005620508 0.10373661 -0.006327998 0.0020071163
0002c0 e9 2c cf 3d f8 43 f5 ba eb 43 af 3a 86 71 14 ba
       0.10115988 -0.0018712273 0.0013371682 -0.0005662668
0002d0 c6 b9 95 3d 67 2f 44 ba 0e 34 87 bc b9 a8 b5 bb
       0.07310824 -0.000748387 -0.016504314 -0.005543795
0002e0 81 1d c0 3a 94 68 00 3b 0b 4a d9 3d 13 60 0e 3d
       0.001465723 0.0019593583 0.10609826 0.034759592
0002f0 d5 d3 cb be b8 8b 4b bb 9b e4 a8 3b 03 f4 47 bd
       -0.39810053 -0.003105862 0.005154205 -0.048816692
000300 c9 ce 82 3b 8a 3f d9 3a a0 d0 7b be 22 3f dd bc
       0.003991936 0.0016574722 -0.24591303 -0.027007643
000310 72 2a 82 bd 82 d1 3b 3c 76 9b 6a 3d d0 96 8a bb
       -0.06355752 0.011463525 0.057277165 -0.004229404
000320 d7 72 71 3b f2 1e 3b bc 85 25 d1 bb 18 1f 26 bc
       0.0036842132 -0.011420952 -0.0063826465 -0.010139249
000330 53 50 09 be d9 3f ae bd 5b ac f7 b8 97 19 9d bc
       -0.13409548 -0.08508272 -0.000118099815 -0.019177241
000340 77 e4 36 3a a1 d5 88 ba 2d 77 86 3b 21 09 f5 b9
       0.0006976793 -0.0010439643 0.0041035623 -0.00046736843
000350 1f 7e 37 3d b9 c3 d5 bb 37 a9 27 3e 83 b3 18 3a
       0.044798013 -0.006523576 0.16373144 0.0005825089
000360 d2 ba 2c bd 6f 66 bd 3a 0c 79 92 3c d6 ce 36 bb
       -0.042170353 0.0014450083 0.017879985 -0.002789428
000370 ae a7 73 bb 6f 0d 68 bb 32 6b a1 bd c1 81 ec 3b
       -0.0037178802 -0.0035408398 -0.07881774 0.0072176163
000380 72 0a b0 3a f2 a9 f0 bd a8 0e a1 3b f3 22 3f 3e
       0.0013430847 -0.117511645 0.0049150772 0.18665676
000390 3a 40 c4 3b b1 f7 0c be 0d 2a 40 ba ea a9 b2 bb
       0.0059891017 -0.13766362 -0.0007330485 -0.0054523842
0003a0 4f 93 23 be 1b 76 0a be f2 a0 80 be cf 83 68 3c
       -0.15974163 -0.13521616 -0.25122792 0.014191582
0003b0 9a 62 a7 3b 67 d3 94 bb 5e 7a 0b 3b c5 ca 17 be
       0.00510819 -0.0045418027 0.0021282653 -0.14823444
0003c0 ab 8f 06 3b 19 07 4d be c7 a3 4c 3c 0d 1a 14 be
       0.002053241 -0.20022239 0.012490219 -0.14463063
0003d0 82 53 b1 bb 6e 1b 5b 3e 22 51 99 bc 62 47 1d bc
       -0.0054115662 0.21397182 -0.018715445 -0.0095995385
0003e0 88 a3 42 3b f8 b3 8d 3b cd 52 7e 3c 68 a3 e9 3c
       0.0029699523 0.0043244325 0.015522671 0.028520301
0003f0 6c 7c 15 be 0f a4 b9 bc 8a 81 5e bd 1b f1 40 3d
       -0.14598244 -0.022661237 -0.054322757 0.047104936

encoder_z.fc12.bias f4 [2]
000000 b4 a4 1a bf ff 32 52 be
       -0.6040757 -0.20527266

decoder.fc_layers.0.weight f4 [128, 2]
000000 b3 6a 91 3f 9b 45 a3 3e 5f 5c bf bf d4 c6 4c c0
       1.1360687 0.31889042 -1.4950064 -3.1996355
000010 06 1a 66 3b f6 50 95 3b 14 6b a0 3f a5 96 fa 3b
       0.0035110726 0.0045567704 1.2532678 0.0076473528
000020 46 44 63 bf 17 16 4b bd 0d ba 3e bd 93 7e 32 3f
       -0.8877605 -0.049581613 -0.04656415 0.69724387
000030 f6 f0 98 be 6f 7d 2c bf 3b 02 89 3f ca 8f 1b 3e
       -0.2987134 -0.67378896 1.0703806 0.1519157
000040 c9 bf 9d bb de ee 73 bc 7d 7b 84 3e 67 12 fb be
       -0.0048141223 -0.014888493 0.25875464 -0.49037477
000050 5b 0b b1 3e 4a 78 a7 3f ee 7a c6 3f 47 3e 8f 40
       0.34578976 1.3083584 1.5506265 4.476352
000060 02 6d ca be b1 21 f6 be ca 2f a9 3e 8a 3f cb be
       -0.3953629 -0.4807258 0.33044273 -0.39696914
000070 fa 1b b0 ba 19 1e 7d 3b f5 13 be 3f 8d c7 16 bf
       -0.0013436072 0.0038622676 1.484984 -0.5889824
000080 50 66 5e bf 89 1b 81 bc f4 f0 72 3f 9b b5 07 3f
       -0.86874866 -0.0157602 0.94898915 0.5301148
000090 c3 b8 b3 3b 2b ed 4e 3c f6 37 b8 39 82 fb 86 3c
       0.005484672 0.012629787 0.0003513691 0.01647735
0000a0 60 89 56 3e d6 2f 10 be be da 94 ba 84 5a 07 bb
       0.20950842 -0.14080748 -0.0011356694 -0.0020653317
0000b0 0a 69 fb 3f 9f 94 2b bf cf 50 af 3e e6 53 23 bf
       1.964143 -0.6702365 0.3424134 -0.63799894
0000c0 c9 f3 88 bb 60 60 4a b9 9b 75 8e bf cd f7 b1 bf
       -0.004179452 -0.00019300124 -1.112964 -1.3903748
0000d0 5f f8 80 bf 50 9f a5 bc 26 9b 4c 3a 2c 4f c3 ba
       -1.0075797 -0.020217568 0.00078051013 -0.0014900914
0000e0 6a b5 d2 ba cd a0 68 bc 02 c9 f8 3e 61 26 5b 3e
       -0.0016075794 -0.014198494 0.48590857 0.21401359
0000f0 b0 34 f5 bf df a7 1a 3f fa ea a9 be dd 9d 7e bf
       -1.9156704 0.604124 -0.33187085 -0.9945963
000100 ac c5 fd bf 7e fc 33 40 33 c2 95 be c4 24 70 bf
       -1.982595 2.812286 -0.29249725 -0.938061
000110 ed 0f 9c bf a1 d8 28 bf e7 2d 42 3f b0 db cf 3c
       -1.219236 -0.6595555 0.7585129 0.02537331
000120 7c 5d cd bf b7 0e 18 be 61 d4 84 3f 8e ed 05 bf
       -1.6044154 -0.14849363 1.0377313 -0.52315605
000130 3b 82 64 be 17 af e4 3e ad fd 05 bf 0a ff cb be
       -0.22315304 0.44664833 -0.52340204 -0.39843017
000140 21 ca 0d 3f 22 01 09 3d ca 78 dc 3e d3 3e 0a bb
       0.5538655 0.033448346 0.43060905 -0.0021094575
000150 5b a3 01 40 e9 82 c4 c0 94 79 a0 3b 19 4e 92 ba
       2.0255954 -6.1409802 0.0048973057 -0.0011162191
000160 09 a0 a8 be 4b 1d a6 bd d6 7c b9 ba 03 e6 df 3b
       -0.32934597 -0.08111056 -0.0014151584 0.0068328395
000170 c0 5b cb be b4 04 a8 bf bf cd 1d 3f a1 d5 52 3f
       -0.39718437 -1.3126435 0.6164207 0.8235722
000180 82 e2 71 3b 05 a0 c8 3b dd 8d 8c 3f 7a 9f 47 3e
       0.003690869 0.0061225914 1.0980793 0.19494429
000190 02 c5 45 bd 0a 5c 58 bf ca 3e bc 3e f9 8b 9d 3d
       -0.048283584 -0.8451544 0.36766654 0.07692713
0001a0 c4 58 e9 3a d0 07 19 bc 11 05 94 3c 2e 8e 13 bf
       0.0017802943 -0.009340242 0.018068822 -0.57638824
0001b0 80 bd 3c 3e bd b2 13 bf e9 e2 a3 bf f4 04 86 bf
       0.18431664 -0.5769461 -1.2803622 -1.0470262
0001c0 e3 9b 90 3a d5 69 e5 bb 41 2b 5b 3e ad 7d e1 be
       0.0011032786 -0.0070011416 0.21403219 -0.44041196
0001d0 fe 92 cc bd 1e a5 e1 b9 65 50 a7 3a d5 90 7e 3b
       -0.09988974 -0.00043038366 0.0012765048 0.003884365
0001e0 da 4e 08 3f fc a3 80 be b3 8d 8b bb ed 91 a2 bc
       0.5324532 -0.2512511 -0.004258835 -0.019844973
0001f0 17 d6 28 bf 48 fd 84 bd b5 47 06 bf eb 3b 4f 3e
       -0.65951675 -0.06493622 -0.52453166 0.202377
000200 0f 1c 22 3b 78 d5 4d 3c 0d 8b c1 3f 9d 66 3f 3e
       0.0024735963 0.012563102 1.512056 0.18691488
000210 df 73 9b bf 98 00 97 bf 62 27 0e 3f f0 1e d9 3f
       -1.2144736 -1.1797056 0.55528843 1.6962566
000220 64 4c 59 be 22 21 c6 3e 25 ae 19 be 3f fc 25 bf
       -0.21220547 0.38697153 -0.15007837 -0.6483802
000230 3d cf d6 bb e5 24 76 bc d9 62 4c bb bd 76 94 3c
       -0.0065554664 -0.015023445 -0.0031186847 0.018123025
000240 49 43 8f bf 07 e3 c7 bd 7d 55 f7 bd c6 17 b9 40
       -1.1192409 -0.09760099 -0.120768525 5.784152
000250 f4 4c 38 bf 72 b0 a0 bd 0d 5d 86 3f 40 1c fa 3f
       -0.7199242 -0.07846154 1.0497147 1.9539871
000260 fd bd a7 ba 2e e4 45 3a 0b 92 54 ba 0a b5 8e 3a
       -0.001279771 0.0007548955 -0.00081089203 0.0010887694
000270 54 ac 19 3f 8c 2f 59 3e 48 b3 df 3c f2 f8 0c 3d
       0.60028577 0.21209544 0.027307168 0.0344171
000280 4f 00 5d bf 82 ea 0a 3f 41 a8 d8 3e 56 db bc bc
       -0.86328596 0.5426408 0.42315868 -0.023053806
000290 a8 9d 85 bf d2 dc 74 bd dd 9b 41 3f 8d 3a a9 3e
       -1.0438738 -0.059780903 0.75628453 0.33052483
0002a0 ba 70 b8 bf cf 9f fc be b1 63 c3 be a6 28 b1 bd
       -1.4409401 -0.49340674 -0.38161996 -0.08650331
0002b0 71 11 80 3b 71 d1 1b 3b c4 cb ad bf 88 2e d0 be
       0.003908329 0.002377596 -1.3577809 -0.406605
0002c0 b6 ca ee 3a 16 6c 13 3c 1c f1 2f bf a5 51 aa bf
       0.0018218372 0.008997938 -0.6872728 -1.3306166
0002d0 1b 60 63 bf c2 44 ab be 9a d1 9b bf da 5e 34 3e
       -0.8881852 -0.33450896 -1.217334 0.17614308
0002e0 a7 bd 21 3e 25 9d 94 bf 99 8a 57 bb 4e 98 89 3b
       0.15795003 -1.1610457 -0.0032889007 0.0041990643
0002f0 5d c7 1d bf e0 6c 07 be 92 0e a4 3f 9b 6a ec 3d
       -0.6163233 -0.13225126 1.2816947 0.11543771
000300 1b 7f 3f 3f bc e7 09 3e 5d 89 8d 3f 8f 1c e9 be
       0.7480332 0.13467306 1.1057545 -0.455296
000310 9d 36 85 bf ba 6e 07 bf 10 b8 bb 3f 40 b9 aa be
       -1.0407292 -0.5290333 1.4665546 -0.3334446
000320 6b f3 f3 3e 32 5f 24 3e d1 61 68 3b 38 31 f1 bb
       0.4764665 0.16051939 0.0035458694 -0.0073606037
000330 4a 77 2b 39 bf f0 04 bb 10 17 e6 3e 15 b3 1a be
       0.0001635227 -0.0020285097 0.4493947 -0.15107377
000340 5a ad 99 3f 81 ee e3 3d c7 10 4e 3f 8b 66 ae bc
       1.2006028 0.111294754 0.8049435 -0.02128913
000350 5a e3 4b 3e 58 92 f3 be 3a 47 89 bc ca 66 f2 be
       0.19910946 -0.4757259 -0.016757596 -0.47344047
000360 50 a0 63 3f f7 79 9d 3d e0 32 82 3f f2 f7 03 3f
       0.8891649 0.076892786 1.0171776 0.5155021
000370 32 00 fa 38 29 89 ab bc bf 80 68 3f 47 11 69 3e
       0.00011920965 -0.020939426 0.9082145 0.22760497
000380 60 a4 6e 3b ce 54 1f 3c 7b 29 50 bf 11 6d 93 bd
       0.0036413893 0.009724809 -0.81313294 -0.07198537
000390 ee 46 1f bc 12 e8 ab bc 38 6b e1 bb 84 77 ee 3b
       -0.009721501 -0.020984683 -0.0068792365 0.007277431
0003a0 66 96 6e be 37 07 b2 3e 52 f3 7b bb 10 44 48 bb
       -0.2329956 0.3477113 -0.003844459 -0.0030558147
0003b0 98 7c 81 3f 91 ee 29 be 0e 2d a9 be 71 3f 1d be
       1.0116148 -0.16594912 -0.33042186 -0.15356232
0003c0 3b b7 a6 3f 3c ea 26 40 7d 16 d0 bf 05 d2 15 3f
       1.3024668 2.6080465 -1.6256863 0.5852359
0003d0 d1 85 b6 3f 26 62 2c 3f 6d e8 29 be 6d bd 04 bf
       1.4259588 0.6733726 -0.1659257 -0.5185154
0003e0 cf f2 88 3f f4 22 5c bf 6b f1 03 bf 97 66 d2 3e
       1.0699099 -0.85990834 -0.5154025 0.41093895
0003f0 09 f2 77 3e 36 0f 37 bf 38 fe 00 bf 43 55 5e be
       0.24213423 -0.71507585 -0.5038791 -0.21712212

decoder.fc_layers.0.bias f4 [128]
000000 16 f9 fc be 3b dc 94 3f e5 ec f7 b9 20 37 00 3f
       -0.49408787 1.1629709 -0.0004728801 0.50084114
000010 20 1a bb be 28 f7 9c bf 56 76 52 bf bd 41 14 3f
       -0.3654337 -1.2262926 -0.82211816 0.5791281
000020 e8 e7 ef bb 74 01 95 3f f4 58 9e bf d4 44 00 3d
       -0.0073213466 1.1641068 -1.2370896 0.03131564
000030 ce 17 17 bf cc 15 8f 3f 53 e8 c3 b9 47 c5 ec be
       -0.590207 1.1178527 -0.00037366393 -0.4624426
000040 9d 37 03 3f 78 6a 66 bf 51 78 ac 3b ec 8a cc 3a
       0.51256734 -0.9000621 0.0052633663 0.0015605367
000050 93 29 c2 3e fb 92 27 bb c7 76 31 be 64 bc c3 3f
       0.37922344 -0.0025569785 -0.17330466 1.5291867
000060 f4 e6 d1 b9 1d bb 1a 3f 1c 2e 1d 3f 7d 68 9b ba
       -0.0004003566 0.6044176 0.6139848 -0.0011856701
000070 56 de be bb 58 ed a3 bd 21 20 b6 3c 17 e0 b5 3f
       -0.0058248444 -0.08004254 0.022232117 1.4209012
000080 de e3 be 3e 8d 6b 81 3f df c5 d4 be 47 b1 ad be
       0.37283224 1.0110947 -0.41557214 -0.33924314
000090 4f 3a 18 bf 04 14 08 bf 42 af 84 bf 50 2c c7 be
       -0.5946397 -0.5315554 -1.0365984 -0.38900995
0000a0 5d 3b 41 3e 31 33 92 be 3d 0c d2 be ab 78 13 bb
       0.18870302 -0.2855468 -0.41024962 -0.0022502344
0000b0 31 d5 5b 3e 2c 45 ca 3a 52 e1 b0 3f fd f9 89 bf
       0.21468045 0.0015431992 1.3818762 -1.0779415
0000c0 41 90 25 3b 75 d9 45 be cf 5f ac 3f 94 f5 de bd
       0.0025262984 -0.19321235 1.3466738 -0.10886684
0000d0 59 b4 8d b9 eb 16 8a 3f 27 eb 93 3f 4d 9e 1a bd
       -0.00027027985 1.0788244 1.1556138 -0.037748624
0000e0 b7 92 a7 bb 50 1c 82 3f 61 3f 35 bd 57 88 c1 3b
       -0.0051139253 1.016489 -0.044249896 0.0059061456
0000f0 56 5c 77 3f 78 33 1a bc 8b dc d5 3e 4c 8e 54 bf
       0.9662527 -0.009411685 0.41769823 -0.8302963
000100 26 ff c0 3a 55 a1 47 3e 00 13 61 3d 31 40 a4 bf
       0.0014724478 0.19495137 0.05494976 -1.283209
000110 0e d0 6f bf ba 65 84 3f 95 b4 f4 ba 5d cb 01 3c
       -0.9367684 1.0343544 -0.001866954 0.007922021
000120 fe 0c 0a bf 18 33 a7 3c fe 56 3c bf 2b ed 89 bf
       -0.53926075 0.020410106 -0.7357024 -1.0775503
000130 02 0a d0 b9 e0 b0 df 39 6f 0f 08 3d 3e ff 19 bd
       -0.00039680308 0.00042665657 0.033217844 -0.037596934
000140 c1 1b dd be 99 20 a4 3e d3 65 d7 be 8b 9c 2a bf
       -0.43185237 0.3205612 -0.42069873 -0.66645116
000150 dc a1 50 bf 7f c8 94 be 59 ac df b9 7d 1c 05 bf
       -0.8149698 -0.29059216 -0.00042662284 -0.51996595
000160 b9 93 59 3b e7 b8 5c 3f fd 08 b4 be 85 c0 bb 3e
       0.0033199622 0.8621964 -0.35163108 0.36670318
000170 2f f4 59 bf 90 3d 04 3b fd 9b d5 3e 50 25 a2 3e
       -0.8513822 0.0020178296 0.41720572 0.31669092
000180 c8 68 d0 be eb 85 30 bf 0c d7 ad be a1 93 74 be
       -0.40704942 -0.6895434 -0.3395313 -0.23884441
000190 fe f2 ae 3e d2 d7 74 bb ef 28 c2 3b 0f bb 34 3f
       0.34169763 -0.0037360084 0.00592529 0.7059793
0001a0 4c 76 f5 3e 37 0f 3d 3f 04 7a 74 3f 15 74 4c 3f
       0.47941816 0.7385134 0.9549868 0.7986463
0001b0 53 a1 71 3e 23 5d 7b bf 1d ed 9b bb fd 8a bb 3e
       0.23596697 -0.9818899 -0.0047584907 0.36629477
0001c0 38 d7 b9 3b b2 d0 0c 3f bf d7 f7 bb 32 5b 8c b9
       0.005671408 0.55005944 -0.0075635607 -0.00026770827
0001d0 d9 f0 56 bf 27 4b 37 bb 31 3f 92 3e 0c 9a 7a 3e
       -0.83961254 -0.0027968378 0.28563836 0.24472827
0001e0 1b 28 cd be 29 00 4e 3e b2 dd 2b 3f fd 62 33 3f
       -0.4006966 0.20117249 0.67135155 0.7007292
0001f0 4b ea f1 be 9c 4e ae bf 95 88 c1 3f c9 9d 1a be
       -0.47249064 -1.361774 1.5119807 -0.15099253
