3DVAE_Ch0_200.pth (torch, 554456 bytes, 14 tensors)

encoder_z.fc_layers.0.weight f4 [128, 400]
0	0x3e63ac41	0.22233678
1	0x3ebf0ccc	0.3731445
2	0x3eba8fdc	0.3643788
3	0x3ea2047d	0.3164405
4	0x3edaed21	0.4275904
5	0x3f00e298	0.50345755
6	0x3ebe2158	0.37134814
7	0x3ebb9495	0.36636797
8	0x3eb2de99	0.34935454
9	0x3ef507fa	0.47857648
10	0x3ea58475	0.3232762
11	0x3e3f2101	0.18664934
12	0x3e2e14b9	0.17000093
13	0x3dbb74f0	0.091531634
14	0x3ddec2ce	0.10877
15	0x3e186c8c	0.14885157
16	0x3d86f579	0.06589789
17	0x3e2ce296	0.1688331
18	0xbc05bb0c	-0.008162271
19	0x3d8b9021	0.068146
20	0x3d9c339a	0.0762703
21	0x3de23c66	0.11046676
22	0x3d31d7a7	0.043418553
23	0x3c6031f5	0.013683786
24	0xbd54bb43	-0.0519364
25	0xbe132da3	-0.14372878
26	0xbe63c39f	-0.22242592
27	0xbeb2c11c	-0.34912956
28	0xbe814d08	-0.25254083
29	0xbe28aae4	-0.1647144
30	0xbe51a246	-0.20472059
31	0xbcef0846	-0.02917875
32	0xbd04e07c	-0.032440647
33	0x3d8b91e6	0.06814937
34	0x3db46b5f	0.08809542
35	0x3cc42dc3	0.023947602
36	0xbd9ff4c6	-0.07810359
37	0xbcde61a0	-0.02714616
38	0xbe0554b7	-0.13020597
39	0xbdced0ea	-0.10098441
40	0xbc671899	-0.014104986
41	0xbd0e18de	-0.034691684
42	0x3a6ec532	0.0009108364
43	0x3d09b9e1	0.033624534
44	0x3e0b74a2	0.1361871
45	0x3ea477e9	0.32122734
46	0x3ebd61e6	0.36988753
47	0x3eeb0b07	0.4590685
48	0x3ed4a934	0.41535342
49	0x3ec3396a	0.3812974
50	0x3ef8dfc1	0.4860821
51	0x3ec62a2a	0.38704044
52	0x3eaf2cf4	0.34213984
53	0x3ea51efb	0.322502
54	0x3e93d400	0.2887268
55	0x3e4364c8	0.19081414
56	0x3e769bf5	0.2408293
57	0x3e0d8a86	0.13822374
58	0x3dbba23c	0.09161803
59	0x3d42d2ec	0.047564432
60	0x3d76def0	0.060271204
61	0xbc740908	-0.014894731
62	0xbd929f66	-0.07159309
63	0x3bd35b5b	0.0064500994
64	0x3e1472b8	0.14496887
65	0x3df4494c	0.11928043
66	0x3e1349b4	0.14383584
67	0x3cdbf2e9	0.026849227
68	0x3d2be2d7	0.04196438
69	0x3e151b06	0.1456109
70	0x3e25e6b7	0.16201292
71	0x3e48b393	0.19599752
72	0x3df585d9	0.1198842
73	0x3df49216	0.11941926
74	0x3e209803	0.15682988
75	0x3d13c95e	0.03608071
76	0xbc273aa0	-0.010206848
77	0xbdbe2ee4	-0.092862874
78	0xbdf4a27b	-0.11945053
79	0xbe450369	-0.19239582
80	0xbd823bd1	-0.06359065
81	0x3dafc387	0.08582216
82	0x3cfe0a2c	0.03101071
83	0xbe5fb4d6	-0.21846327
84	0xbdb6a4c9	-0.08918149
85	0xbd9f9041	-0.07791186
86	0xbdbf166d	-0.09330449
87	0xbdaa2a8c	-0.083088964
88	0x3d81f08b	0.06344708
89	0x3d07edd8	0.03318581
90	0x3d175511	0.03694636
91	0x3d507cae	0.050900154
92	0x3d2e9a31	0.042627517
93	0xbd35c78b	-0.044379752
94	0xbde04d09	-0.10952193
95	0xbdd92176	-0.10602085
96	0x3cfcc9c4	0.030857928
97	0x3e077902	0.13229755
98	0x3dc7734f	0.0973879
99	0x3e1e10b7	0.15436064
100	0x3ead080b	0.337952
101	0x3ea70f6e	0.3262896
102	0x3e40d3a8	0.1883074
103	0x3de108dd	0.10988019
104	0x3dc21af4	0.09477797
105	0x3e35e30e	0.17762396
106	0x3e51fb9f	0.20506142
107	0x3ea18273	0.31544837
108	0x3ebc2a59	0.3675106
109	0x3ed38483	0.41312036
110	0x3ec66e2c	0.3875593
111	0x3f2edea7	0.6830849
112	0x3f371cd9	0.71528393
113	0x3f5b63cf	0.8569917
114	0x3f411562	0.7542325
115	0x3f11d9d4	0.56973004
116	0x3f11e9b6	0.5699724
117	0x3ef33c17	0.47506782
118	0x3eb63688	0.3558848
119	0x3eb2d7a5	0.3493015
120	0x3eb2eac2	0.3494473
121	0x3e8a531c	0.27016532
122	0x3e4b68a2	0.19864133
123	0x3e71a923	0.23599677
124	0x3e4a3e45	0.19750316
125	0x3e913249	0.28358677
126	0x3e8f0dde	0.27940267
127	0x3e712710	0.23550057
128	0x3e30de91	0.17272402
129	0x3d6de8f3	0.058083486
130	0x3d29bc6d	0.041439462
131	0x3d1bf87c	0.03807877
132	0xbc27d988	-0.010244735
133	0xbd91709e	-0.07101558
134	0x3dce20ec	0.10064873
135	0x3e23b17a	0.1598567
136	0x3e1839b4	0.14865762
137	0x3e0e2d53	0.13884477
138	0x3e246c07	0.16056834
139	0x3e65ff48	0.22460663
140	0x3e9c8330	0.30568838
141	0x3e99f51c	0.30069816
142	0x3eef8e4c	0.4678825
143	0x3eda64ad	0.42654935
144	0x3ec1d3be	0.3785686
145	0x3eb0c4ed	0.34525242
146	0x3edc0759	0.42974356
147	0x3eb14570	0.3462329
148	0x3e97e1ab	0.29664358
149	0x3e7f3ba1	0.2492509
150	0x3e84a083	0.2590371
151	0x3e7ecd2e	0.24882957
152	0x3ebbed8a	0.36704665
153	0x3ee85819	0.45379713
154	0x3ec9689d	0.39337626
155	0x3e9c78e0	0.3056097
156	0x3ecfc481	0.40579608
157	0x3e9d8971	0.30768922
158	0x3e7db308	0.24775326
159	0x3e911443	0.2833577
160	0x3e7739f5	0.24143203
161	0x3e3538c6	0.17697439
162	0x3bc19e63	0.0059087737
163	0xbd49fb4f	-0.049311932
164	0x3cb2f2c1	0.02184427
165	0xbc1ade5d	-0.00945243
166	0xbcf50896	-0.02991132
167	0x3d396abd	0.04526781
168	0xbcfda09f	-0.03096038
169	0xbd001ee7	-0.03127947
170	0x3d28bfca	0.04119853
171	0xbd9cdd5d	-0.07659409
172	0xbd0e134a	-0.034686364
173	0xbd52f063	-0.051498782
174	0xbdcb5ec6	-0.09930186
175	0x3ab59876	0.0013854641
176	0xbc6614cc	-0.014043044
177	0xbd9b3b59	-0.07579679
178	0xbd9306ff	-0.07179069
179	0xbe292ad0	-0.16520238
180	0xbdfaef47	-0.1225267
181	0xbdf90a33	-0.121601485
182	0xbdb9c197	-0.090701275
183	0xbdcb4a32	-0.09926261
184	0xbe021e2e	-0.12706825
185	0xbd591203	-0.052995693
186	0xbe0d798c	-0.13815898
187	0xbe4993ec	-0.19685334
188	0xbe6f37fa	-0.23361197
189	0xbe3e4538	-0.18581092
190	0xbe948b37	-0.29012462
191	0xbea486ba	-0.32134038
192	0xbee03c54	-0.43796027
193	0xbebd134a	-0.3692878
194	0xbec67683	-0.38762292
195	0xbead1286	-0.33803195
196	0xbe83bd52	-0.25730377
197	0xbe61788d	-0.22018643
198	0xbe845a61	-0.25850204
199	0xbe9b1037	-0.30285808
200	0xbe800b43	-0.25008592
201	0xbe9124c0	-0.2834835
202	0xbeab1cdd	-0.33420458
203	0xbe9da655	-0.30790964
204	0xbe786e50	-0.24260831
205	0xbdd009ee	-0.10158144
206	0xbe5562a0	-0.20838404
207	0xbe491654	-0.19637424
208	0xbe755083	-0.23956494
209	0xbe97f5a9	-0.2967961
210	0xbeab04c4	-0.33402073
211	0xbe9d35ff	-0.30705258
212	0xbe849594	-0.2589537
213	0xbe9d79ca	-0.3075698
214	0xbe6dff56	-0.23241934
215	0xbe02a3cf	-0.127578
216	0xbd83a07b	-0.064270936
217	0xbdbd364c	-0.09238872
218	0xbdc7e452	-0.097603455
219	0xbe755e2c	-0.23961705
220	0xbe5f2364	-0.21790844
221	0xbe2bcfe4	-0.16778523
222	0xbe490dbd	-0.19634147
223	0xbe70f42d	-0.23530646
224	0xbeb04044	-0.3442403
225	0xbea092ec	-0.31362092
226	0xbec86c1b	-0.39144978
227	0xbea0a6ce	-0.31377262
228	0xbe9eaf0f	-0.30992934
229	0xbea06c0b	-0.3133243
230	0xbe8ab634	-0.27092135
231	0xbe1e3490	-0.15449739
232	0xbdd19080	-0.10232639
233	0x3cb50359	0.022096323
234	0x3d8f3e35	0.06994287
235	0x3d2f6743	0.042823087
236	0x3e1c1170	0.15241027
237	0x3e2643e8	0.16236842
238	0x3e224243	0.1584559
239	0x3de5e472	0.11225213
240	0x3cd70300	0.026246548
241	0xbd214b56	-0.039378487
242	0xbe182d97	-0.14861141
243	0xbdee1d7c	-0.116267174
244	0xbda7a524	-0.08185795
245	0xbdf240e8	-0.11828786
246	0xbd1074ad	-0.03526752
247	0xbe037384	-0.12837034
248	0xbd8a5bfe	-0.06755827
249	0x3d9270f8	0.07150453
250	0x3e3d46c4	0.18484026
251	0x3e1a9cf3	0.15098934
252	0x3c9e4dab	0.019324144
253	0xbe233f69	-0.15942158
254	0xbe860596	-0.26176137
255	0xbe55c3f8	-0.20875537

encoder_z.fc_layers.0.bias f4 [128]
0	0xbf8018aa	-1.0007527
1	0x3f717b73	0.94328994
2	0x3ebbfff7	0.36718723
3	0x402853dc	2.6301184
4	0xbf321078	-0.6955638
5	0xbfd628d7	-1.6731213
6	0x3fc5d6c8	1.5456171
7	0x3fca0771	1.5783521
8	0x3f4f9a0e	0.81094444
9	0xc05c451b	-3.4417179
10	0xbf95cf1e	-1.1703832
11	0xbe576a14	-0.2103656
12	0xbfe8f8e8	-1.820096
13	0x3d66c6be	0.05634188
14	0x40262649	2.5960867
15	0x3ff25eb5	1.8935152
16	0xc05e52e2	-3.4738088
17	0xbf9c0b45	-1.2190939
18	0x3f13a0d7	0.576673
19	0xbe2a729b	-0.16645281
20	0x3f85ef8f	1.0463732
21	0xbe3a0c4b	-0.18168752
22	0xc09cd856	-4.901408
23	0x3f788ff6	0.97094667
24	0x3f095610	0.53646946
25	0x3f4bab1f	0.79557985
26	0xbe5c748e	-0.21528837
27	0xbfed1543	-1.8522114
28	0xbe5f730a	-0.21821228
29	0x3e996c69	0.29965523
30	0x3f825fe2	1.0185511
31	0xbed184d6	-0.40921658
32	0xc0118b3c	-2.2741232
33	0x3f457146	0.77125967
34	0x3f698cc5	0.9123042
35	0x405a8f07	3.4149797
36	0xc04c1bd1	-3.1891978
37	0x3e649b8a	0.22324958
38	0xbf3d8e6f	-0.7404546
39	0x4066b737	3.6049325
40	0xc0176e27	-2.3660982
41	0x3f307827	0.6893334
42	0xbfad54d0	-1.3541508
43	0x3eff6ec3	0.49889192
44	0x3ea09827	0.31366083
45	0x3f99b645	1.2008749
46	0x3e2ff1f6	0.17182145
47	0xbf31d9ed	-0.69473153
48	0xbd874e97	-0.06606787
49	0xbfae786c	-1.36305
50	0xc074440f	-3.816654
51	0xbf8ef1b1	-1.1167508
52	0x3feec732	1.865454
53	0x3fa9ce6e	1.3266122
54	0xbf800a8e	-1.0003221
55	0x3f1e79f7	0.61904854
56	0x3cae23d3	0.021257317
57	0x3e153ca1	0.1457391
58	0x3f9c9063	1.2231563
59	0x4060bd2d	3.5115464
60	0xbf829ca8	-1.0204058
61	0x3f96fcc5	1.1795889
62	0xbeb92396	-0.36159962
63	0x3fff269c	1.9933658
64	0x402ed8d6	2.7319846
65	0xbfcb3498	-1.5875425
66	0x40015d1d	2.0213082
67	0xbef6b6cf	-0.48186347
68	0x400603ef	2.09399
69	0xbf2b0093	-0.6679775
70	0x3e6876c5	0.22701557
71	0x402cd31c	2.700385
72	0xbfa5119b	-1.2895998
73	0x40143b2d	2.3161118
74	0xbd276285	-0.04086544
75	0xbe1b7353	-0.15180711
76	0x3fb1cd00	1.3890686
77	0x40043a61	2.0660632
78	0x3f7b9f84	0.98290277
79	0x3f8ab8a5	1.0837599
80	0x3e89904f	0.2686791
81	0xbfc6cb1e	-1.5530736
82	0xbf943352	-1.1578162
83	0xbf497598	-0.7869506
84	0xc03924e9	-2.8928778
85	0xbf8390eb	-1.02786
86	0xbfd006e5	-1.6252104
87	0x4079393f	3.894119
88	0x40270156	2.6094565
89	0x3e5fa46a	0.21840063
90	0xbf2d5f67	-0.677237
91	0xc08fd2da	-4.4944887
92	0x3ffbbdf6	1.9667346
93	0xc084cb5a	-4.149823
94	0x407704eb	3.8596752
95	0xbfa8e30e	-1.3194292
96	0x4021d26f	2.5284688
97	0xc042c8e8	-3.0435123
98	0xbf629cb4	-0.8852036
99	0x404c3ab6	3.1910834
100	0x3f802ffa	1.0014641
101	0xc07e1c8f	-3.970493
102	0x3f8bbee5	1.0917631
103	0xbfef82e2	-1.8711817
104	0x3e7ae07e	0.244997
105	0x3fcbfa63	1.5935787
106	0x3f79a5ba	0.97518504
107	0xbfa6f97d	-1.3044888
108	0x3f964472	1.1739638
109	0xc0588ac1	-3.3834689
110	0xbeaaa82f	-0.3333144
111	0xbec9a38c	-0.3938259
112	0xbf738b1a	-0.9513413
113	0x40192c22	2.3933187
114	0xc0108e78	-2.2586956
115	0x3ed88b44	0.4229375
116	0xbf76f657	-0.96469635
117	0x3f4c3c1c	0.7977922
118	0x3f3d5f2b	0.7397334
119	0xbfcc976f	-1.5983714
120	0x3fcd3f4f	1.6034945
121	0xbfec5979	-1.8464805
122	0xc0581236	-3.3761115
123	0xbf990a81	-1.195633
124	0xc038d59f	-2.8880384
125	0x402d3aeb	2.706721
126	0x3f8d2e7a	1.1029809
127	0xbfa12a2e	-1.2590997

encoder_z.fc_layers.2.weight f4 [128, 128]
0	0x3e3cb2f1	0.18427636
1	0xbeccc527	-0.39994165
2	0x3eb1f176	0.34754533
3	0x3e267367	0.1625496
4	0xbda146c8	-0.078748286
5	0xbdd3c967	-0.10341149
6	0x3d7fcf45	0.062453527
7	0x3dcd9695	0.10038487
8	0xbeffdc9f	-0.49973008
9	0xbdb6de6d	-0.08929143
10	0xbd078cc6	-0.033093236
11	0x3edd20fd	0.4318923
12	0x3ec879a7	0.39155313
13	0xbec4ae38	-0.38414168
14	0xbdb7aaf8	-0.089681566
15	0x3e12aada	0.14322987
16	0xbee88915	-0.45417085
17	0xbdbe3aa2	-0.09288527
18	0x3e2ea78d	0.17056103
19	0xbef7c8bc	-0.48395336
20	0x3c5418f0	0.012945399
21	0x3e12fb15	0.14353593
22	0xbe60e629	-0.21962799
23	0x3d7a50f2	0.06111235
24	0xbdba20f0	-0.090883136
25	0x3d7b94cc	0.0614212
26	0xbd9feff4	-0.07809439
27	0xbf2cb91b	-0.6746995
28	0xbcc866b2	-0.024463031
29	0x3e738dd4	0.23784572
30	0x3ba61313	0.005068192
31	0x3eeec3a3	0.46633634
32	0xbef171d2	-0.4715715
33	0xbd4b2052	-0.04959137
34	0x3dfea465	0.124336995
35	0xbdc4c413	-0.09607711
36	0xbe0fea7b	-0.14054291
37	0xbc148478	-0.009064786
38	0x3db9a5de	0.0906484
39	0x3e1adcdd	0.15123315
40	0x3eae0a4d	0.33992234
41	0xbedab1e6	-0.4271385
42	0x3d472b49	0.048625264
43	0xbe5201a3	-0.20508437
44	0xbd23cf94	-0.039992884
45	0x3ed2ee6c	0.41197526
46	0x3f6c9337	0.9241213
47	0xbd50a04a	-0.050934114
48	0xbe907984	-0.2821771
49	0x3e864755	0.26226297
50	0x3e7e6e57	0.24846779
51	0xbde4871b	-0.11158582
52	0x3e8ec847	0.27887174
53	0x3e836a3d	0.2566699
54	0xbea366f9	-0.319145
55	0xbf238039	-0.6386753
56	0xbeaf3e99	-0.34227446
57	0x3dc5dca1	0.09661222
58	0x3ee2562d	0.44206372
59	0x3a61c6de	0.00086127024
60	0xbdf8f1ae	-0.12155472
61	0xbf104f95	-0.5637143
62	0xbe8c9b4e	-0.27462238
63	0x3d6fb6e8	0.058524042
64	0xbea9dc0b	-0.33175692
65	0xbeee8302	-0.46584326
66	0xbdf7e8c9	-0.12104947
67	0x3da0ba5a	0.07848044
68	0xbe89403b	-0.26806816
69	0xbcaba330	-0.020951837
70	0x3e9681aa	0.293958
71	0x3f3e70d1	0.74390894
72	0xbe9cf044	-0.30652058
73	0x3f257f3a	0.6464726
74	0xbe98f0e8	-0.29871297
75	0x3ec48438	0.38382125
76	0x3e9891db	0.2979878
77	0xbf2323bf	-0.6372642
78	0xbe55db0f	-0.20884345
79	0x3ed9e919	0.42560652
80	0x3d90481d	0.070450045
81	0x3dfcfca6	0.12352876
82	0xbcef427f	-0.029206512
83	0xbefed767	-0.49773714
84	0x3ea20c40	0.3164997
85	0xbebd1d29	-0.3693631
86	0xbdbc2a39	-0.09187741
87	0x3ef0080e	0.46881145
88	0xbcf2674e	-0.029590275
89	0xbed89616	-0.42302006
90	0x3dad95d9	0.08475847
91	0xbe8e908d	-0.27844658
92	0xbe273ba2	-0.16331342
93	0xbdf02db0	-0.11727464
94	0x3cc1f540	0.023676515
95	0xbe957b8e	-0.29195827
96	0xbec6ddc0	-0.38841057
97	0x3ec8e955	0.39240518
98	0xbdf60fb4	-0.12014714
99	0x3e7f84c7	0.24952994
100	0xbe4da719	-0.20083274
101	0x3dce5220	0.10074258
102	0x3f70cd16	0.94062936
103	0x3f0f2d8f	0.5592889
104	0xbea9f1b7	-0.33192226
105	0x3f5c5846	0.86072195
106	0x3e2cc50e	0.16872045
107	0x39b0d4d1	0.00033727897
108	0x3f014ff2	0.5051261
109	0xbe846ef2	-0.25865895
110	0xbed800a5	-0.42187992
111	0x3dd455b2	0.103679076
112	0x3e4a3a73	0.19748859
113	0xbd130971	-0.035897676
114	0x3c875a4c	0.01652255
115	0x3b038e84	0.002007396
116	0xbe7f2cb0	-0.2491939
117	0xbcf15b0a	-0.029462356
118	0xbeb81259	-0.35951498
119	0xbecc8cba	-0.39951116
120	0x3d8ec563	0.06971242
121	0x3d207256	0.03917154
122	0xbeab6258	-0.33473468
123	0x3b466e7e	0.003027826
124	0xbe39ca28	-0.18143523
125	0x3dcd4c2f	0.100242965
126	0x3cc5cac9	0.024144547
127	0xbd20a343	-0.0392182
128	0xbec1d610	-0.3785863
129	0xbe21158a	-0.15730873
130	0xbe803a29	-0.25044373
131	0x3e681808	0.22665417
132	0x3e74180e	0.23837301
133	0x3e2a2932	0.16617277
134	0x3e0da881	0.1383381
135	0x3df74a02	0.12074663
136	0xbef6b2d6	-0.48183316
137	0xbe211016	-0.15728793
138	0xbee36f99	-0.4442108
139	0x3f34d879	0.7064281
140	0x3c6ce987	0.014459974
141	0xbf36106a	-0.71118796
142	0x3de7033f	0.11279916
143	0xbcbf165d	-0.023326093
144	0xbf01a953	-0.50648993
145	0x3e3a6f1f	0.18206452
146	0x3c3d55d5	0.0115561085
147	0x3d2195e6	0.039449595
148	0xbe3d12e3	-0.18464236
149	0xbe9e2dda	-0.30894357
150	0x3bd780b5	0.0065766224
151	0x3e0b10b2	0.13580588
152	0x3bcafec8	0.006194923
153	0xbe13b029	-0.14422669
154	0x3e5241f3	0.2053297
155	0x3e0e0639	0.13869561
156	0x3cdb0e08	0.026740089
157	0x3df28a6f	0.1184281
158	0xbd6a1938	-0.057152957
159	0x3ef96b4c	0.48714674
160	0xbe3c256f	-0.18373655
161	0xbe743383	-0.23847775
162	0xbe39678c	-0.18105906
163	0x3ea65f90	0.32494783
164	0xbee9ca29	-0.45662048
165	0xbe7c4a3b	-0.24637692
166	0xbeacff0d	-0.33788338
167	0xbcf0e45f	-0.02940577
168	0xbe89e4ee	-0.26932472
169	0x3d9f39ac	0.07774672
170	0xbd77bb29	-0.060481224
171	0xbd3817f7	-0.04494473
172	0xbe9b5e22	-0.30345255
173	0x3e799ea2	0.2437692
174	0x3e8fcdd0	0.2808671
175	0x3e839ef2	0.25707203
176	0xbef81223	-0.48451337
177	0x3e03e04e	0.12878534
178	0x3e3fce7f	0.18731116
179	0xbeed0287	-0.4629099
180	0x3e2390cf	0.15973209
181	0x3dfd6ea8	0.12374622
182	0x3d498dbe	0.04920744
183	0xbecc865b	-0.39946255
184	0xbe50373b	-0.20333569
185	0x3d7e5eff	0.062102314
186	0x3c6c61b6	0.014427593
187	0x3ef28b9b	0.47372136
188	0xbd28958b	-0.04115824
189	0xbe1ff556	-0.15620932
190	0xbd1ec529	-0.038762245
191	0x3ef2855d	0.47367373
192	0xbdd5e6d5	-0.10444418
193	0x3d3848e5	0.044991393
194	0x3e742acc	0.2384445
195	0xbe5d3b35	-0.21604617
196	0xbf5d8785	-0.8653491
197	0x3cadc74f	0.021213202
198	0x3d186a1a	0.03721056
199	0x3e5b607d	0.21423526
200	0xbe64eac4	-0.22355181
201	0xbdef4daf	-0.11684739
202	0x3e10bfa7	0.1413561
203	0x3c848d18	0.01618056
204	0x3e3ebffe	0.18627927
205	0xbb93211f	-0.0044900323
206	0x3e6201d5	0.22071011
207	0x3de1348e	0.10996352
208	0x3f361e04	0.7113955
209	0xbe846e04	-0.25865185
210	0xbc10779a	-0.008817578
211	0xbead5e80	-0.3386116
212	0xbef88e70	-0.4854617
213	0x3dd3027f	0.103032105
214	0x3da83912	0.0821401
215	0x3f0373f7	0.51348823
216	0x3e760225	0.24024256
217	0xbe96fe7e	-0.29491037
218	0x3e1a7f25	0.15087564
219	0xbea78082	-0.3271523
220	0x3f13cf63	0.5773832
221	0xbe1d4500	-0.15358353
222	0x3f42de90	0.76120853
223	0xbe5b5bd4	-0.21421748
224	0xbe4d6fb0	-0.20062137
225	0x3da83275	0.08212749
226	0xbdf132fd	-0.11777303
227	0xbc5bca29	-0.013414898
228	0x3e987e7a	0.29783994
229	0xbec71203	-0.3888093
230	0x3ed64636	0.41850442
231	0xbdc68191	-0.096926816
232	0x3df378d3	0.1188828
233	0x3f426b86	0.7594532
234	0xbdd4d31e	-0.1039183
235	0xbec328a1	-0.38116935
236	0xbc3ae487	-0.011407024
237	0xbe2f02de	-0.17090937
238	0xbd4dc8ea	-0.050240435
239	0x3db5dbf0	0.088798404
240	0x3e67853e	0.22609422
241	0xbede5e6d	-0.43431416
242	0xbd07b330	-0.03312987
243	0x3d3b522c	0.045732662
244	0xbd921415	-0.071327366
245	0xbec7422f	-0.38917682
246	0x3ebd5c99	0.3698471
247	0x3ec7edc2	0.39048582
248	0x3ccc771f	0.024959145
249	0x3e184c18	0.14872777
250	0xbef2e2ed	-0.47438756
251	0x3f02b35e	0.5105494
252	0x3db26d32	0.087122336
253	0x3ee87bcf	0.45406958
254	0xbd81a922	-0.06331088
255	0xbe9bfb00	-0.30464935

encoder_z.fc_layers.2.bias f4 [128]
0	0x3df3f178	0.11911291
1	0xbe9159e0	-0.28388882
2	0xbe0bac72	-0.13640001
3	0xbf3e5e7f	-0.7436294
4	0xbe9c9362	-0.30581194
5	0xbd812e47	-0.06307655
6	0xbdd288ec	-0.10280022
7	0xbd08e3da	-0.03342042
8	0xbee6c5ad	-0.4507269
9	0x3e3163fa	0.17323294
10	0xbc621fc2	-0.013801517
11	0xbd013304	-0.031542793
12	0x3eb01b3d	0.3439578
13	0x3deade16	0.11468141
14	0xbdf4b7f9	-0.119491525
15	0x3c317778	0.010831706
16	0x3e895ff0	0.26831007
17	0x3f39c4f3	0.72566146
18	0xbcb73c9b	-0.022367766
19	0xbd429503	-0.04750539
20	0xbec76bcd	-0.38949433
21	0xbbe1b827	-0.0068884077
22	0xbe942968	-0.2893784
23	0xbe7c78e6	-0.24655494
24	0xbe9f6c58	-0.31137347
25	0x3e8dee19	0.27720717
26	0x3da635e0	0.081157446
27	0xbd000d7e	-0.031262867
28	0xbe95224b	-0.29127726
29	0xbdd9558e	-0.106120214
30	0xbe970a38	-0.29499984
31	0xbea7368a	-0.32658798
32	0x3e8c4f7d	0.27404395
33	0x3d802a6b	0.062580906
34	0x3c3ddc1b	0.011588122
35	0xbf07329e	-0.5281161
36	0x3ceebd0d	0.02914288
37	0x3f2e8609	0.6817327
38	0xbf3313f2	-0.6995231
39	0xb9facb64	-0.00047835254
40	0x3b520c29	0.0032050705
41	0x3e9a578f	0.30144927
42	0x3ca67cd0	0.020323187
43	0x3d5d7099	0.05406246
44	0x3cffe992	0.031239305
45	0xbf38f48e	-0.7224816
46	0x3e7967b8	0.24355972
47	0xbcaa7258	-0.020806476
48	0x3f2afd1d	0.6679247
49	0xbcafb531	-0.021448703
50	0xbe98217e	-0.29713053
51	0x3e934273	0.28761634
52	0x3eb0d05a	0.3453396
53	0x3e4c7c1d	0.1996922
54	0x3e87acf0	0.26499128
55	0x3f099f14	0.5375836
56	0xbd45602e	-0.048187427
57	0xbefbd1a6	-0.49183387
58	0x3e2b01f2	0.16699961
59	0x3d7b105c	0.0612949
60	0x3d99fbd2	0.07518734
61	0x3d6248bd	0.05524515
62	0xbedc1c9a	-0.4299057
63	0xbe8c697a	-0.27424222
64	0xbde48dd3	-0.11159863
65	0xbe059461	-0.13044883
66	0x3d5639d8	0.052301258
67	0x3d43e086	0.047821544
68	0x3ec4ec18	0.38461375
69	0x3f03a44a	0.5142256
70	0x3c8f8d57	0.01752345
71	0xbdfab21f	-0.12241005
72	0x3f010019	0.50390774
73	0xbf01d0f5	-0.5070947
74	0x3d3a5fef	0.045501646
75	0x3e8924d1	0.267859
76	0xbf26fbeb	-0.65228146
77	0xbcafb26d	-0.021447385
78	0x3e0bd688	0.13656056
79	0xbe5b1322	-0.21394017
80	0x3dfcb65f	0.12339472
81	0xbee88599	-0.45414427
82	0x3ea6c928	0.32575345
83	0xbea770cf	-0.32703254
84	0x3d874c2d	0.06606326
85	0xbea9da2f	-0.33174273
86	0x3f3cad15	0.737016
87	0xbea4a562	-0.32157427
88	0xbdac6c35	-0.08419076
89	0x3c83f263	0.01610679
90	0xbe8e89f9	-0.2783964
91	0xbd9a0617	-0.07520693
92	0x3dfc3409	0.123146124
93	0x3e84c45d	0.25931063
94	0xbb5aa925	-0.0033364978
95	0xbd4733be	-0.04863333
96	0xbe127438	-0.14302146
97	0x3d171aa1	0.03689063
98	0xbec01019	-0.37512282
99	0x3d146c8d	0.036236335
100	0x3e0f9931	0.14023282
101	0x3e7196a7	0.23592626
102	0xbd9e53d0	-0.0773083
103	0xbf08c30d	-0.53422624
104	0xbd9ace4e	-0.07558881
105	0x3ec5fe06	0.38670367
106	0xbec44e67	-0.38341066
107	0x3cfc54c7	0.030802144
108	0xbd46ab17	-0.048503008
109	0xbd85d1c7	-0.065341525
110	0x3cf84030	0.030304044
111	0x3e6e80e5	0.23291357
112	0xbcd71244	-0.026253827
113	0xbe86ca95	-0.26326433
114	0xbf45fd4e	-0.7733964
115	0xbda36317	-0.07977884
116	0x3d3607d7	0.04444107
117	0xbedf4725	-0.43608966
118	0xbee9f56d	-0.45695058
119	0xbd39ebd1	-0.045390908
120	0x3c761a69	0.015020945
121	0x3ce45ac8	0.02787532
122	0x3eecf0c0	0.46277428
123	0x3f257a6d	0.6463993
124	0x3cae2287	0.021256698
125	0xbe45bd73	-0.1931055
126	0x3d35e84f	0.044411
127	0x3ee4618c	0.44605672

encoder_z.fc11.weight f4 [3, 128]
0	0x3d6a3136	0.057175837
1	0x3d0b7f07	0.03405669
2	0xbd0fde4f	-0.03512412
3	0xbee9e538	-0.45682693
4	0x3d82d853	0.06388917
5	0x3c493f74	0.012283195
6	0x3bd8dfd9	0.0066184816
7	0xbc694b4a	-0.014239142
8	0x3aea8fcf	0.0017895642
9	0xbca4b3a7	-0.020105196
10	0xbba7241c	-0.00510074
11	0x3be72a31	0.00705459
12	0x3e76bb7e	0.2409496
13	0x3cebc271	0.02877924
14	0x3c9b22a0	0.018937409
15	0xbc95da19	-0.018292474
16	0x3ebbc654	0.3667475
17	0x3caf8c1c	0.021429114
18	0xbd96c709	-0.07362182
19	0xbc01ee5a	-0.007930363
20	0x3e594837	0.21218954
21	0xbb88eb0e	-0.0041784113
22	0xbd7b2766	-0.06131687
23	0x3e0707ad	0.13186522
24	0x3d7c1b5e	0.061549537
25	0xbc0dbe7e	-0.008651374
26	0xbbae6cd3	-0.0053230315
27	0xbb18cc17	-0.0023315006
28	0xbdac912b	-0.08426126
29	0x3d54757f	0.051869866
30	0x3d8a26ec	0.06745705
31	0x3db74078	0.08947843
32	0x3bae4abc	0.0053189676
33	0x3d78a4cd	0.06070404
34	0x3b7af095	0.003829037
35	0x3db03736	0.08604281
36	0xbc8d75d5	-0.0172681
37	0x3e3bf72c	0.18356007
38	0xbe65aa5a	-0.22428265
39	0xbc0129a0	-0.007883459
40	0xbb0b869b	-0.0021289948
41	0xbd3e0ae1	-0.046397094
42	0xbc4a17d0	-0.012334779
43	0x3af277de	0.0018498858
44	0x3a88db34	0.0010441304
45	0xbca105ef	-0.01965615
46	0x3daf7ba9	0.08568508
47	0xbc9c67a3	-0.019092387
48	0x3c69ff87	0.014282114
49	0xbd1690a5	-0.036759038
50	0xbd66d6df	-0.05635726
51	0xbd82078a	-0.06349094
52	0xbd89549c	-0.06705591
53	0xbd452f9e	-0.048141114
54	0x3d465dfe	0.04842948
55	0xbd05ddd7	-0.032682266
56	0xbbf7a820	-0.007557884
57	0xbe742a9c	-0.23844379
58	0xbd747d47	-0.059689786
59	0xbc20f75d	-0.009824601
60	0xbbe419bc	-0.0069610756
61	0x3d58dbe5	0.052944083
62	0xbd2e5d01	-0.042569164
63	0x3dc21047	0.09475761
64	0x39ec06fe	0.00045018637
65	0xbdae3ac3	-0.08507302
66	0xbddc857f	-0.1076765
67	0xbc9179e7	-0.017758323
68	0xbd6a897e	-0.05726003
69	0x3d786bb3	0.060649585
70	0xbc11a656	-0.008889755
71	0x3bd77b26	0.0065759597
72	0xbdff7a0d	-0.12474451
73	0x3c21cdce	0.009875728
74	0x3b3264b6	0.0027220673
75	0xbd4cca8d	-0.049997855
76	0xbe77446c	-0.24147195
77	0x3d739ece	0.05947762
78	0x3cb48804	0.022037514
79	0xbd117a21	-0.03551686
80	0x3d1035eb	0.03520767
81	0xbd5e2971	-0.05423874
82	0x3e82c702	0.25542456
83	0xbdeafe5d	-0.11474297
84	0xbbd0bade	-0.0063699326
85	0xbb0d4554	-0.0021556215
86	0x3d9b99ef	0.0759772
87	0xbd8c0034	-0.06835976
88	0x3d391fcd	0.045196343
89	0x3b6e6976	0.0036378778
90	0xbdc58aa6	-0.09645586
91	0x3d34db90	0.044154704
92	0xbdebafed	-0.115081646
93	0xbdcf5b5b	-0.101248465
94	0xbb23f8f3	-0.0025020211
95	0x3c5e02a4	0.013550434
96	0x3d3610de	0.04444968
97	0x3d1f7556	0.03893026
98	0xbdb1233f	-0.08649301
99	0x3c34a190	0.011024848
100	0x3e5bdfbc	0.21472067
101	0xbdca86d6	-0.09888999
102	0x3b2bf2c4	0.002623723
103	0xbd72440f	-0.059146937
104	0xbd3c0235	-0.045900542
105	0xbd7e6e47	-0.062116887
106	0x3d06272f	0.032752212
107	0x3b82394f	0.003974117
108	0x3dd7abb0	0.10530794
109	0x3c1b9a53	0.009497243
110	0x3db320db	0.08746501
111	0xbdb1aee8	-0.08675939
112	0xbd47e5c5	-0.04880311
113	0xbdc3b879	-0.0955667
114	0xbd1a1ecb	-0.037627023
115	0x3bc8eadd	0.0061315135
116	0xb98606f7	-0.0002556366
117	0x3c6a0761	0.014283986
118	0x3dd1c002	0.10241701
119	0x3d82ca15	0.063862
120	0x3b817855	0.0039511123
121	0xba600193	-0.00085451565
122	0xbcba07a3	-0.02270872
123	0xbcb5366b	-0.022120675
124	0x3c8c53ed	0.017129863
125	0x3d745cb9	0.05965874
126	0xbb37fcfb	-0.0028074372
127	0x3db13573	0.08652773
128	0x3ae4a930	0.0017445441
129	0xbd2e47e1	-0.042549018
130	0xbe2be6bb	-0.16787235
131	0x3e5789e2	0.21048692
132	0x3d85dff4	0.06536856
133	0xbb046fe8	-0.0020208303
134	0x3d8e276e	0.06941114
135	0x3ac6285e	0.0015118232
136	0x3baf6f6a	0.0053538578
137	0xbdb5989f	-0.08867001
138	0x3a933205	0.0011230117
139	0xba0e9825	-0.00054395414
140	0x3c97b92f	0.01852092
141	0xbbd5f78f	-0.0065297554
142	0x3c56bfa3	0.013107213
143	0xbb2abb0a	-0.0026051425
144	0xbcde89bc	-0.027165286
145	0xbdb70acd	-0.08937607
146	0xbd08f812	-0.033439703
147	0x3b218adf	0.0024649424
148	0xbb89a550	-0.004200615
149	0xbb67c552	-0.0035365415
150	0x3d194996	0.037423693
151	0xbc4c637c	-0.012474891
152	0xbd9e4fd0	-0.07730067
153	0xbdccbdc5	-0.09997133
154	0x39f49abb	0.0004665459
155	0x3b69dd56	0.0035684905
156	0x3a0a6dc6	0.000528064
157	0xbce81bd1	-0.028333576
158	0xbc2564ab	-0.010094802
159	0xbc8dbcd3	-0.017301952
160	0x3cd5254f	0.026018767
161	0x3d7ae777	0.0612559
162	0x3ba2f1fd	0.004972695
163	0x3de0583d	0.1095433
164	0x3de74b70	0.112936854
165	0xbc9b28f0	-0.018940419
166	0x3d0d1de6	0.03445234
167	0x3b7a9071	0.0038233066
168	0x3bbff5a7	0.0058581415
169	0xbb260a1f	-0.0025335622
170	0x386d7fbd	5.662417e-05
171	0xbb17872d	-0.0023121343
172	0x3aa0e73e	0.0012275947
173	0x3c25fa7f	0.010130524
174	0x3bd26f8c	0.006421989
175	0x3a8d0990	0.0010760296
176	0xbc071eeb	-0.0082471175
177	0x3cc36fc5	0.023857007
178	0xbc856847	-0.016285075
179	0x3dc01cf9	0.09380526
180	0xbb69a7b5	-0.003565294
181	0xbd9f037d	-0.07764337
182	0xbd9d08c8	-0.076676905
183	0xbbc5b5f0	-0.0060336515
184	0xbab6ae66	-0.0013937473
185	0xbb9ef611	-0.0048511107
186	0x3c727273	0.014797795
187	0x371aa594	9.217667e-06
188	0x3b2c2d2a	0.0026272037
189	0xbcca3103	-0.024681574
190	0xbd99ded9	-0.07513208
191	0xbca6e40b	-0.020372411
192	0x3cbe0ccb	0.02319946
193	0x3ca73d38	0.020414934
194	0x3c7476f7	0.014920942
195	0x3d5e0491	0.054203574
196	0xbd928691	-0.07154573
197	0xbd57585a	-0.052574493
198	0xb88c2bf2	-6.683906e-05
199	0xbdbcee51	-0.09225143
200	0x3cd478ce	0.02593651
201	0x3bf14a3e	0.0073635867
202	0xbba6f111	-0.0050946553
203	0xbb0a9af2	-0.0021149484
204	0x3bc0a496	0.005878995
205	0x3d8c818d	0.06860647
206	0xbdbe0f3c	-0.092802495
207	0x3d8ee220	0.06976724
208	0xbd2dab0d	-0.042399455
209	0xbd2ffe78	-0.04296729
210	0x3adee38b	0.0017005069
211	0xbd4516fb	-0.04811762
212	0x3b14aa57	0.0022684538
213	0xbd0eb783	-0.03484298
214	0x3dba627f	0.09100818
215	0xbd3741e5	-0.044740576
216	0x3dcdbe1d	0.10046027
217	0x3b22533b	0.0024768848
218	0xbd4c49ec	-0.049875185
219	0xbcd89370	-0.026437491
220	0x3a16e004	0.0005755427
221	0x3c48f664	0.012265775
222	0x3b2423ad	0.0025045678
223	0x3a67ace9	0.00088377163
224	0xbc683894	-0.0141736455
225	0x3d992974	0.0747861
226	0x3be324de	0.006931885
227	0x3ac5ac74	0.0015081302
228	0xbd4739f7	-0.048639264
229	0x3d036a22	0.032083638
230	0xb856fe74	-5.1258554e-05
231	0xbabf7707	-0.0014607616
232	0x3d588a8e	0.05286651
233	0x3bea3c54	0.007148305
234	0xba8c01f3	-0.0010681733
235	0xbb8bba28	-0.004264135
236	0xbc38373a	-0.011243636
237	0x3b4d6e70	0.0031346343
238	0xbd1fd5c4	-0.039022222
239	0x3c901208	0.017586723
240	0x3d134451	0.035953823
241	0xbcd25e92	-0.02567986
242	0xbd73121c	-0.059343442
243	0xbb1f4fcd	-0.002430904
244	0x3ad0939b	0.001591313
245	0x3b043709	0.0020174405
246	0x3cb9b700	0.022670269
247	0xbce663c8	-0.028123751
248	0x3a544fb4	0.0008099035
249	0xb9ea21a1	-0.00044657013
250	0x3c061529	0.008183756
251	0x3d4683fe	0.04846572
252	0x3b524299	0.0032083152
253	0xbe02afc2	-0.12762359
254	0xbb722db7	-0.0036953518
255	0x3c96a6f6	0.01839016

encoder_z.fc11.bias f4 [3]
0	0x3e16d126	0.14728221
1	0x3dd99773	0.1062459
2	0x3e15695d	0.14590974

encoder_z.fc12.weight f4 [3, 128]
0	0x3da82a64	0.0821121
1	0x3c9b3b92	0.018949304
2	0x3d0d42f4	0.03448768
3	0x3df56a5d	0.11983178
4	0xbdcf9f62	-0.10137822
5	0xba488096	-0.00076485553
6	0x3a82e24a	0.0009985652
7	0x3c0b1ed7	0.0084912395
8	0x3d3027b2	0.043006606
9	0xbd0534d5	-0.032521088
10	0xbb96f5fb	-0.00460696
11	0x3b61f4df	0.003447823
12	0xbee209d3	-0.4414812
13	0x3c993f56	0.018706959
14	0xbc011ef0	-0.007880911
15	0xbc37d98f	-0.011221304
16	0x3eeb5869	0.4596589
17	0xbc9d379f	-0.019191561
18	0x3cec6f1d	0.028861577
19	0x3bafb652	0.0053623104
20	0xbd65b9a8	-0.05608526
21	0x3b774bf0	0.0037734471
22	0xbcfb5420	-0.030679762
23	0xbc0165e5	-0.007897829
24	0xbc0273c4	-0.007962171
25	0xbc447eec	-0.011993151
26	0x3c09f8a5	0.008421098
27	0x3bc6300c	0.006048208
28	0xbb713db1	-0.0036810453
29	0x3d255233	0.040361594
30	0x3b2e8ad1	0.0026633034
31	0xbd2048a2	-0.039131768
32	0xbd9eb606	-0.07749562
33	0x3d1ceca8	0.03831163
34	0x386541b2	5.4659038e-05
35	0x3e0dd0fa	0.1384925
36	0x3aafa5ed	0.001340089
37	0xbda1725b	-0.0788314
38	0x3ccd2fec	0.025047265
39	0xbc4092c2	-0.01175374
40	0xbc0c8bcc	-0.008578252
41	0xbe403066	-0.18768463
42	0xbc26e3d7	-0.010186157
43	0xbbe1c638	-0.0068900846
44	0x3c114182	0.008865716
45	0x3ca168a9	0.019703226
46	0xbce089d3	-0.02740947
47	0xbc515b72	-0.01277815
48	0xbd411954	-0.047143295
49	0xbda5524d	-0.08072338
50	0x3e225592	0.15852955
51	0xbdf03b80	-0.11730099
52	0x3c09d8f8	0.008413546
53	0xba165549	-0.00057347544
54	0xbd1fffb3	-0.039062213
55	0xbd39451f	-0.045231935
56	0x3be1bfae	0.006889305
57	0xbe0a330a	-0.13496032
58	0xbd9f3b88	-0.077750266
59	0x3a13ee97	0.00056431576
60	0xbc3e5198	-0.011616133
61	0x3c844b59	0.01614921
62	0x3d7ed98b	0.062219184
63	0x3d0f641e	0.03500759
64	0xbd412a63	-0.047159564
65	0xbddcfeda	-0.107907966
66	0x3db4e1ed	0.088321544
67	0x3bba3a0e	0.00568319
68	0x3e04195e	0.12900302
69	0xbe0455c7	-0.12923346
70	0xbb632b6d	-0.0034663335
71	0x3c93d9fd	0.01804828
72	0xbd2bf52a	-0.041981854
73	0x3cf59ea5	0.029982874
74	0xbb5b61bf	-0.003347501
75	0xbd9a6951	-0.07539619
76	0x3d2eb17a	0.042649724
77	0xbcc75f02	-0.024337295
78	0x3c34e47b	0.011040802
79	0x3cb28858	0.02179353
80	0x3c469654	0.012120802
81	0x3e1683c4	0.14698702
82	0xbe1bf280	-0.15229225
83	0x3de1f309	0.110326834
84	0xbc1c907c	-0.009555932
85	0x3c521864	0.012823198
86	0x3b83f019	0.0040264246
87	0xbdd31661	-0.10307003
88	0x3bfd8b22	0.007737533
89	0xbbb3de40	-0.0054891407
90	0x3cd6bc32	0.026212785
91	0x3c1fa7b5	0.009744574
92	0x3da32917	0.07966822
93	0xbddf5628	-0.10905105
94	0xbb94b731	-0.0045384397
95	0x3a07acf3	0.0005175613
96	0x3b724d1c	0.003697223
97	0xbdba7218	-0.09103793
98	0x3dd53416	0.10410325
99	0x3c25e9d0	0.010126546
100	0xbe3141db	-0.17310278
101	0xbc2b10dc	-0.010441031
102	0x3baa5ce8	0.0051990636
103	0x3e0e0068	0.13867342
104	0xbc5ce2f8	-0.013481848
105	0xbdb849b6	-0.08998434
106	0xbbb310e1	-0.0054646586
107	0x3c161186	0.009159451
108	0x3d889b99	0.06670303
109	0x3b9a9413	0.004717359
110	0x3d0b3a52	0.033991165
111	0x3e0f7234	0.14008409
112	0xbdd81f08	-0.10552794
113	0x3c2bdcde	0.010489671
114	0x3e1b3207	0.15155803
115	0x3c968d30	0.01837787
116	0x3b574c7a	0.003285198
117	0x3cd33a20	0.025784552
118	0x3d29cf6f	0.04145759
119	0x3da30709	0.07960326
120	0xbaa3dfbe	-0.0012502593
121	0xbb9103ff	-0.004425525
122	0xbdf6d08a	-0.120514944
123	0xbd060695	-0.03272112
124	0x3b5febe4	0.0034167701
125	0x3cb59d22	0.022169653
126	0x3ba75965	0.005107092
127	0xbc157301	-0.009121657
128	0x3d29a422	0.041416295
129	0x3da7dabf	0.081960194
130	0x3e34bf1d	0.17651029
131	0x3e9b62da	0.30348855
132	0xbdad6da5	-0.08468179
133	0xbb6339ae	-0.003467183
134	0xbcd6200b	-0.026138326
135	0xbac520d0	-0.0015039686
136	0xbcefb2ce	-0.029260065
137	0xbc68edd2	-0.014216857
138	0xbba08a56	-0.0048993034
139	0x3abc92ce	0.0014387013
140	0x3d1a8aee	0.03773015
141	0xbc8d0ddc	-0.017218523
142	0xbc4d1980	-0.012518287
143	0xbbe48fc0	-0.006975144
144	0x3e50094f	0.20316051
145	0xbde4540e	-0.11148845
146	0x3dc203a4	0.09473351
147	0xbc4a415e	-0.012344686
148	0xbdc29992	-0.095019475
149	0x3c14a03f	0.009071409
150	0xbb33e121	-0.002744742
151	0x3d98f731	0.07469023
152	0x3cf141a1	0.02945024
153	0xbd3e784c	-0.046501443
154	0x3bbe7ae4	0.0058129895
155	0xbb11269a	-0.0022148252
156	0xbbab6f86	-0.0052318005
157	0x3d7a491d	0.061104883
158	0x3bfffc23	0.0078120395
159	0x3d924a47	0.071430735
160	0xbca52980	-0.02016139
161	0x3d8e1631	0.069378264
162	0x3b9513ae	0.004549465
163	0x3dff3463	0.12461164
164	0xbd7400c6	-0.05957105
165	0xbb74c0f1	-0.0037346447
166	0x3dfb38fb	0.122667275
167	0x3c4243d7	0.011856995
168	0x3c633a50	0.013868883
169	0xbd3f5583	-0.04671241
170	0x3c5b74f3	0.013394582
171	0xbbbaed1d	-0.0057045356
172	0xbbd376e4	-0.006453382
173	0x3c106bfc	0.008814808
174	0xbcbedc26	-0.023298334
175	0xbbaa299e	-0.0051929494
176	0xbd381b80	-0.0449481
177	0xbdabbd6b	-0.08385738
178	0x3df2ace7	0.11849385
179	0x3d833e6f	0.06408393
180	0xbd1d38c4	-0.038384214
181	0x3d6f0584	0.05835487
182	0xbe324e4c	-0.1741268
183	0x3cab1fe8	0.020889238
184	0xbc1b0ba5	-0.0094632255
185	0x3d3c8844	0.04602839
186	0xbced2454	-0.028947987
187	0xbc5a44f0	-0.0133221
188	0xbc2202ba	-0.009888345
189	0x3b9e2b60	0.004826948
190	0x3e34d729	0.17660202
191	0x3d813fa8	0.063109696
192	0x3ae84b0d	0.0017722562
193	0x3d0c2237	0.034212317
194	0x3d3d2494	0.04617746
195	0x3d6c0bd7	0.05762848
196	0xbcda8b50	-0.026677758
197	0xbd7a9278	-0.06117484
198	0x3c34aab6	0.011027029
199	0x3d35e5aa	0.044408478
200	0xbd5c34d0	-0.053761303
201	0xbce5d97e	-0.02805781
202	0x3be6e833	0.0070467233
203	0xbc0ed35e	-0.008717386
204	0xbaae3944	-0.0013292213
205	0x3d7ce48a	0.06174139
206	0xbd18788a	-0.03722433
207	0xbd3290a7	-0.043594982
208	0x3cad7b7c	0.021177046
209	0x3df708d5	0.120622315
210	0xbd4d9c27	-0.050197747
211	0x3d70f6d8	0.05882916
212	0x3ac6bafe	0.0015161929
213	0x3d87f170	0.066378474
214	0xbe3fc4a1	-0.18727352
215	0x3d416e77	0.047224488
216	0x3c2ab67d	0.010419485
217	0xbc5d8f27	-0.0135229
218	0x3dd4d488	0.103920996
219	0xbbb78e16	-0.0056016548
220	0x3c6128fc	0.013742682
221	0xbd35146f	-0.04420894
222	0x3bbaf80f	0.0057058404
223	0xbbaa9670	-0.005205922
224	0x3be91268	0.00711279
225	0xbda34c8d	-0.07973585
226	0x3d90e9e0	0.07075858
227	0x3a273b52	0.0006379384
228	0xba1c643c	-0.0005965864
229	0xbd12c930	-0.0358364
230	0x375ef7f4	1.3289962e-05
231	0x3d1fa77d	0.03897809
232	0xbd9115b1	-0.070842154
233	0xbc4aa73e	-0.012368975
234	0x3d1360f9	0.035981152
235	0xbc1c4a4c	-0.009539198
236	0xbe3e5d0f	-0.18590187
237	0x3c8d41b7	0.01724325
238	0x3b13e6f4	0.0022568079
239	0xbc445bf4	-0.011984814
240	0xbdcd352a	-0.10019906
241	0xbcecb8ef	-0.028896777
242	0x3e766dcd	0.24065323
243	0x3bcd3e6d	0.0062635452
244	0x3c2663e7	0.0101556545
245	0xb86815a0	-5.533325e-05
246	0xbd0b1124	-0.033951893
247	0xbc43ce45	-0.011951034
248	0xbb999b36	-0.004687692
249	0x3bb752a2	0.0055945674
250	0xbd41f0d3	-0.04734881
251	0xbe42a841	-0.19009496
252	0x3c774e86	0.015094405
253	0x3e10958a	0.14119545
254	0x3a2c29fa	0.00065675343
255	0x3cff0bf0	0.031133622

encoder_z.fc12.bias f4 [3]
0	0xbe3f2a7b	-0.18668549
1	0xbe8296e4	-0.25505745
2	0xbe3903cd	-0.18067856

decoder.fc_layers.0.weight f4 [128, 3]
0	0xbe2acb28	-0.1667906
1	0x3e65e3a8	0.22450125
2	0xbf01c274	-0.50687337
3	0xbfc22e7a	-1.5170434
4	0xbd102511	-0.0351916
5	0x3f95f9a9	1.1716815
6	0xbd0e9b5e	-0.03481614
7	0x3f2e82fd	0.6816862
8	0xbea99005	-0.3311769
9	0x3ed3b01e	0.41345304
10	0xbf7d7d87	-0.99019665
11	0x3f3b8fcb	0.73266286
12	0x3e3108e0	0.17288542
13	0xbf371d9c	-0.71529555
14	0x3efe750d	0.49698678
15	0xbb679ac2	-0.0035340046
16	0x3a55faf7	0.0008162702
17	0x3a5a8db1	0.00083371537
18	0x3ddab8a1	0.106797464
19	0x3f0b1ed5	0.5434392
20	0xbd401af7	-0.046900716
21	0x3f933183	1.1499485
22	0xbd7b6b7e	-0.06138181
23	0xbe877ccb	-0.26462397
24	0x3eb51c92	0.3537336
25	0x3fc23d1d	1.51749
26	0x3e139b71	0.14414765
27	0xbd8b5510	-0.06803334
28	0xbed8468a	-0.42241317
29	0x3f9d452c	1.2286735
30	0xbb372035	-0.002794278
31	0x3b7464f2	0.0037291613
32	0x3b674cac	0.0035293503
33	0xbc14b372	-0.009075986
34	0x3c1c51bf	0.009540974
35	0xbbbffe2e	-0.005859158
36	0xbeae384e	-0.34027332
37	0xbfdeeed5	-1.7416636
38	0x3d89dc55	0.06731478
39	0xbf8b0a63	-1.0862545
40	0xbf6a9b34	-0.9164307
41	0x3feba48f	1.8409594
42	0x3f86b082	1.0522616
43	0xbfb4b3f2	-1.4117415
44	0x3f245c5d	0.64203435
45	0xbe785775	-0.24252112
46	0x3efd8017	0.49511787
47	0xbe15c19a	-0.14624634
48	0x3f3c43da	0.73541033
49	0xbe7abf25	-0.24486978
50	0x3d978abd	0.07399509
51	0x3f9a0334	1.2032228
52	0x3f905dd5	1.1278635
53	0xbe21538b	-0.15754525
54	0x3e1eb16e	0.15497372
55	0x3f2ae0ed	0.6674946
56	0xbe1522ba	-0.14564028
57	0x3f9bac88	1.2162027
58	0x3edf952a	0.4366849
59	0x3f6a3a8c	0.91495585
60	0x3f2e5772	0.6810218
61	0xc026c215	-2.6055958
62	0xbe3f2f00	-0.18670273
63	0xbc0949ed	-0.008379442
64	0x3c397f38	0.011321835
65	0x3c58d500	0.013234377
66	0xbf213c25	-0.629824
67	0x3fb2247c	1.3917384
68	0x3e16ebc2	0.14738372
69	0xbee3191a	-0.44355088
70	0x3da74b96	0.08168714
71	0x3ee6c29a	0.45070344
72	0xbf1fba40	-0.6239357
73	0xbe817f5a	-0.25292474
74	0xbeb1bf1b	-0.34716114
75	0xbdb63c6b	-0.088982426
76	0xbc16cc79	-0.0092040235
77	0xbea4b241	-0.32167247
78	0xbb5edd26	-0.0034006326
79	0x3c0f6180	0.008751273
80	0x3bfe00a8	0.007751543
81	0xbf47ea1d	-0.78091604
82	0xbd8ebef6	-0.06970017
83	0xbf538cbe	-0.8263663
84	0x3e6d84b2	0.2319515
85	0xbecd1825	-0.40057483
86	0xbe6c10ae	-0.23053238
87	0xb927ab09	-0.00015990077
88	0xbc3b9b03	-0.011450532
89	0xbbfe3a7b	-0.0077584363
90	0xbf3f07b5	-0.74621135
91	0xbf0aa19d	-0.5415285
92	0x3fd6193c	1.6726451
93	0x3d93a057	0.07208317
94	0xbf5bc289	-0.8584371
95	0xbf8f26bf	-1.1183699
96	0x3c521da1	0.012824447
97	0xbdd93298	-0.10605353
98	0x3e803c72	0.25046116
99	0x3f391bec	0.7230823
100	0xbf38d5c8	-0.72201204
101	0x401bed2a	2.4363503
102	0x3ed49a9c	0.41524208
103	0x3f9deae7	1.2337312
104	0x3f41e5af	0.75741094
105	0x3e78d026	0.24298152
106	0x3f2e0136	0.679706
107	0xbf35db7c	-0.7103803
108	0xbc4b1ecd	-0.01239748
109	0x3bdde6bb	0.00677189
110	0x3b16c4a8	0.00230054
111	0x3ee31ab6	0.44356316
112	0x3f5b8a66	0.85758054
113	0x3d4dcafc	0.05024241
114	0xbf397908	-0.72450304
115	0x3d84ded2	0.06487812
116	0x3e2cb4cb	0.16865842
117	0x3e805385	0.2506372
118	0x3e2b499d	0.167273
119	0xbeee9000	-0.46594238
120	0x3f380575	0.71883327
121	0x3f20f7da	0.6287819
122	0xbf344737	-0.70421165
123	0xbf16a241	-0.5884133
124	0x3f812661	1.0089837
125	0xbd911d05	-0.07085613
126	0xbf0c6fec	-0.5485828
127	0xbf758179	-0.95900685
128	0x3f714311	0.9424296
129	0x3cec49d2	0.028843794
130	0x3dd8e9fb	0.10591503
131	0xbf1224c9	-0.5708738
132	0x3d233bdc	0.03985201
133	0x3cb64ebc	0.02225434
134	0xbef9b03b	-0.48767266
135	0xbb040ebe	-0.0020150389
136	0x3c150130	0.009094521
137	0x3bed3382	0.007238806
138	0xbf1a5b0d	-0.6029518
139	0x3f360411	0.71099955
140	0xbfc8df93	-1.569323
141	0xbdfd6731	-0.12373198
142	0x3f76baec	0.9637897
143	0x3ea443a0	0.32082844
144	0xbe872ae5	-0.26399913
145	0xbfb5dd73	-1.4208206
146	0x40236dcf	2.5535772
147	0x3f01a55d	0.5064295
148	0xbe67bcd7	-0.2263063
149	0xbfa75ea6	-1.307576
150	0xbba7e6ee	-0.0051239645
151	0x3b422d3e	0.0029629017
152	0x3b8924ea	0.0041853087
153	0x3f1efb2f	0.62102026
154	0xbeecb718	-0.4623344
155	0x3f37c66d	0.7178715
156	0x3b715510	0.0036824383
157	0x3db02196	0.08600156
158	0x3cbdcd3c	0.023169152
159	0xbe76e22c	-0.24109715
160	0x3fbd5c1d	1.4793736
161	0xbff80caf	-1.9378871
162	0x3f20a580	0.6275253
163	0xbeafd3a6	-0.34341162
164	0x3f642fe7	0.89135593
165	0x3c15d7ef	0.009145721
166	0x3bdb38c9	0.006690119
167	0x3bb4ac35	0.0055136927
168	0xbdeb919d	-0.11502383
169	0xbf275314	-0.6536114
170	0xbf2b70a4	-0.6696875
171	0xbf28a562	-0.65877354
172	0xc0708ccd	-3.7585938
173	0xbf016b3e	-0.50554264
174	0xb90f8468	-0.00013686868
175	0x3b4df078	0.0031423848
176	0xbbd5d5f8	-0.006525751
177	0x3e3af879	0.18258847
178	0xbde1874e	-0.110121354
179	0xbffc2327	-1.9698228
180	0xbe35563d	-0.17708679
181	0x3ecb40d9	0.39697912
182	0x3f3b1712	0.7308208
183	0x3eb14d35	0.34629217
184	0xbf66471c	-0.89952254
185	0xbe69cdd3	-0.22832422
186	0x3e88b19c	0.26698005
187	0x3f2dfde6	0.67965543
188	0xbf131fec	-0.57470584
189	0x3b2e9b5a	0.002664289
190	0x3c38bb70	0.011275157
191	0x3beefaef	0.007293097
192	0x3c9adb7c	0.018903486
193	0xbe37b7d6	-0.17941222
194	0xbdc9fa16	-0.09862153
195	0x3e1fc09e	0.15600821
196	0xbc2a363a	-0.010388905
197	0xbf112cad	-0.56708795
198	0x3e1ba68d	0.15200253
199	0xbe84cda9	-0.25938156
200	0xbf4e58ea	-0.8060442
201	0xbdea781c	-0.1144869
202	0x3da5f404	0.08103183
203	0x3f426bec	0.75945926
204	0x3e6994bb	0.22810642
205	0xbf3ea213	-0.74466056
206	0x3ec18560	0.3779707
207	0xbc4430a5	-0.011974488
208	0x3bbfe1d1	0.005855777
209	0xb8d501ac	-0.00010156943
210	0x3bf6a05e	0.0075264415
211	0xbf3cb879	-0.7371898
212	0x3e8b41f3	0.27198753
213	0xbeb7ec8e	-0.35922664
214	0x3ef55ac4	0.4792081
215	0xc01dab08	-2.463564
216	0xbf1585d6	-0.5840734
217	0xbf69950f	-0.9124307
218	0xbc3e12e4	-0.011601184
219	0xbf89d8b3	-1.0769256
220	0x3fb9bfc4	1.4511647
221	0x3f07b980	0.53017426
222	0x3ebc1f67	0.36742708
223	0x3ef61792	0.48064858
224	0x3fd62d20	1.6732521
225	0x3e0c894d	0.13724251
226	0xbf1a3358	-0.60234594
227	0xbe5dc20b	-0.21656053
228	0xbd364065	-0.044495005
229	0x3f2a874e	0.6661271
230	0xbf00d879	-0.5033031
231	0x3fadd572	1.3580763
232	0xbead371f	-0.33831117
233	0xbfdc2524	-1.7198834
234	0xbeb2bb8b	-0.3490871
235	0x3dd92bbc	0.10604045
236	0xc01a556a	-2.4114633
237	0xbdf07846	-0.1174169
238	0x3eb516c3	0.35368928
239	0xbe4b29d9	-0.19840182
240	0x3c28f454	0.010312159
241	0x3e8333c9	0.25625446
242	0x3da0e856	0.078568146
243	0xbf15c41a	-0.5850235
244	0xbf2a8adb	-0.66618127
245	0xbf2ceae4	-0.67545915
246	0xbcdf6c19	-0.027273225
247	0xbcba59b6	-0.022747856
248	0xbd9b2a80	-0.075764656
249	0x3e885279	0.26625422
250	0xbf08d401	-0.5344849
251	0x3eb7017f	0.3574333
252	0xbeec84f9	-0.461952
253	0xbf069262	-0.5256711
254	0xbedeb22d	-0.43495312
255	0xbf1871fc	-0.59548926

decoder.fc_layers.0.bias f4 [128]
0	0x3f8b855f	1.0900077
1	0xbea74200	-0.32667542
2	0x3eda3888	0.42621255
3	0xbf51c884	-0.8194659
4	0x3f95c87b	1.1701807
5	0x3a6debf0	0.000907599
6	0xbf2e6443	-0.6812174
7	0x3f9b991f	1.2156104
8	0xbf348c77	-0.7052683
9	0xbf2d4b5a	-0.676931
10	0x3c345c61	0.011008353
11	0xbc48c7e8	-0.012254693
12	0x3f235944	0.63808084
13	0x3f5bce27	0.8586144
14	0xbfb68c75	-1.4261614
15	0xbf695283	-0.9114153
16	0xbfce6517	-1.61246
17	0xbf3fe5b4	-0.74959874
18	0xbf45967c	-0.77182746
19	0xbfb14792	-1.3849967
20	0x3ea829ed	0.32844487
21	0xbba4a301	-0.0050243144
22	0x3f9d2f8c	1.2280135
23	0xbfdcd7b8	-1.7253332
24	0xbf76bd75	-0.9638284
25	0x3f1d7769	0.6151033
26	0xb95f3857	-0.00021287925
27	0xbe463fbd	-0.19360252
28	0x3f987a88	1.1912394
29	0xbae459c6	-0.0017421774
30	0xbf8424c4	-1.032372
31	0x3faa1f2a	1.329076
32	0xbe272897	-0.16324078
33	0xbf51c2fa	-0.81938136
34	0xbea5d31f	-0.32387635
35	0xbf3b4acb	-0.73161
36	0xbc0dada3	-0.008647355
37	0xbf8cb630	-1.0993099
38	0x3fb6f7d8	1.4294386
39	0x3f891a7d	1.0711209
40	0xbf8a4dfd	-1.080505
41	0xbf43c579	-0.76473194
42	0x3f3b1870	0.73084164
43	0x3f98d3a3	1.1939586
44	0x3f794254	0.97366834
45	0xbb1c2cf4	-0.0023830505
46	0xbf20e2fe	-0.6284636
47	0xbf81dd23	-1.014561
48	0xbe95e2bc	-0.29274547
49	0x3f9b1f6f	1.2118968
50	0x3817f768	3.623162e-05
51	0x3f5dd0e1	0.8664685
52	0xbdaf8732	-0.08570708
53	0xbe92f198	-0.28699946
54	0xbfa4e773	-1.2883133
55	0x3bcb0d4e	0.0061966544
56	0x3f5decf6	0.866897
57	0xbed70429	-0.4199536
58	0xbbb4f582	-0.005522431
59	0x3f00b461	0.50275236
60	0xbf63d4b7	-0.8899645
61	0x3f8538b3	1.0407928
62	0xbf588cdc	-0.84589934
63	0x3a095a4d	0.0005239591
64	0x3e8fbe71	0.28074983
65	0x3fb9558d	1.4479233
66	0x3f7f7c22	0.99798787
67	0x3ef4dc20	0.47824192
68	0x3faf4b78	1.3694906
69	0xbc380224	-0.011230979
70	0x3eebd8bb	0.4606379
71	0x3f9ada72	1.2097914
72	0xbf96f13c	-1.1792369
73	0xbe654ff5	-0.22393782
74	0xbfe4ef7e	-1.7885587
75	0x3f392a13	0.72329825
76	0xbfa0142b	-1.2506155
77	0x3b8180c0	0.003952116
78	0x3fba7d2e	1.4569452
79	0xbeb21420	-0.3478098
80	0xbe89e20e	-0.2693028
81	0xbf21472e	-0.62999237
82	0x3e2447d2	0.16043022
83	0x3f39a0d2	0.7251102
84	0x3faaecae	1.3353479
85	0x3e85e19b	0.26148686
86	0x3f11f1b7	0.5700945
87	0x3ed25097	0.4107711
88	0x3f74021a	0.95315707
89	0xba93e1bd	-0.0011282485
90	0xbd01be94	-0.03167589
91	0x3f8edc99	1.1161071
92	0x3f252b3b	0.6451909
93	0x3f9c7e84	1.222611
94	0x3f9d5fbd	1.2294842
95	0x3eab4f46	0.33458918
96	0x3f673565	0.9031585
97	0xbf723e9d	-0.9462679
98	0xbde33caf	-0.11095559
99	0x3b1e6379	0.0024168177
100	0xbf4aa717	-0.7916121
101	0x3e83154c	0.25602186
102	0xbbde0cfd	-0.0067764507
103	0x3964b259	0.00021810214
104	0x3f94a024	1.1611371
105	0x3ee7ea47	0.45295927
106	0x3ea35c8e	0.3190655
107	0x3e16bdd3	0.1472085
108	0xbf878b0c	-1.0589309
109	0xbe16b90f	-0.14719032
110	0x3e9216f5	0.2853314
111	0xbc2dbdc8	-0.010604329
112	0xbf91b4a0	-1.1383247
113	0x3fa66ab1	1.300131
114	0x3bbbaada	0.005727154
115	0xbe27474b	-0.1633579
116	0xbf802e01	-1.0014039
117	0xbf5f651e	-0.8726367
118	0x3b2e4565	0.0026591655
119	0x3f600398	0.87505484
120	0xbb308815	-0.002693658
121	0xbe31a2bb	-0.17347233
122	0x3e32dfd5	0.17468198
123	0x3e902305	0.28151718
124	0x3f0c589b	0.548227
125	0xba2b976f	-0.00065456977
126	0xbbfa8712	-0.007645496
127	0x3f0362a9	0.5132242
