3DVAE_Ch1_200.pth (torch, 554456 bytes, 14 tensors)

encoder_z.fc_layers.0.weight f4 [128, 400]
-0.1671644 -0.091396116 -0.22647704 0.10695894 0.0523115 0.13642637 0.3277754 0.16092035
0.15003103 0.032490004 -0.2473137 -0.13177323 0.14829807 0.014806064 0.19170319 -0.0861535
0.041637406 -0.15094845 -0.18658438 0.07136514 0.04674849 0.016606875 0.0050068945 -0.23296966
-0.32845643 -0.4072558 -0.21997511 -0.10029783 -0.27774414 -0.07286835 -0.02860072 -0.11181232
-0.11344645 -0.08826454 0.11994805 0.10533708 0.05008458 -0.029311923 0.29715392 0.2868379
0.03179714 -0.0150796175 0.19457924 0.004324957 0.046997126 -0.05151214 0.022149991 0.1965926
0.1061614 -0.082563475 0.045882646 -0.07103735 0.01429916 0.25023678 -0.2754222 -0.036728837
-0.16699575 -0.1174441 0.051854912 -0.10368786 0.13003717 0.2964234 0.09604216 0.33996612
-0.020195445 0.0642801 -0.1597794 -0.18344463 -0.11459597 -0.2062934 -0.10929101 -0.22465496
-0.024637494 0.16601186 0.17240934 0.0019480195 0.27033225 0.24966738 0.06218626 0.21703844
0.06440137 -0.039583597 0.181228 0.28171235 -0.1432753 -0.010091737 0.0050762356 -0.06743015
0.16915129 -0.2236551 0.038158562 -0.24322331 0.05287326 -0.015117983 0.0776094 0.087611385
0.2720211 0.07072743 -0.15216689 -0.12473282 0.1379119 0.06677094 -0.1314003 -0.021744778
-0.13515508 -0.03253653 -0.09459263 -0.13064681 -0.17618862 0.030910539 0.0017973019 0.1621924
0.13838619 0.337478 0.0029977346 0.0017401108 0.12097253 0.00010385707 -0.21802014 -0.28272521
-0.08215063 -0.2841909 -0.07465903 0.105384596 0.086388394 0.12498517 0.03395381 0.1424746
0.099186115 -0.01362118 0.1331819 0.08947508 -0.10674316 0.03181124 -0.015591066 -0.1740049
-0.07498741 -0.12524934 0.14710094 0.07579131 0.08606226 -0.083435595 0.13079925 0.15787669
-0.12542745 -0.00030184098 0.14594911 -0.055409107 -0.0035702023 -0.040805306 -0.04384677 -0.04273057
-0.021129211 0.089581035 0.07495816 0.022222547 0.03900944 -0.034302935 0.008332351 0.05350247
0.04254393 0.020723341 -0.025736889 -0.103854194 -0.16411507 -0.11724577 0.017005928 -0.101277694
0.06605557 0.085390784 0.026526434 -0.029272256 -0.032524318 -0.054317977 -0.062851645 0.059952248
0.031735085 -0.120857365 -0.041530207 -0.15570375 -0.017330598 0.0130358925 0.021295497 -0.023335239
-0.053362194 -0.008151395 -0.11177258 -0.08599686 0.030782454 0.22653127 0.11548659 -0.0048585134
0.13094328 0.07084635 0.059893135 -0.050648782 -0.016423753 0.009978772 0.054038327 -0.12472976
-0.12600431 0.019707028 -0.035637952 0.05003283 0.0071618017 -0.0026374245 -0.07374426 -0.0065159183
-0.03753423 -0.054243993 -0.021162055 0.028325219 0.05115852 0.03203984 0.04829551 0.01073272
-0.06787221 -0.030533679 0.021516325 -0.03005789 -0.056999177 0.039580088 -0.029317603 0.07354613
-0.027362432 0.08203566 -0.03488577 -0.0035116982 -0.06415682 0.039703965 0.028771011 0.033311266
-0.07989662 0.05249745 0.06368719 -0.09011835 0.024927208 0.013352768 0.053871293 0.07356114
0.042440858 -0.00089344115 -0.13131079 -0.09536198 -0.008468261 -0.0041434905 0.12037864 0.047444604
0.022137221 -0.032465108 -0.051798947 0.050154116 0.07070068 -0.08368645 -0.059732214 -0.061403655
00000000: 252d 2bbe e32d bbbd 99e9 67be 4a0d db3d
00000010: 9544 563d 5bb3 0b3e 2dd2 a73e 4ec8 243e
00000020: bca1 193e 3d14 053d cd3f 7dbe 90ef 06be
00000030: 73db 173e 2295 723c d74d 443e 3f71 b0bd
00000040: fc8b 2a3d 3b92 1abe fa0f 3fbe e327 923d
00000050: 587b 3f3d 240b 883c e010 a43b 998f 6ebe
00000060: 712b a8be d583 d0be 2841 61be f368 cdbd
00000070: 7b34 8ebe 003c 95bd 0f4c eabc dcfd e4bd
00000080: 9d56 e8bd 0ac4 b4bd 53a7 f53d f8ba d73d
00000090: 7d25 4d3d 8f1f f0bc 8f24 983e 6bdc 923e
000000a0: b83d 023d 8010 77bc c83f 473e 5eb8 8d3b
000000b0: 0f80 403d 65fe 52bd e673 b53c 924f 493e
000000c0: 266b d93d 0a17 a9bd 71ef 3b3d 087c 91bd
000000d0: 0647 6a3c 091f 803e 2304 8dbe fa70 16bd
000000e0: ef00 2bbe 8886 f0bd d165 543d 4d5a d4bd
000000f0: 7728 053e cfc4 973e c1b1 c43d 0a10 ae3e
00000100: eb70 a5bc 49a5 833d 369d 23be e9d8 3bbe
00000110: 4bb1 eabd 943e 53be f7d3 dfbd f30b 66be
00000120: 92d4 c9bc 03ff 293e 138c 303e b054 ff3a
00000130: fd68 8a3e cea8 7f3e 05b7 7e3d 533f 5e3e
00000140: dee4 833d 6922 22bd d593 393e 9a3c 903e
00000150: c3b6 12be d057 25bc 8d56 a63b d218 8abd
00000160: ff35 2d3e d805 65be 274c 1c3d 880f 79be
00000170: a291 583d 6bb1 77bc adf1 9e3d 996d b33d
00000180: 5a46 8b3e 8bd9 903d a3d1 1bbe ec73 ffbd
00000190: c738 0d3e 34bf 883d cd8d 06be 1b22 b2bc
000001a0: 1866 0abe 0645 05bd c8b9 c1bd 47c8 05be
000001b0: ca6a 34be 1938 fd3c 7293 eb3a c415 263e
000001c0: 1cb5 0d3e ebc9 ac3e a475 443b 6e14 e43a
000001d0: 72c0 f73d d7cd d938 ac40 5fbe 5cc1 90be
000001e0: 973e a8bd 7881 91be d5e6 98bd e1d3 d73d
000001f0: 66ec b03d 3af8 ff3d 2613 0b3d dde4 113e
00000200: 1722 cb3d 5f2b 5fbc d660 083e b63e b73d
00000210: 289c dabd 814c 023d ac71 7fbc 572e 32be
00000220: 0093 99bd 5d41 00be a1a1 163e 7938 9b3d
00000230: 6941 b03d 48e0 aabd 3df0 053e 6daa 213e
00000240: 0e70 00be 6940 9eb9 af73 153e a9f4 62bd
00000250: 0efa 69bb 7723 27bd ac98 33bd 4006 2fbd
00000260: 2b17 adbc 4376 b73d aa83 993d 0f0c b63c
00000270: 5dc8 1f3d 3c81 0cbd 6a84 083c 6825 5b3d
00000280: 8b42 2e3d ffc3 a93c 2bd6 d2bc 82b1 d4bd
00000290: c80d 28be 8d1e f0bd 0450 8b3c ae6a cfbd
000002a0: 2548 873d 5de1 ae3d f74d d93c 5fcc efbc
000002b0: 3838 05bd 877c 5ebd 5db8 80bd 7d90 753d
000002c0: a6fc 013d 1184 f7bd 941b 2abd ce70 1fbe
000002d0: e6f8 8dbc 7f94 553c e573 ae3c 8b29 bfbc
000002e0: 5192 5abd 6e8d 05bc 06e9 e4bd 1f1f b0bd
000002f0: 7c2b fc3c d0f7 673e 3c84 ec3d 2a34 9fbb
00000300: ff15 063e e417 913d 8152 753d 1975 4fbd
00000310: 1b8b 86bc 017e 233c 4b57 5d3d 5172 ffbd
00000320: 4607 01be a270 a13c 1af9 11bd 3aef 4c3d
00000330: 8cad ea3b a4d8 2cbb 3b07 97bd 7c83 d5bb
00000340: 7ebd 19bd f32e 5ebd 0c5c adbc 4a0a e83c
00000350: 998b 513d 353c 033d 83d1 453d 4ad8 2f3c
00000360: 9600 8bbd c421 fabc 0143 b03c f73b f6bc
00000370: f877 69bd bb1e 223d 782b f0bc 5a9f 963d
00000380: 2e27 e0bc 5002 a83d 62e4 0ebd 8524 66bb
00000390: a764 83bd a0a0 223d 2fb1 eb3c 6571 083d
000003a0: d7a0 a3bd 9107 573d 6e6e 823d f88f b8bd
000003b0: 2534 cc3c 91c5 5a3c 25a8 5c3d 39a7 963d
000003c0: 77d6 2d3d d235 6aba 5676 06be 244d c3bd
000003d0: 76be 0abc 1ec6 87bb 1489 f63d 4655 423d
000003e0: 1e59 b53c 22fa 04bd 222b 54bd 676e 4d3d
000003f0: 85cb 903d cd63 abbd c4a9 74bd 6682 7bbd

encoder_z.fc_layers.0.bias f4 [128]
0.02249717 -0.88718426 1.80025 0.13991156 1.1095139 0.23516954 0.26059124 1.236482
-1.5440675 -0.012647579 -1.1111513 -0.16801095 -3.0317576 -0.006747035 1.5387472 -0.8308663
0.0035725385 -0.8812398 2.2718077 1.3813108 -0.020438312 -0.016622052 1.226173 1.3009768
-0.038962223 2.5419726 -0.9983042 1.0063635 -0.8031466 1.274391 2.2408953 -0.003867129
0.852604 -0.55757964 -0.3382777 -0.024787826 -1.3144429 -1.1649528 -1.2561092 1.5646853
0.04529119 1.2675536 -0.29987192 1.3709109 0.9602457 0.013325002 -1.7063355 0.0026540686
-0.0027641584 0.336551 -0.27030048 -0.1728548 -0.018932866 -1.4606102 -0.25086436 2.8065999
-0.028228775 0.006698601 -0.38797846 -0.9671211 2.061622 0.0038379598 -0.013073872 1.7200428
1.1064348 0.86646533 -0.014549173 2.0189834 1.2764728 1.8177919 0.34178847 -1.7413487
-1.1516447 0.6104607 -0.61488014 1.6591045 -0.5323515 1.1926198 1.2655734 0.004051044
0.024904285 3.0335748 -0.6971075 -0.5863424 0.31529328 0.01626214 -1.3227544 2.0208614
2.2957892 -0.019530773 0.8555529 0.11538577 0.25351968 -2.1740336 0.72735316 0.0045640804
2.5573256 2.8025568 0.0015896187 -0.57166594 0.5152375 1.7046549 0.011415701 0.46211335
0.9329756 0.0036767486 1.6338643 -0.8203721 -0.60898936 -0.019027032 0.0043962146 1.5489167
-0.00185919 -0.2542127 -0.4205103 -1.5667924 -0.9605519 -1.0013846 -0.2674272 1.1177824
0.00021968379 1.0824438 -1.4721454 0.59200495 0.968784 -0.884195 0.0023426972 -0.00871234
00000000: fc4b b83c 821e 63bf 986e e63f fa44 0f3e
00000010: 8d04 8e3f 49d0 703e 376c 853e 0b45 9e3f
00000020: 01a4 c5bf cb37 4fbc 353a 8ebf 100b 2cbe
00000030: 5108 42c0 3b16 ddbb abf5 c43f a7b3 54bf
00000040: 4021 6a3b ee98 61bf 4c65 1140 cbce b03f
00000050: 3f6e a7bc f82a 88bc 3df3 9c3f 6886 a63f
00000060: da96 1fbd aeaf 2240 dd90 7fbf 85d0 803f
00000070: 049b 4dbf 3f1f a33f d46a 0f40 a96f 7dbb
00000080: 4144 5a3f 8abd 0ebf bc32 adbe d70f cbbc
00000090: aa3f a8bf 2c1d 95bf 30c8 a0bf 9c47 c83f
000000a0: 4183 393d 323f a23f d088 99be 027a af3f
000000b0: aad2 753f 1c51 5a3c 3469 dabf e2ef 2d3b
000000c0: e226 35bb 6a50 ac3e d364 8abe d900 31be
000000d0: 1919 9bbc 46f5 babf 4b71 80be 559f 3340
000000e0: 0840 e7bc f07f db3b 1da5 c6be 4095 77bf
000000f0: 9df1 0340 4886 7b3b cb33 56bc 5d2a dc3f
00000100: a89f 8d3f acd0 5d3f a85f 6ebc 0637 0140
00000110: 7663 a33f 68ad e83f e6fe ae3e 84e4 debf
00000120: 1869 93bf 2747 1c3f c968 1dbf 895d d43f
00000130: 3048 08bf c4a7 983f 4ffe a13f 9fbe 843b
00000140: 1204 cc3c 1726 4240 a375 32bf 891a 16bf
00000150: 1f6e a13e 2e38 853c 0450 a9bf cb55 0140
00000160: 36ee 1240 00ff 9fbc 8405 5b3f 604f ec3d
00000170: 55cd 813e 5e23 0bc0 d133 3a3f 488e 953b
00000180: 39ab 2340 175d 3340 c15a d03a b358 12bf
00000190: 9be6 033f 2232 da3f ec08 3b3c 1f9a ec3e
000001a0: 7dd7 6e3f 9bf5 703b 7722 d13f e803 52bf
000001b0: bae6 1bbf 94de 9bbc 1f0e 903b e742 c63f
000001c0: 10b0 f3ba 2b28 82be 204d d7be a78c c8bf
000001d0: bbe6 75bf 5f2d 80bf 38ec 88be 7e13 8f3f
000001e0: eb5a 6639 858d 8a3f 436f bcbf a38d 173f
000001f0: 3a02 783f 9b5a 62bf f087 193b 34be 0ebc

encoder_z.fc_layers.2.weight f4 [128, 128]
0.038354963 -0.3059217 0.29419145 0.009021826 0.021563625 0.3393388 0.04067566 -0.41500756
-0.76382667 -0.004356363 0.01735205 -0.12211288 0.13008282 -0.014951933 0.1747534 0.15659478
0.010478106 -0.17106558 -0.2589625 -0.033068795 0.006965758 -0.034371123 -0.1784209 -0.039816026
0.004773731 0.027325595 -0.20179543 -0.5449325 0.22463435 0.025062047 -0.022670906 0.013033818
0.04857061 -0.03340562 0.01769758 0.007109633 -0.06502337 0.0540439 0.41291603 -0.2958642
-0.35249037 -0.017238734 -0.39917505 -0.23142529 -0.55921173 0.006189794 0.4490177 0.018247629
-0.03316423 0.33504847 0.27321288 -0.2336819 0.0032181165 -0.018147413 -0.44834003 -0.13997254
-0.0052288044 0.007815632 0.20923555 -0.0033632426 0.013095157 -0.026100595 -0.057882376 -0.24772027
-0.18524711 0.60195297 0.009388663 0.03661747 0.24308626 -0.013637202 -0.13237171 0.15984473
0.13377208 0.29342672 0.003988067 -0.0054774685 -0.335831 0.27474454 0.110809036 -0.0039827903
-0.016758421 -0.21219355 -0.4287022 -0.53492886 -0.05029742 0.31295437 0.321581 0.04492877
0.23870407 -0.0037347458 -0.3135906 0.15261325 -0.48971435 -0.065218896 -0.072061926 0.0053256406
-0.12148503 -0.17755824 0.00729604 -0.65744114 -0.2103716 0.30207363 -0.024129044 0.28471762
0.09198276 0.044543155 0.07473146 0.35193068 0.5665462 -0.0096515305 0.003958159 -0.21214962
0.0107510025 -0.07185122 0.58661914 -0.27378437 0.18725215 0.33881962 0.16519295 -0.2125351
0.020420235 -0.58441216 0.24074227 -0.047549147 0.06896549 -0.15309799 -0.0011859896 0.021478556
-0.02029766 -0.28546435 -0.037264958 0.009853833 -0.19260105 -0.0907961 -0.27835438 0.5468287
0.0073041487 -0.1023737 0.05858041 -0.20999582 -0.4590865 -0.03607459 0.00083146023 -0.1312637
-0.018632619 0.08131073 0.78100604 0.107914045 -0.014451841 -0.005018434 -0.22029226 -0.11719553
0.026161013 -0.15165901 -0.0015162685 0.11748326 -0.5341521 -0.05641719 -0.090941384 -0.012106166
-0.09419971 0.13024415 -0.044479515 0.034928676 0.29631186 -0.1340057 -0.6854111 0.46341798
0.03347447 0.023745587 -0.33358905 0.122393064 0.4791168 -0.008798097 -0.5543304 -0.03433478
0.022850888 0.13109054 0.11788351 0.073769346 -0.023426155 0.28737348 0.23611024 -0.17568737
-0.0048695747 0.04315367 -0.18236627 -0.5269528 -0.25118566 0.04228181 -0.0007413599 0.40312675
0.11005561 0.4336691 -0.047815505 0.083484136 0.14699541 -0.0981677 0.017368985 -0.09130485
0.25729874 0.103600115 0.071122825 0.25217253 0.35821852 0.12477381 -0.20077054 0.018413775
-0.020288259 -0.5175887 -0.4366619 -0.3887628 -0.1719302 -0.49745104 -0.48317507 -0.059412315
0.11071902 -0.006275437 0.01731002 -0.5815566 -0.18840353 0.008614824 -0.2897309 0.0035451062
-0.36829218 -0.3356035 -0.024803523 0.12902592 -0.03657313 0.040879644 0.015527886 0.24298488
0.22699505 0.031570096 0.4610972 -0.30992886 -0.08308516 0.0114477165 -0.04256687 0.0054426705
0.068715714 0.05174998 0.2844267 0.13112053 -0.12341928 0.12758878 -0.1479672 0.5698521
-0.040544555 0.108197324 -0.2635427 -0.10145315 -0.21940571 -0.049009766 -0.008179274 -0.05839024
00000000: 181a 1d3d c5a1 9cbe 43a0 963e 48d0 133c
00000010: 33a6 b03c d1bd ad3e 859b 263d df7b d4be
00000020: 258a 43bf d2bf 8ebb e325 8e3c 5116 fabd
00000030: 6e34 053e f4f8 74bc 8ef2 323e 625a 203e
00000040: 5dac 2b3c d12b 2fbe bc96 84be 2573 07bd
00000050: 0341 e43b bcc8 0cbd f8b3 36be 2116 23bd
00000060: f56c 9c3b edd9 df3c 76a3 4ebe b280 0bbf
00000070: 8c06 663e ec4e cd3c 56b8 b9bc cc8b 553c
00000080: faf1 463d 55d4 08bd 84fa 903c edf7 e83b
00000090: f92a 85bd 235d 5d3d bb69 d33e 837b 97be
000000a0: 9e79 b4be 3f38 8dbc ac60 ccbe c0fa 6cbe
000000b0: 8028 0fbf c1d3 ca3b a6e5 e53e 0d7c 953c
000000c0: 37d7 07bd 798b ab3e 8fe2 8b3e 4f4a 6fbe
000000d0: 09e7 523b e2a9 94bc d38c e5be f654 0fbe
000000e0: 6456 abbb 230d 003c d841 563e d969 5cbb
000000f0: 128d 563c ead0 d5bc 1216 6dbd 62aa 7dbe
00000100: 6bb1 3dbe 9719 1a3f e8d2 193c 33fc 153d
00000110: 9beb 783e 926e 5fbc 738c 07be 56ae 233e
00000120: 8cfb 083e 073c 963e 55ae 823b 567c b3bb
00000130: 0af2 abbe 51ab 8c3e d9ef e23d 1182 82bb
00000140: f548 89bc 4449 59be db7e dbbe 19f1 08bf
00000150: ab04 4ebd 8e3b a03e 44a6 a43e 3b07 383d
00000160: d76e 743e a3c2 74bb f28e a0be a646 1c3e
00000170: d7bb fabe 7c91 85bd 3495 93bd b682 ae3b
00000180: 25cd f8bd d4d1 35be 9f13 ef3b 104e 28bf
00000190: a76b 57be 65a9 9a3e 46aa c5bc 82c6 913e
000001a0: 7561 bc3d e272 363d cf0c 993d 4230 b43e
000001b0: 2c09 113f 7421 1ebc 72b3 813b c03d 59be
000001c0: f924 303c bc26 93bd ac2c 163f 772d 8cbe
000001d0: 07bf 3f3e c479 ad3e 5728 293e cda2 59be
000001e0: 5648 a73c 099c 15bf 2485 763e e5c2 42bd
000001f0: c73d 8d3d b8c5 1cbe 3573 9bba ccf3 af3c
00000200: 4747 a6bc 6228 92be 24a3 18bd f971 213c
00000210: 3639 45be 4ef3 b9bd 7784 8ebe f7fc 0b3f
00000220: a457 ef3b 4da9 d1bd 03f2 6f3d 2509 57be
00000230: 630d ebbe f3c2 13bd 5af6 593a fe69 06be
00000240: 6fa3 98bc 3d86 a63d 03f0 473f 0a02 dd3d
00000250: 6ac7 6cbc ad71 a4bb 4b94 61be 3604 f0bd
00000260: 9f4f d63c 804c 1bbe 87bd c6ba 109b f03d
00000270: 31be 08bf b615 67bd 7a3f babd f158 46bc
00000280: c7eb c0bd b95e 053e 2730 36bd 5f11 0f3d
00000290: 30b6 973e ca38 09be 1a77 2fbf 1f45 ed3e
000002a0: 871c 093d 1b86 c23c 2fcc aabe 37a9 fa3d
000002b0: cc4e f53e e525 10bc 99e8 0dbf a0a2 0cbd
000002c0: c931 bb3c 993c 063e e96c f13d 6214 973d
000002d0: 35e8 bfbc 9e22 933e e2c6 713e 64e7 33be
000002e0: f490 9fbb e7c1 303d 39be 3abe 61e6 06bf
000002f0: 689b 80be b12f 2d3d d257 42ba a166 ce3e
00000300: d664 e13d e009 de3e 31da 43bd bbf9 aa3d
00000310: f785 163e 260c c9bd 6749 8e3c 0afe babd
00000320: a9bc 833e 4c2c d43d d8a8 913d c21c 813e
00000330: 6b68 b73e 6989 ff3d cb96 4dbe 7cd8 963c
00000340: 9033 a6bc b180 04bf 2692 dfbe eb0b c7be
00000350: 780e 30be e7b1 febe b962 f7be 545a 73bd
00000360: a7c0 e23d 2ea2 cdbb becd 8d3c e5e0 14bf
00000370: dbec 40be 3125 0d3c 9c57 94be 0355 683b
00000380: cb90 bcbe 39d4 abbe c230 cbbc 5f1f 043e
00000390: b5cd 15bd 6a71 273d ad68 7e3c 07d1 783e
000003a0: 6471 683e a54f 013d ef14 ec3e ffae 9ebe
000003b0: 8d28 aabd 348f 3b3c 995a 2ebd 6e58 b23b
000003c0: d3ba 8c3d c9f7 533d 60a0 913e 7644 063e
000003d0: 3fc3 fcbd a2a6 023e b784 17be d4e1 113f
000003e0: 0c12 26bd 8f96 dd3d 12ef 86be abc6 cfbd
000003f0: e4ab 60be 77be 48bd 5d02 06bc 9b2a 6fbd

encoder_z.fc_layers.2.bias f4 [128]
-0.24817799 0.56581545 -0.018510954 -0.62840176 0.04862285 -0.09023499 0.0059351237 -0.0680766
-0.083911456 0.11594267 -0.04357561 0.02111807 0.10330037 -0.024754398 0.008635163 -0.45207444
0.13330057 0.07031532 -0.016965494 -0.12120141 0.02916882 0.64637685 -0.054503627 -0.17930126
-0.36978397 0.0345027 0.15979399 0.00978573 -0.79513776 -0.41703814 -0.075585976 -0.13276178
-0.4948584 0.11979663 -0.40124238 -0.7660999 -0.4618608 0.08875217 0.6586449 -1.0077459
-0.14704297 0.7862549 0.067466445 0.14334239 0.42765504 -0.093264185 0.020570185 0.58264637
0.02916651 0.053454004 0.16622654 -0.049033187 0.43526956 0.37376824 0.45567724 0.18802547
-0.3906245 -0.10155616 0.34569234 0.03128738 0.6212892 0.6159639 0.06993833 -0.036699228
0.0110540185 -0.1398475 -0.027892003 -0.0671747 0.62210876 0.19330338 0.11444511 -0.3134742
0.08585254 0.5341689 -0.026573442 -0.043349057 -0.11385235 -0.62466395 0.015903424 0.054158747
0.03461999 -0.1988871 -0.0144761 -0.12631118 0.5060073 -0.003121595 0.4108689 0.009868618
0.014942788 -0.49489236 -0.13900092 -0.049430482 -0.26942596 -0.26085553 0.054388244 -0.1339449
-0.28096077 -0.03296439 -0.50863904 0.037814546 -0.40616557 0.6084026 -0.067428745 0.027097395
0.026654247 0.017172992 -0.22818007 0.030969033 0.015907684 -0.32243943 0.24394405 0.70909417
0.8263954 0.45115525 -0.5198377 0.53436005 0.0004993591 -0.585769 -0.19774088 0.3737989
0.016469711 -0.76807964 0.0799352 -0.005658898 -0.02742539 -0.12923835 0.20723225 0.63101256
00000000: 5f22 7ebe 48d9 103f 49a4 97bc f0de 20bf
00000010: c128 473d 1fcd b8bd 6d7b c23b bf6b 8bbd
00000020: c5d9 abbd 5a73 ed3d 577c 32bd ceff ac3c
00000030: 258f d33d bcc9 cabc 807a 0d3c 4d76 e7be
00000040: f27f 083e 7a01 903d 38fb 8abc 7238 f8bd
00000050: 73f3 ee3c f478 253f 323f 5fbd c09a 37be
00000060: 5354 bdbe b452 0d3d 09a1 233e 5454 203c
00000070: 268e 4bbf 0686 d5be d2cc 9abd b4f2 07be
00000080: 155e fdbe f057 f53d a46f cdbe 1f1f 44bf
00000090: 0579 ecbe b3c3 b53d f49c 283f d1fd 80bf
000000a0: 6f92 16be 0048 493f d92b 8a3d 59c8 123e
000000b0: 9af5 da3e 4b01 bfbd ce82 a83c 5028 153f
000000c0: 9bee ee3c 96f2 5a3d 4a37 2a3e 06d7 48bd
000000d0: a7db de3e 8d5e bf3e 874e e93e c089 403e
000000e0: efff c7be adfc cfbd 96fe b03e 3227 003d
000000f0: cf0c 1f3f cfaf 1d3f d43b 8f3d ee51 16bd
00000100: ea1b 353c 2f34 0fbe c57d e4bc e492 89bd
00000110: 8542 1f3f 52f1 453e 3362 ea3d b17f a0be
00000120: 75d3 af3d 4bbf 083f 8cb0 d9bc c88e 31bd
00000130: 6c2b e9bd fae9 1fbf e647 823c 90d5 5d3d
00000140: b1cd 0d3d 0fa9 4bbe 2a2d 6dbc b857 01be
00000150: b289 013f ac93 4cbb 695d d23e fcaf 213c
00000160: 98d2 743c 8862 fdbe 4256 0ebe 9e77 4abd
00000170: 33f2 89be db8e 85be 35c6 5e3d da28 09be
00000180: 17da 8fbe ab05 07bd 2b36 02bf 6de3 1a3d
00000190: eff4 cfbe 46c0 1b3f 1518 8abd 5bfb dd3c
000001a0: 025a da3c 60ae 8c3c 09a8 69be c5b2 fd3c
000001b0: d550 823c c816 a5be 78cc 793e 3287 353f
000001c0: a68e 533f d2fd e63e 1514 05bf d2cb 083f
000001d0: 6ce7 023a f5f4 15bf 967c 4abe 9262 bf3e
000001e0: 7deb 863c dea0 44bf 11b5 a33d 476e b9bb
000001f0: 36ab e0bc 0f57 04be b134 543e 0a8a 213f

encoder_z.fc11.weight f4 [3, 128]
0.00066338736 -0.0038135091 0.004429058 0.0055576186 -0.019604843 0.012308222 0.008007751 -0.0061306856
-0.023276838 -0.013160208 -0.0026042685 0.0005028292 0.003385489 0.0006510865 0.008097684 0.006505653
0.021955824 -0.0002831197 -0.0057858103 -0.000719851 -0.0060793543 -0.008933786 -0.003883698 0.006632196
-0.001085705 -0.0025356775 -0.0032392556 -0.015803305 -0.00056507613 -0.016045846 0.0011502407 0.00010437552
0.007571131 -0.0012154653 0.00735367 -0.0040944265 0.01213738 -0.009701518 -0.0069269803 0.013604875
-0.0033686045 -0.013672674 -0.015527418 0.00045713037 -0.0036227335 0.005278829 -0.00049714616 -0.0043496266
-0.008165264 -0.00265691 0.006490618 0.0013265458 -0.007030764 -0.0040073534 0.0021013326 -0.007857018
0.0037649905 -0.011276886 0.0046305964 0.006516327 0.0041197324 0.0024946353 0.012366542 -0.0024209865
0.0027184417 0.010674473 0.0020908318 -0.00061158184 -0.0051814276 -0.00601044 -0.014682334 -0.0069465134
-0.0056525148 0.006109263 -0.00097275624 0.008366514 -0.011443041 0.0041594943 -0.006928055 -0.010617545
-0.00018457549 0.016651602 0.010493467 -0.0041494505 -0.0030854647 -0.0040334077 0.0040539037 0.010490732
-0.00216551 -0.00348862 -0.0010722278 -0.0018378061 0.0027032625 0.001696275 0.0052223834 0.004176468
-0.015593114 0.00957608 -0.015898813 -0.009333588 -0.0031066756 0.0045590163 -0.0045893956 -0.004297098
0.0046942565 -0.009277819 0.002181784 0.0019484345 0.0028093783 0.012671226 -0.0029836672 0.0018617401
0.0034193702 -0.005171829 0.0041222475 -0.011480196 -0.009306153 0.0008357564 -0.0059640408 -0.0030702406
-0.002879071 -0.007973538 -0.012099177 -0.0028113888 -0.008075273 -0.00048302568 0.003012701 -0.0037758034
0.0041269865 -0.026920626 0.00022233091 0.20161322 0.027499523 0.006093933 -0.0011290052 -6.907385e-05
-0.00039150027 -0.0017049565 0.002652261 0.000698817 0.0010115978 0.002144878 0.010054672 -0.009281391
0.001984813 0.1309723 -0.041385546 0.002927772 0.0016412004 -0.12895858 0.0023901092 0.026134392
-0.028788758 -0.00075280154 0.0017079923 -0.0046011563 -0.10613633 -0.060048148 -0.0024286676 0.0525402
-0.03452689 -0.00621042 0.004402732 0.046979196 0.025708387 -0.0009549447 0.1698591 0.44555718
0.15147571 -0.11764527 -0.0016122625 0.0023188095 0.06042065 0.003048358 0.00040934543 -0.009255441
-0.004013246 0.00015333446 -0.065417245 -0.0065004784 -0.035896398 -0.021269143 -0.04218373 -0.0012845177
-0.12115682 -0.0016210125 -0.06055292 0.003296894 0.16797817 0.015479739 0.0016391511 0.0018763293
0.0021620288 -0.0018770127 -0.0012151103 -9.9029545e-05 -0.15394743 0.0015876857 0.010584344 -0.056893762
0.002910754 0.12276917 -0.00566148 -0.005270569 -0.000645115 0.014305452 0.0005542841 -0.008278142
0.0011417405 -0.05045383 -0.0012760814 0.0021195516 -0.11485998 0.0042939647 -0.055405907 -0.000536263
0.00064221746 -0.013397564 -0.06870576 0.0042290734 -0.037452813 -0.0068545653 -0.0015738747 -0.0015887623
-0.024758086 0.002322896 -0.00382599 -0.0005063274 -0.0782949 0.1696892 0.0007858488 -0.0018356384
-0.0021283708 0.08806406 -0.02679743 -7.307918e-05 0.0005518416 -0.060821366 0.16443124 -0.03769018
-0.038342655 -0.05559441 0.06908637 -0.01231328 -0.0017453174 0.018878294 0.0538181 -0.09219437
0.002600877 0.17792153 -0.00046136987 -0.0003127519 0.00081736216 0.0014869801 0.0006776067 0.1268094
00000000: 2ce7 2d3a 11ec 79bb a221 913b af1c b63b
00000010: 569a a0bc 6da8 493c f132 033c ebe3 c8bb
00000020: 11af bebc ea9d 57bc 60ac 2abb 4cd0 033a
00000030: 15df 5d3b adad 2a3a 26ac 043c 5f2d d53b
00000040: b3dc b33c af6f 94b9 e596 bdbb 62b4 3cba
00000050: 5235 c7bb 045f 12bc a485 7ebb e452 d93b
00000060: 374e 8eba 9c2d 26bb b149 54bb ef75 81bc
00000070: 9e21 14ba 9472 83bc acc3 963a 2ee4 da38
00000080: 4017 f83b 3f50 9fba 0ef7 f03b 8a2a 86bb
00000090: dddb 463c 1ef3 1ebc b9fb e2bb fbe6 5e3c
000000a0: cec3 5cbb 5a03 60bc b666 7ebc 00ab ef39
000000b0: 626b 6dbb 07fa ac3b ea52 02ba 5087 8ebb
000000c0: 99c7 05bc 8e1f 2ebb 40af d43b 7edf ad3a
000000d0: 5362 e6bb 1e50 83bb 83b6 093b b9ba 00bc
000000e0: 0fbe 763b b0c2 38bc 42bc 973b ea86 d53b
000000f0: d2fe 863b 097d 233b 099d 4a3c 6aa9 1ebb
00000100: e227 323b fce3 2e3c 5606 093b 9052 20ba
00000110: f7c8 a9bb 3af3 c4bb 2c8e 70bc 949f e3bb
00000120: bb38 b9bb 3630 c83b 9100 7fba b413 093c
00000130: 987b 3bbc 5e4c 883b bd04 e3bb 36f5 2dbc
00000140: 9b8a 41b9 f168 883c caec 2b3c 1df8 87bb
00000150: 8235 4abb ad2a 84bb 9cd6 843b 52e1 2b3c
00000160: 3beb 0dbb 55a1 64bb ff89 8cba 8ae2 f0ba
00000170: 3829 313b 8b55 de3a 8720 ab3b c1da 883b
00000180: 437a 7fbc fee4 1c3c 3a3e 82bc e8eb 18bc
00000190: 5e99 4bbb cd63 953b a462 96bb acce 8cbb
000001a0: 47d2 993b fe01 18bc 43fc 0e3b 9d62 ff3a
000001b0: 8c1d 383b f99a 4f3c a189 43bb a205 f43a
000001c0: 8317 603b 7278 a9bb eb13 873b 6f17 3cbc
000001d0: d678 18bc aa16 5b3a 006e c3bb 1736 49bb
000001e0: ccae 3cbb 71a3 02bc a03b 46bc 473f 38bb
000001f0: 264e 04bc 9c3e fdb9 bc70 453b 7873 77bb
00000200: ac3b 873b a588 dcbc 8021 6939 b273 4e3e
00000210: ae46 e13c 9daf c73b 21fb 93ba bedb 90b8
00000220: 4742 cdb9 d978 dfba 8ed1 2d3b d130 373a
00000230: 9797 843a 1591 0c3b 5abc 243c fa10 18bc
00000240: a313 023b 9a1d 063e e483 29bd dddf 3f3b
00000250: 8c1d d73a b80d 04be 61a3 1c3b cb17 d63c
00000260: 67d6 ebbc a857 45ba b6de df3a 4cc5 96bb
00000270: 015e d9bd 0cf5 75bd 482a 1fbb 6534 573d
00000280: 116c 0dbd c780 cbbb cb44 903b 426d 403d
00000290: 659a d23c 4155 7aba 8bef 2d3e 1220 e43e
000002a0: 731c 1b3e 01f0 f0bd 8d52 d3ba 2bf7 173b
000002b0: a57b 773d f6c6 473b 6a9d d639 22a4 17bc
000002c0: 8c81 83bb 68c8 2039 7af9 85bd f701 d5bb
000002d0: 1a08 13bd a03c aebc d9c8 2cbd 435d a8ba
000002e0: 1121 f8bd 2778 d4ba 5706 78bd b410 583b
000002f0: 7802 2c3e bb9e 7d3c c9d8 d63a 2aef f53a
00000300: d3b0 0d3b 1806 f6ba 5644 9fba 15ae cfb8
00000310: 65a4 1dbe e419 d03a f569 2d3c 6f09 69bd
00000320: 59c2 3e3b 676e fb3d f083 b9bb bdb4 acbb
00000330: ef1c 29ba 6a61 6a3c 604d 113a 0ba1 07bc
00000340: 74a6 953a ada8 4ebd 3042 a7ba 2de8 0a3b
00000350: b63b ebbd 63b4 8c3b 4ef1 62bd 0094 0cba
00000360: 7c5a 283a 7581 5bbc 9bb5 8cbd 0a94 8a3b
00000370: 1f68 19bd 439c e0bb 794a ceba 043e d0ba
00000380: 78d1 cabc ba3b 183b 76bd 7abb 0ebb 04ba
00000390: 1459 a0bd 01c3 2d3e 6c01 4e3a ce99 f0ba
000003a0: 237c 0bbb ee5a b43d 4986 dbbc 1642 99b8
000003b0: 76a9 103a d31f 79bd aa60 283e 0561 1abd
000003c0: 300d 1dbd f7b6 63bd 287d 8d3d a4bd 49bc
000003d0: 22c3 e4ba a7a6 9a3c 5e70 5c3d 67d0 bcbd
000003e0: 7a73 2a3b 1031 363e 04e4 f1b9 d9f8 a3b9
000003f0: 3f44 563a c6e6 c23a 6aa1 313a 53da 013e

encoder_z.fc11.bias f4 [3]
0.009073502 -0.13779384 0.15019053
00000000: 07a9 143c d419 0dbe 8ccb 193e

encoder_z.fc12.weight f4 [3, 128]
-0.014254273 -0.006216387 -0.003574945 0.01756018 0.006417912 0.0041669346 0.013099208 0.02338656
-0.011662302 0.00957654 0.000999099 0.006650469 0.015629249 -0.0035203442 0.008397952 -0.011813117
0.005454692 0.0048606135 0.012477655 0.0037142741 -0.020237869 -0.007004841 -0.0014717141 0.0005000318
0.0032218767 -0.007995944 -0.011699007 0.0018683892 0.00024628968 -0.0034848254 0.015002089 -0.0044935276
0.01590066 0.0011147757 0.0038132991 -0.0060127825 5.3088806e-05 0.00086737704 0.0051375693 -0.016307425
0.00040182707 -0.005071246 -0.008908721 -0.006891321 -0.0029514118 0.0050463113 0.00063225534 0.0073168995
0.0013270951 -0.0040304027 -0.006241916 0.0052023903 0.00079408125 -0.01932758 0.01332333 -0.004248167
-0.0072832014 -0.0062712184 -0.011814532 -0.003984849 -0.0071115 0.023327732 -0.011377311 0.0032947927
-0.0007398232 -0.008482002 0.010328864 -0.0039749765 0.0014213236 -0.009240655 -0.0042135147 -0.0005619789
-0.006641181 -0.0038483194 0.012385612 -0.0049331025 0.005911485 0.0011765417 -0.008230451 -0.010432967
-0.01059299 0.0067211543 -0.0041058604 0.0011111741 0.0053466824 0.013182816 0.0111816935 -0.0146113755
-0.0024150498 0.0037831615 0.0020131625 -0.0029091137 -0.010048115 -0.013141341 -0.013284106 -0.022125147
-0.005029709 -0.012534227 -0.003264778 0.008532768 0.010822048 -0.0018829213 0.00068593916 -0.00667459
-0.011664335 0.0066440944 0.006524426 -0.011127332 -0.0017279987 -0.01206756 0.0063181957 0.008403249
0.0049658157 -0.006647172 -0.0013725372 -0.0023195404 0.005670078 0.0022559003 -0.004515432 0.017692257
0.0072703464 0.0024298984 0.006325439 -0.0072102537 0.012869123 -0.013845123 0.004611896 -0.00868771
0.014575205 -0.06544726 -0.0009377642 0.1679733 -0.057690635 -0.002421935 0.0028119956 0.007005922
-0.0026603318 0.0017287672 -0.0038452495 -0.0042531705 -0.005481379 0.004560903 0.07336855 0.1558962
-0.001153097 0.20694697 0.018796135 0.008948988 -0.001822297 -0.11643544 -4.0499508e-05 -0.043904535
-0.022448638 -0.0058712037 -0.0009766461 0.005093876 -0.17412609 0.054700546 0.004230184 -0.051184434
-0.01812221 -0.010874239 0.080491506 0.025640069 0.01251333 0.0075456463 0.016751755 -0.11035995
0.42765513 -0.0406192 -0.0028198375 -0.0010286722 -0.060650866 -0.007149226 0.0009494987 -0.007837301
0.00024496025 0.0049304 0.04121518 -0.1402194 -0.18808077 -0.030805552 0.022498079 0.0020573325
0.1476911 0.00059656857 -0.14018317 0.007362848 0.18621495 -0.00024570353 -0.008052586 0.0034546896
-0.0054953475 0.00013172315 0.0018893392 0.004616937 -0.082895845 -0.0028447567 -0.3292907 0.08982118
0.00056140794 0.03389004 0.004531326 0.0034259649 -0.0063692597 0.05674438 0.0072364723 -0.0011858259
-0.006565957 -0.01605449 0.0016862991 0.0063745254 -0.13306275 0.010683037 0.043009326 -0.0024100991
-0.006324414 -0.020859811 0.19127737 0.000230129 0.1304455 0.07302135 -0.0028328404 0.0027207956
0.030942038 -0.0006486903 0.029008085 0.0057836086 0.1488688 0.14666602 0.004684667 -0.0058905007
-0.0012877334 0.01975061 0.0007038935 -0.0039870758 -0.0013112427 -0.02110022 0.08424355 -0.1448411
-0.096940175 -0.064363815 0.050641894 -0.016187016 0.005988273 0.016193325 0.046576716 -0.0921838
-0.0031452726 0.15443775 0.0036195202 0.0012668117 0.011448883 -0.0023948636 0.0059861294 -0.048932485
00000000: c18a 69bc d5b2 cbbb a049 6abb 5eda 8f3c
00000010: 594d d23b c88a 883b 0f9e 563c 2c95 bf3c
00000020: 3d13 3fbc ece6 1c3c 33f4 823a 2dec d93b
00000030: e908 803c 93b5 66bb 9097 093c ce8b 41bc
00000040: 46bd b23b c845 9f3b 146f 4c3c 2e6b 733b
00000050: e3c9 a5bc de88 e5bb 88e6 c0ba 9114 033a
00000060: 1f26 533b 6b01 03bc 31ad 3fbc bde4 f43a
00000070: 7120 8139 ab61 64bb 52cb 753c 713e 93bb
00000080: 1a42 823c aa1d 923a 8be8 793b e006 c5bb
00000090: acab 5e38 b060 633a 0e59 a83b 2697 85bc
000000a0: 51ac d239 b22c a6bb e2f5 11bc 97d0 e1bb
000000b0: 796c 41bb 875b a53b f0bd 253a 9ac2 ef3b
000000c0: ecf1 ad3a 7811 84bb fd88 ccbb d078 aa3b
000000d0: e429 503a e054 9ebc 194a 5a3c 3534 8bbb
000000e0: eca7 eebb cb7e cdbb bd91 41bc 5693 82bb
000000f0: 9607 e9bb cd19 bf3c e767 3abc 73ed 573b
00000100: b2f0 41ba 18f8 0abc 653a 293c 8540 82bb
00000110: b54b ba3a 1e66 17bc 8611 8abb c451 13ba
00000120: 449e d9bb 1634 7cbb 06ed 4a3c dda5 a1bb
00000130: 21b5 c13b 3036 9a3a 03d9 06bc 09ef 2abc
00000140: 388e 2dbc 213d dc3b 748a 86bb d1a4 913a
00000150: 3933 af3b bdfc 573c 6c33 373c 8d64 6fbc
00000160: d045 1ebb ebee 773b 43ef 033b d4a6 3ebb
00000170: d9a0 24bc c74e 57bc 94a5 59bc cc3f b5bc
00000180: 42d0 a4bb 5c5c 4dbc e3f5 55bb 06cd 0b3c
00000190: f64e 313c 5bcc f6ba 99d0 333a 85b6 dabb
000001a0: c41b 3fbc b4b6 d93b daca d53b 6a4f 36bc
000001b0: 047e e2ba 04b7 45bc de08 cf3b c8ad 093c
000001c0: 48b8 a23b 85d0 d9bb b5e6 b3ba 6e03 18bb
000001d0: 10cc b93b bad7 133b 30f6 93bb 5aef 903c
000001e0: 163c ee3b ee3e 1f3b a145 cf3b fe43 ecbb
000001f0: 04d9 523c a8d6 62bc 631f 973b e656 0ebc
00000200: d7cc 6e3c 3709 86bd 4ad4 75ba 3101 2c3e
00000210: 044d 6cbd 54b9 1ebb 7549 383b ef91 e53b
00000220: f658 2ebb cd97 e23a 9500 7cbb 2e5e 8bbb
00000230: 249d b3bb a173 953b 4042 963d 41a3 1f3e
00000240: 8423 97ba e8e9 533e 5afa 993c c79e 123c
00000250: 24da eeba b475 eebd 04de 29b8 3ed5 33bd
00000260: 35e6 b7bc 3a63 c0bb ce02 80ba 87ea a63b
00000270: 1c4e 32be ae0d 603d 5b9d 8a3b c5a6 51bd
00000280: 0775 94bc dd29 32bc bbd8 a43d 1f0b d23c
00000290: b604 4d3c 7841 f73b fa3a 893c 6604 e2bd
000002a0: 9df5 da3e 5160 26bd 06cd 38bb 83d4 86ba
000002b0: 0b6d 78bd 0e44 eabb c7e7 783a 0668 00bc
000002c0: 026e 8039 318f a13b 40d1 283d ad95 0fbe
000002d0: 3f98 40be ed5b fcbc e44d b83c 50d4 063b
000002e0: 563c 173e 0a63 1c3a 2d8c 0fbe 0c44 f13b
000002f0: 22af 3e3e c5d1 80b9 feee 03bc 1368 623b
00000300: 5112 b4bb 2a1f 0a39 b4a3 f73a ad49 973b
00000310: 4cc5 a9bd 196f 3abb ca98 a8be 2bf4 b73d
00000320: 732b 133a 48d0 0a3d 847b 943b 2786 603b
00000330: 39b5 d0bb cc6c 683d ee1f ed3b b76d 9bba
00000340: 3d27 d7bb b584 83bc cf06 dd3a 65e1 d03b
00000350: 9a41 08be e807 2f3c 8c2a 303d c1f2 1dbb
00000360: 083d cfbb 32e2 aabc 37de 433e c84e 7139
00000370: 8193 053e 388c 953d 2da7 39bb 604f 323b
00000380: 287a fd3c de0c 2aba 5da2 ed3c 6d84 bd3b
00000390: 1071 183e 9e2f 163e d681 993b 1a05 c1bb
000003a0: 2ac9 a8ba 08cc a13c 7e85 383a 04a6 82bb
000003b0: 01de abba 5eda acbc e287 ac3d 3a51 14be
000003c0: 9288 c6bd 2dd1 83bd e06d 4f3d a29a 84bc
000003d0: 4639 c43b dda7 843c 3ac7 3e3d dcca bcbd
000003e0: eb20 4ebb ee24 1e3e 7935 6d3b 260b a63a
000003f0: 1994 3b3c 25f3 1cbb 4b27 c43b 6e6d 48bd

encoder_z.fc12.bias f4 [3]
0.49760723 -0.3261425 -0.5217746
00000000: 60c6 fe3e 26fc a6be 0593 05bf

decoder.fc_layers.0.weight f4 [128, 3]
0.013209585 0.53516173 -0.3151252 -0.009124871 -0.120274656 0.012714447 0.0025960105 1.1393588
-0.0054427846 -0.009198161 -0.22396366 0.17896383 0.00063637004 -0.1767781 0.9754662 -0.0028416058
-0.0010500706 -0.000985936 0.0033296375 0.49022815 0.021270642 0.0088241175 0.31915566 -0.09085984
-0.050689213 6.23686 1.8207484 0.004867499 0.05731798 1.1848307 -0.010389491 -0.05081354
-0.13762617 -0.0072224117 -0.32263666 -0.68601656 0.015991999 -6.88822 0.4768144 -0.011384292
-0.14038351 1.0976344 -0.0044510853 -0.5451478 0.2660044 0.015843026 0.005582465 -0.0013278949
0.019631037 -0.45651868 0.07730039 0.004394927 0.0034354108 0.004506025 0.001472803 0.33167085
-1.2448657 0.0012285078 0.31941846 0.58578265 0.022597566 -1.7229929 -0.59577537 -0.0086432835
-0.0004902816 0.0017207193 -0.0026460262 1.301582 0.30014932 0.0100020915 -0.54180247 0.27070037
-0.0019997458 -0.012945095 0.00473346 0.01426936 0.26794228 -0.5145666 -0.0018154269 -0.041876342
-0.38969257 0.022508614 -0.44787598 -0.56328183 0.029538946 0.080559805 -0.30272678 -0.016980173
0.0063313195 -0.008174301 -0.011953931 -0.02655403 0.4952627 0.008772526 -0.34833205 -1.0696964
0.005142933 -0.0019257005 0.0034890715 -0.006847113 0.04159828 0.4121778 -0.005655942 1.5464658
1.0142676 0.0064878794 0.009857306 -0.9120634 -0.0015637742 0.054080777 0.0029706897 -0.014887053
5.0444098 0.60844004 -0.011816717 0.3978021 0.17212765 -0.0010704577 0.57992023 -0.24521363
-0.010168462 0.015577471 -0.84070295 0.00686792 0.7180772 -0.17530096 0.002208312 -0.27449033
1.2579424 0.008177683 0.26921904 -0.52155566 0.020060377 0.20046002 -0.4956379 0.012689114
-0.004739485 0.005598158 -0.0030849497 0.42571762 -1.6663641 0.03140767 2.141027 1.3706923
-0.0070447265 -0.37443256 1.8983704 0.014086137 -0.2559587 -1.1617804 -0.016338592 0.2550602
0.5341954 0.014787021 0.3361001 0.5882148 -0.008298126 -0.0028089173 0.0021699315 -0.008997809
0.16125539 -1.1794188 0.00021716539 -0.099451795 0.6265531 0.021058826 0.004835368 0.006923197
0.003733319 -0.12802811 -1.3031904 -0.016873127 -1.2277102 -0.105332285 0.014434401 -0.005163819
0.010616538 -0.023963211 -0.31300125 -1.043562 -0.018285101 0.16732042 0.9233559 0.00998397
-4.6255364 -1.2745572 0.01461263 0.11635851 -1.0176541 -0.0007737187 -0.0020673263 0.00023562647
0.0032200795 0.0011423293 0.003028211 0.010875711 0.09465934 -0.6681166 -0.0029339322 -0.18726428
-0.978144 0.023929127 0.31611124 0.79665446 0.0029409286 -0.19145244 0.86037093 -0.010343511
-0.004033108 -0.0035680365 0.028513176 -6.1195426 1.8088142 0.002882544 -0.1107292 -0.84369
0.024472684 -0.96949553 -0.049365494 0.00827102 0.6089696 0.87174547 -0.005097468 0.30661985
0.988711 -0.015050589 -0.4671251 -0.56297773 0.016041035 0.78499293 -0.8532971 -0.0019496398
-0.07204385 -0.31785157 0.011757395 -0.24753776 -0.96775264 -0.013809951 -0.082699835 -0.234301
-0.010396791 0.637026 0.90279394 -0.008611051 -0.49113256 -1.0209132 -0.0034702958 0.052231744
0.000693022 0.014547608 -0.1338648 0.99177593 0.012135569 -0.027300898 -0.61320907 -0.0019552445
00000000: 046d 583c 5c00 093f 1758 a1be 7c80 15bc
00000010: 8f52 f6bd 4250 503c d421 2a3b 82d6 913f
00000020: 6359 b2bb e2b3 16bc bb56 65be 4b42 373e
00000030: 12d2 263a 5105 35be 27b8 793f 3c3a 3abb
00000040: 86a2 89ba 863a 81ba 0c36 5a3b 2fff fa3e
00000050: c53f ae3c 0893 103c 5f68 a33e b914 babd
00000060: 7e9f 4fbd 5b94 c740 490e e93f 8b7f 9f3b
00000070: 42c6 6a3d 88a8 973f af38 2abc dc21 50bd
00000080: e0ed 0cbe fba9 ecbb a230 a5be c89e 2fbf
00000090: a701 833c 4c6c dcc0 0421 f43e 2e85 3abc
000000a0: b2c0 0fbe 497f 8c3f 69da 91bb ce8e 0bbf
000000b0: bb31 883e 3cc9 813c 1ced b63b c20c aeba
000000c0: 45d1 a03c d1bc e9be ab4f 9e3d 5203 903b
000000d0: a124 613b 47a7 933b 110b c13a c3d0 a93e
000000e0: c257 9fbf e205 a13a d18a a33e daf5 153f
000000f0: 881e b93c 088b dcbf bc84 18bf 8f9c 0dbc
00000100: 3e86 00ba c289 e13a f468 2dbb 3d9a a63f
00000110: 2cad 993e d0df 233c 91b3 0abf 3d99 8a3e
00000120: 2b0e 03bb aa17 54bc 241b 9b3b 09ca 693c
00000130: bb2f 893e a3ba 03bf 9ef3 edba 8786 2bbd
00000140: c985 c7be fc63 b83c 0050 e5be 3d33 10bf
00000150: a9fb f13c 8afc a43d 01ff 9abe 011a 8bbc
00000160: f576 cf3b 81ed 05bc 6cda 43bc d687 d9bc
00000170: 1393 fd3e a4ba 0f3c 9458 b2be d0eb 88bf
00000180: 0d86 a83b c967 fcba e8a8 643b bf5d e0bb
00000190: f562 2a3d f808 d33e 7b55 b9bb 97f2 c53f
000001a0: 85d3 813f 4798 d43b 8a80 213c fd7c 69bf
000001b0: 8ef7 ccba ce83 5d3d e7af 423b d3e8 73bc
000001c0: ce6b a140 bac2 1b3f e79a 41bc b8ac cb3e
000001d0: 3b42 303e 9a4e 8cba a775 143f 4819 7bbe
000001e0: 9f99 26bc a638 7f3c 4f38 57bf 4a0c e13b
000001f0: e8d3 373f 1882 33be 54b9 103b ff89 8cbe
00000200: 4204 a13f b0fb 053c 14d7 893e ac84 05bf
00000210: a955 a43c 6445 4d3e 40c4 fdbe 00e6 4f3c
00000220: af4d 9bbb c170 b73b de2c 4abb a9f7 d93e
00000230: 6b4b d5bf 54a5 003d 9606 0940 d872 af3f
00000240: 73d7 e6bb a0b5 bfbe cdfd f23f 8ac9 663c
00000250: 050d 83be 38b5 94bf 83d8 85bc 4097 823e
00000260: 08c1 083f 4345 723c 5015 ac3e 3f95 163f
00000270: ddf4 07bc d015 38bb 6935 0e3b 8c6b 13bc
00000280: 2220 253e 32f7 96bf e4b6 6339 62ad cbbd
00000290: c965 203f 8f83 ac3c 0272 9e3b fcdb e23b
000002a0: b3aa 743b cd19 03be f1ce a6bf 8339 8abc
000002b0: 9c25 9dbf 74b8 d7bd 447e 6c3c 4135 a9bb
000002c0: fdf0 2d3c 7f4e c4bc b341 a0be 7193 85bf
000002d0: a3ca 95bc 0b56 2b3e 0d61 6c3f ce93 233c
000002e0: 6504 94c0 b124 a3bf d069 6f3c 5f4d ee3d
000002f0: 7d42 82bf 62d3 4aba fb7b 07bb 8012 7739
00000300: f807 533b 36ba 953a f374 463b 0a30 323c
00000310: c2dc c13d b109 2bbf 3747 40bb 35c2 3fbe
00000320: a567 7abf 0407 c43c 55d9 a13e 8cf1 4b3f
00000330: 98bc 403b 1c0c 44be 4541 5c3f d477 29bc
00000340: 2928 84bb b8d5 69bb 7794 e93c 4bd3 c3c0
00000350: 3987 e73f 10e9 3c3b fec5 e2bd 11fc 57bf
00000360: f07a c83c dc30 78bf 7933 4abd 2c83 073c
00000370: 6fe5 1b3f b62a 5f3f a908 a7bb 47fd 9c3e
00000380: 2a1c 7d3f bf96 76bc 052b efbe 4f1f 10bf
00000390: 7d68 833c 4cf5 483f ae71 5abf 0e8b ffba
000003a0: ba8b 93bd 71bd a2be 17a2 403c 8a7a 7dbe
000003b0: a3be 77bf 2243 62bc 885e a9bd 9aec 6fbe
000003c0: 4d57 2abc 2314 233f 811d 673f 5e15 0dbc
000003d0: ba75 fbbe 49ad 82bf e76d 63bb f4f0 553d
000003e0: ebab 353a 1759 6e3c db13 09be 07e5 7d3f
000003f0: 44d4 463c 22a6 dfbc 45fb 1cbf 8f23 00bb

decoder.fc_layers.0.bias f4 [128]
1.3182104 -0.16348916 1.3340489 -0.45843902 0.62627155 -0.0014463549 -0.30137938 0.5589759
0.33017644 -0.38042322 -0.07391603 -0.53133744 -0.45966318 0.36138487 -1.1645838 -0.009597972
-0.94303715 -0.0014576587 -0.49209294 -0.26176876 -0.74079263 -0.001009854 1.0974039 -1.2577069
0.00799135 0.97747344 -0.11354363 -0.59105706 0.37733972 -0.01095621 -0.33492193 0.77904296
0.0026671411 -0.089618854 0.33911896 -0.59969157 0.049416333 0.602618 0.63523185 1.2613106
-0.54169846 -0.12783143 0.33993298 0.9562024 0.7373931 0.001333706 -0.30546057 -0.5815658
0.020874465 0.80118406 -0.28202125 0.55306506 -0.0031980257 -0.6008738 -0.69997895 -0.0007343093
0.46327466 -1.2795777 0.005441846 -0.08846429 -0.59122723 -1.4287686 -0.6141115 0.00093504443
-0.0006177146 0.8353217 0.8345493 0.56157553 0.60537106 0.0032021215 -0.5325214 0.34128025
-1.1850415 -0.26661086 -0.91050166 0.19374251 -0.6247012 0.022835543 0.54497385 -0.14638588
-0.29694492 -0.7039267 0.050958473 0.46945783 0.6701954 0.49849302 0.15136403 0.5936672
0.2093442 0.0040640156 0.004000048 0.39143184 0.77097243 0.4945074 1.3602264 1.2945778
0.120123096 -0.40774533 -0.0021163 0.014625487 -0.036871873 0.0057950364 -0.00055864785 0.11487047
0.7972554 -0.0019781182 1.0511094 1.142653 -0.3110186 -0.8110076 1.0864794 -0.0054054535
-0.9740124 0.0015456661 -0.0043384843 0.5850711 -0.037147295 -0.6240727 0.0026388385 0.30655307
-0.0015596346 -0.00076466065 0.2254894 0.08160531 0.5858264 0.0002297902 -0.19507341 0.2094075
00000000: 1ebb a83f b469 27be 1dc2 aa3f 85b8 eabe
00000010: 5553 203f 9e93 bdba 664e 9abe 0b19 0f3f
00000020: e30c a93e d5c6 c2be 4a61 97bd bb05 08bf
00000030: f958 ebbe 7007 b93e 1511 95bf d040 1dbc
00000040: e26a 71bf e90e bfba 9bf3 fbbe 8e06 86be
00000050: 96a4 3dbf 145d 84ba bb77 8c3f 8afc a0bf
00000060: 27ee 023c b33b 7a3f 9089 e8bd 844f 17bf
00000070: ac32 c13e ad81 33bc e37a abbe 5c6f 473f
00000080: 34cb 2e3b 178a b7bd 00a1 ad3e 6385 19bf
00000090: c868 4a3d 2c45 1a3f 8e9e 223f a072 a13f
000000a0: c0ac 0abf 3ee6 02be b20b ae3e aec9 743f
000000b0: cbc5 3c3f bfcf ae3a 5465 9cbe 7fe1 14bf
000000c0: ed00 ab3c 661a 4d3f 1765 90be ac95 0d3f
000000d0: f895 51bb ded2 19bf d231 33bf aa7e 40ba
000000e0: 5632 ed3e 34c9 a3bf 8351 b23b c42c b5bd
000000f0: ab5a 17bf e4e1 b6bf 6936 1dbf c51d 753a
00000100: 20ee 21ba a5d7 553f 06a5 553f 6ac3 0f3f
00000110: 99f9 1a3f afda 513b 5353 08bf 49bc ae3e
00000120: 71af 97bf 3881 88be a316 69bf 7064 463e
00000130: 6bec 1fbf 9b11 bb3c 6883 0b3f 2ee6 15be
00000140: 2a09 98be 8a34 34bf d5b9 503d c75c f03e
00000150: ed91 2b3f 7a3a ff3e 2cff 1a3e 93fa 173f
00000160: 535e 563e 6f2b 853b d612 833b c169 c83e
00000170: 735e 453f 1330 fd3e e61b ae3f bab4 a53f
00000180: 1903 f63d ffc3 d0be 9fb1 0abb bd9f 6f3c
00000190: f606 17bd 4ae4 bd3b 3972 12ba 3541 eb3d
000001a0: ee18 4c3f 51a3 01bb c18a 863f 7442 923f
000001b0: d43d 9fbe 329e 4fbf c211 8b3f 3b20 b1bb
000001c0: e058 79bf f397 ca3a d829 8ebb 38c7 153f
000001d0: c327 18bd 3ac3 1fbf 5df0 2c3b 86f4 9c3e
000001e0: a76c ccba 8273 48ba b1e6 663e af20 a73d
000001f0: b8f8 153f d6f3 7039 53c1 47be eb6e 563e

decoder.fc_layers.2.weight f4 [128, 128]
0.08668843 -0.07206133 0.052661322 -0.26197472 -0.39512473 0.004645029 0.27958727 0.079842694
0.21182558 -0.3805526 0.23888619 0.33475894 -0.3298606 -0.51921195 -0.11899065 0.023037322
-0.07183997 0.018677238 0.5501656 -0.11738001 0.14463882 0.0014314802 -0.06896733 -0.11958261
-0.023050364 0.1555109 0.41342142 0.1750297 0.1420469 -0.006648998 -0.33807507 0.20137914
0.007692642 -0.37367058 -0.049736816 0.37522268 -0.014687902 0.2384392 -0.044447623 0.045352556
0.3469349 0.48208097 -0.54233414 0.18199423 0.25425285 0.022391167 0.69421434 0.29382196
-0.9505063 0.31173036 -0.0978084 -0.29782388 0.015430367 0.501419 -0.22365661 0.02235919
0.37232053 -0.010650424 0.031249978 0.24476539 -0.27772593 0.05989744 0.3506947 0.015117688
0.011159177 0.14263843 0.2976077 -0.3810645 -0.2222806 -0.022299314 -0.43371835 0.3599215
-0.008689424 0.0031836352 -0.2350822 -0.13765879 0.23108947 0.25121653 0.2622177 0.1880295
0.1873136 0.33550426 0.0465105 -0.4089288 0.14825843 -0.2916361 -0.22745818 0.23031248
0.54062104 0.0014104631 0.008977524 0.25145826 -0.14903219 0.07457684 0.07388354 0.03084201
-0.0936885 -0.1674864 0.0027391152 -0.066054426 -0.07557182 -0.01193125 0.077674665 0.27860713
0.017671335 -0.016217666 0.046753623 -0.30145472 -0.056617737 0.1782244 0.13628422 0.001282596
0.110821165 -0.030623682 -0.029130973 -0.109957874 -0.045342077 -0.18104447 0.030400746 -0.20864752
-0.00035971857 -0.00993297 0.5894293 -0.7300927 0.050621517 0.020348217 0.28636912 -0.27248117
-0.83891714 0.3032326 -0.11268123 0.52025324 0.102313675 0.056668878 0.11244819 -0.5571537
1.0896022 0.66696 -0.20663302 -0.15122661 -0.33425054 0.28082946 0.814437 -0.09625109
0.57215756 -0.050443653 -0.12513673 0.3666864 -0.8102753 0.032837093 0.084124036 0.68283665
-0.007851994 -0.8608628 -0.30715632 0.07616766 -0.46576363 0.040545844 0.54004437 -1.5015138
-0.029844189 0.5692149 0.78566194 -0.23960084 -0.30901554 0.7364106 -0.22085679 -0.82579756
-0.20290944 -0.028319096 0.16102941 -0.92385453 -0.93568957 -0.08427093 -0.18698981 0.46512958
0.2425499 -1.2157356 0.41305664 -0.0042611538 -0.0021816138 -0.14331591 0.91903454 -0.040276907
-0.78888106 0.05292529 -0.05072704 -0.35071257 1.0250821 -1.5189176 -0.17794535 -0.0018441727
0.036033165 -0.92077565 -1.2804304 0.23529793 -0.043058805 0.023327699 0.022594139 -0.752098
0.32655615 0.24017005 0.9083913 -0.3194087 0.08653666 -0.5497896 -1.0184215 -0.27364886
0.32419676 -0.076329485 -0.33217075 0.2131023 -0.49169302 0.0066046324 0.21785064 -0.8846989
-0.4551133 -0.070111714 -0.057798333 -0.7464053 -0.25667942 -0.47307533 -0.8355642 -0.7309468
-0.45426857 0.75755745 0.04479809 -0.053934455 0.35226512 -0.01845878 -0.3087152 -0.66640335
-0.61634433 0.020121403 -0.14504233 0.6320665 0.56498796 -0.5582786 -0.74590373 0.0084461905
-0.11526165 0.056723535 0.039602697 1.3104205 0.3373534 0.4996389 -0.06257503 -0.5858638
0.044515837 -0.049324706 -0.44880697 0.5212806 -0.7152704 -0.07367521 -0.30127874 0.33215046
00000000: b489 b13d e494 93bd 66b3 573d 8d21 86be
00000010: ca4d cabe 5435 983b 1026 8f3e 9184 a33d
00000020: cee8 583e cad7 c2be 959e 743e 8665 ab3e
00000030: 7de3 a8be 13eb 04bf 5fb1 f3bd c4b8 bc3c
00000040: d620 93bd 0201 993c a7d7 0c3f ee64 f0bd
00000050: 331c 143e 81a0 bb3a be3e 8dbd bae7 f4bd
00000060: 1ed4 bcbc 403e 1f3e f9ab d33e fc3a 333e
00000070: be74 113e d6df d9bb 2d18 adbe 5536 4e3e
00000080: 8f12 fc3b c051 bfbe d5b8 4bbd 301d c03e
00000090: 87a5 70bc 6829 743e b60e 36bd 9ac3 393d
000000a0: 74a1 b13e 51d3 f63e 69d6 0abf b25c 3a3e
000000b0: 6e2d 823e ae6d b73c 08b8 313f d56f 963e
000000c0: 6254 73bf 1f9b 9f3e c54f c8bd 5f7c 98be
000000d0: a6cf 7c3c ff5c 003f 3d06 65be 9f2a b73c
000000e0: cca0 be3e 1e7f 2ebc f4ff ff3c c7a3 7a3e
000000f0: 1832 8ebe 0557 753d 418e b33e 2eb0 773c
00000100: fbd4 363c cf0f 123e 0960 983e e31a c3be
00000110: 879d 63be 0dad b6bc 5510 debe a147 b83e
00000120: 165e 0ebc 89a4 503b 63b9 70be 6df6 0cbe
00000130: b8a2 6c3e 749f 803e 6641 863e ce8a 403e
00000140: 23cf 3f3e 37c7 ab3e cb81 3e3d 1e5f d1be
00000150: 0fd1 173e 5451 95be ccea 68be 09d7 6b3e
00000160: 2466 0a3f 4adf b83a 7716 133c 23bf 803e
00000170: e59b 18be bebb 983d 4150 973d 62a8 fc3c
00000180: c2df bfbd 8e81 2bbe ba82 333b 8b47 87bd
00000190: 66c5 9abd 4a7b 43bc e513 9f3d 98a5 8e3e
000001a0: 7ac3 903c e9da 84bc ba80 3f3d 4658 9abe
000001b0: 00e8 67bd 7580 363e 178e 0b3e c81c a83a
000001c0: 35f6 e23d 84de fabc 14a4 eebc 9831 e1bd
000001d0: 9db8 39bd b963 39be fc0a f93c b2a7 55be
000001e0: 9c98 bcb9 e5bd 22bc d7e4 163f 5be7 3abf
000001f0: 8258 4f3d 4eb1 a63c f99e 923e a782 8bbe
00000200: 46c3 56bf 4e41 9b3e 6bc5 e6bd 512f 053f
00000210: d589 d13d a01d 683d 3d4b e63d a0a1 0ebf
00000220: 1678 8b3f e4bd 2a3f 9b97 53be 26db 1abe
00000230: e322 abbe e1c8 8f3e f17e 503f 4b1f c5bd
00000240: eb78 123f 019e 4ebd d823 00be 52be bb3e
00000250: 346e 4fbf 3080 063d 3949 ac3d 62ce 2e3f
00000260: a6a5 00bc 8161 5cbf 9843 9dbe cafd 9b3d
00000270: 9278 eebe 6613 263d 5940 0a3f 9b31 c0bf
00000280: cd7b f4bc 11b8 113f 2421 493f ec59 75be
00000290: 4937 9ebe 6885 3c3f 4828 62be 7867 53bf
000002a0: 7ec7 4fbe 73fd e7bc e5e4 243e bb81 6cbf
000002b0: 5a89 6fbf 3d96 acbd 427a 3fbe 7725 ee3e
000002c0: 005f 783e 399d 9bbf 297c d33e 26a1 8bbb
000002d0: 68f9 0ebb 68c1 12be d945 6b3f 66f9 24bd
000002e0: 1cf4 49bf 30c8 583d 28c7 4fbd 9990 b3be
000002f0: e435 833f e46b c2bf 4e37 36be 2bb8 f1ba
00000300: 8397 133d f4b7 6bbf 25e5 a3bf f1f1 703e
00000310: 6e5e 30bd bb19 bf3c 5817 b93c 7f89 40bf
00000320: 5e32 a73e 23ef 753e 558c 683f 8a89 a3be
00000330: 223a b13d 03bf 0cbf a35b 82bf b41b 8cbe
00000340: 1efd a53e a252 9cbd 4912 aabe 7d37 5a3e
00000350: 30bf fbbe ac6b d83b 3d14 5f3e a17b 62bf
00000360: 9c04 e9be bb96 8fbd f2bd 6cbd 6b14 3fbf
00000370: 7c6b 83be ee36 f2be 89e7 55bf 541f 3bbf
00000380: e495 e8be 49ef 413f 347e 373d 60ea 5cbd
00000390: 185c b43e de36 97bc eb0f 9ebe 6999 2abf
000003a0: bec8 1dbf a4d5 a43c fa85 14be 1ccf 213f
000003b0: 0da3 103f 59eb 0ebf 8cf3 3ebf e461 0a3c
000003c0: 4d0e ecbd f056 683d 7036 223d dcbb a73f
000003d0: 96b9 ac3e abd0 ff3e 5627 80bd 2cfb 15bf
000003e0: 3d56 363d b408 4abd 07ca e5be a572 053f
000003f0: f61b 37bf 07e3 96bd 3541 9abe a00f aa3e
