4DVAE_Ch0_200.pth (torch, 555992 bytes, 14 tensors)

encoder_z.fc_layers.0.weight f4 [128, 400]
00000000: baea 81be 58f1 babe d0a2 cdbe 1717 c7be
00000010: 35f6 c3be 97f2 bdbe 40e1 a1be 3ffa 47be
00000020: 6801 a6be 9025 6cbe bfcc 8abe 96cc b5be
00000030: 3975 6cbe 7471 a0be 3d7a d6be 49f0 bfbe
00000040: af9f 0cbf aa25 ccbe 7764 18bf 083a 1bbf
00000050: c861 a4be 4285 b0be 8464 b2be 85c9 f4be
00000060: 02f0 01bf 2b38 b8be eeb6 97be 5c6c cbbe
00000070: 1c94 9dbe 9bab 60be b21b 76be 8425 59be
00000080: ca7e bebe 70e6 8cbe 8e0e b8be 986f aabe
00000090: 56d3 ecbe dc82 eebe da12 c7be e76e 98be
000000a0: 1ec9 b5be efa8 e9be 2126 7dbe bac8 50be
000000b0: 15df 22be a03e acbd 6842 81be afb6 98be
000000c0: c7a4 b3be dddb 29be 2598 62be 0795 293c
000000d0: b0f2 98bd 2401 95be 69c9 f4be 59bb 80be
000000e0: 0e5b 19be cc06 2abd aac8 4fbd 342a ee3b
000000f0: 0bcb 3bbb 060f 3bbe 6e98 bfbe 2383 69be
00000100: 313f a2bd e50f 68be 99e0 44be 4137 fdbd
00000110: 7f96 23be b19a 58be fdd9 b3be 8d38 b9be
00000120: 5c1c 9cbe 9e3a b6be ddd0 d9be 2a1d bebe
00000130: 026d 5dbe 18a8 9cbe 6817 94be 7fdd aabe
00000140: 1e0a 9fbe 1d91 a1be ce5e 86be 3d43 d2be
00000150: 6759 a9be 514c 443d 5e9d 833d 1e50 313c
00000160: 9d4e 36be b31e 45be 2342 24be b408 5abe
00000170: fe42 c3bd 8ba0 1c3d b15d 4dbe d7ef aabe
00000180: 3fb6 93be 57f4 3abe 2019 12be 2740 12be
00000190: b9d6 36bd ca84 2bbe 1da2 08bd 3aec f43d
000001a0: af0f acbd 9dae b6be 0d0d cfbe 8307 07bf
000001b0: d849 b6be c99e b3be 8c7f 90be dc7a a5be
000001c0: d291 cbbe 61d2 8cbe 0f9a bebe 7eaf 1dbf
000001d0: 4473 02bf 7a26 19bf af91 18bf a262 bebe
000001e0: 4d7d 5dbe 7f60 a1be 3b72 f1be 3715 f4be
000001f0: 0a01 b3be d6bb f8bd 62a1 15be 48df a8be
00000200: 8747 69be f961 b6be 2bf1 a7be c995 f2be
00000210: 6425 4ebe df85 34be a2ac 13be ff4e 4abe
00000220: 7d2e f3be 0262 abbe a19a 82be 9e3d 4cbe
00000230: a157 a6bd 4a84 80bd c47c 3abd a41c 55bc
00000240: f8f6 1fbd 6cec 92bc 67d5 4d3d 62c4 c5bd
00000250: 4cbf fabd 7b7c 6f3c 3114 063e e5dc 4c3d
00000260: 54f2 053d 8201 2c3d 8ee7 16bc 1f1b afbe
00000270: ae36 4bbe f242 07be ef4f ecbd b4a7 c6bd
00000280: 45e9 f3bb c021 f73c 5ccf 1fbe 0943 96be
00000290: e276 d2be 4f92 cabe 95b4 e7be bb3c a1be
000002a0: 0f5a 94be 29f5 5abe b49f 63be 7b13 9fbd
000002b0: ae95 773d 3265 0f3d 47e2 42be 5282 0b3d
000002c0: 0dd9 d93c ac43 d33d baf7 ba3d 26dd b0bd
000002d0: adec 03bd 68af 583c 4603 283e 08a9 303e
000002e0: e600 803e 40e6 6c3e ab70 8e3e 58fc 9a3e
000002f0: 3a1b 963e 4eca cc3e 2a2a b73e 4fd1 a53e
00000300: 08f0 823e 2751 3e3e 97b1 453e b985 223e
00000310: 884a 4e3e e662 a23e 2e46 6f3e dce7 853e
00000320: c568 823e d592 ae3e c51a d83e 494a ad3e
00000330: d2cb bc3e 6639 f53e a91f f43e ddaa 153f
00000340: 1a7f de3e cd36 a83e 8ce7 9f3e 29fb 793e
00000350: f37c 8e3e ca43 953e 5ab3 893e 93bc 9f3e
00000360: a6b8 903e 3f57 8c3e 78f4 883e 06df 093e
00000370: 3a6f b43d f7fd 333d a699 a13c 887f 53bd
00000380: 46d3 33be 7c33 00be 42a4 68be b44e 99be
00000390: 862b b4be 257a b3be fe31 d6be 8500 c1be
000003a0: 25cb bcbe d425 b9be 22b6 b8be e1f1 edbe
000003b0: 06d1 c7be 108e e7be a214 e7be 0d83 9fbe
000003c0: 2aad 63be 384a 13be e87f 15be bc98 95bd
000003d0: 87e8 10bc 6af8 1ebd da04 ec3c 722d 87bc
000003e0: 87ea 263d fa5a 153e 7bec 303e 6e6a 8d3e
000003f0: a4e8 a13e 8b8f 5d3e 2731 303e 8b49 8e3e
-0.25374395 -0.36512256 -0.4016328 -0.38884804 -0.3827378 -0.37099144 -0.31617165 -0.19529055
-0.32422948 -0.23061204 -0.27109334 -0.3550765 -0.23091592 -0.31336558 -0.41890135 -0.3748801
-0.5493116 -0.39872485 -0.595283 -0.60635424 -0.3210585 -0.34476668 -0.34842312 -0.47809997
-0.5075685 -0.35980353 -0.29631752 -0.3973111 -0.3077706 -0.21940462 -0.24034002 -0.21205717
-0.37206107 -0.2751956 -0.35948604 -0.33288264 -0.46254987 -0.46584213 -0.3888157 -0.29772112
-0.35505003 -0.456367 -0.24721576 -0.20389071 -0.15905412 -0.08410382 -0.25245976 -0.29826877
-0.35086653 -0.16587777 -0.22128351 0.010350472 -0.07468164 -0.29102433 -0.47809914 -0.25142935
-0.14976141 -0.04151039 -0.050728478 0.0072682146 -0.0028654959 -0.1826745 -0.37420982 -0.22803931
-0.07922209 -0.22662313 -0.19226302 -0.123640545 -0.15975378 -0.2115276 -0.3512725 -0.36175957
-0.30490386 -0.35591596 -0.42542163 -0.37131625 -0.21623614 -0.30596995 -0.28924108 -0.33372113
-0.31062406 -0.31556025 -0.26244205 -0.41066924 -0.3307602 0.047924343 0.064265 0.010822324
-0.17803426 -0.19249992 -0.16040854 -0.21292382 -0.09534262 0.038239043 -0.20055272 -0.33386108
-0.2884998 -0.18257271 -0.14267397 -0.14282285 -0.04463837 -0.16749874 -0.03335773 0.11959119
-0.08401429 -0.35680094 -0.40439644 -0.52745837 -0.35603213 -0.3508208 -0.2822231 -0.32320297
-0.3975969 -0.27504256 -0.37226912 -0.61595905 -0.5095713 -0.59824336 -0.59597296 -0.37184626
-0.2162983 -0.31518933 -0.47157463 -0.47672436 -0.3496173 -0.12145202 -0.14612344 -0.3298285
-0.22781192 -0.35621622 -0.32801184 -0.47379902 -0.20131451 -0.17629193 -0.14421323 -0.19756697
-0.47496405 -0.33473212 -0.25508597 -0.1994538 -0.08122183 -0.06275232 -0.045529142 -0.013007317
-0.039053887 -0.017935 0.050252344 -0.09656598 -0.12243518 0.014617081 0.1309364 0.05001535
0.032701805 0.041993625 -0.00921048 -0.3420038 -0.19845077 -0.13209131 -0.115386836 -0.096999556
-0.0074435794 0.03016746 -0.15606445 -0.2934802 -0.41106325 -0.3956475 -0.4525496 -0.31491646
-0.2897496 -0.21382584 -0.2222889 -0.077673875 0.06044548 0.035008617 -0.1903163 0.03405983
0.026592756 0.10315642 0.09129281 -0.08635931 -0.032208133 0.013225414 0.16407499 0.1725198
0.25000685 0.23134708 0.27820334 0.30270648 0.29317647 0.39998096 0.35774356 0.32386252
0.25573754 0.18585645 0.19306026 0.15871324 0.20145619 0.3171608 0.23366615 0.26153457
0.25470558 0.340964 0.42207924 0.33845738 0.36874253 0.47895354 0.47680405 0.5846384
0.43456346 0.3285431 0.31231344 0.24412216 0.27829704 0.2915328 0.26894647 0.31198558
0.28265876 0.27410313 0.26749015 0.13463983 0.08810277 0.04394337 0.019726586 -0.051635295
-0.17561063 -0.1251964 -0.2271891 -0.29942858 -0.35189456 -0.35054126 -0.41835016 -0.3769571
-0.36873737 -0.36161673 -0.36076456 -0.464736 -0.3902666 -0.45225573 -0.4513293 -0.3115467
-0.22234026 -0.14383781 -0.14599574 -0.073045224 -0.008844501 -0.038811125 0.028810907 -0.016501162
0.040751006 0.14585486 0.1727771 0.27620262 0.31622803 0.21636789 0.1720625 0.27790484

encoder_z.fc_layers.0.bias f4 [128]
00000000: e9c0 0a3f 2a48 9c3f e567 1c3f 5426 4dc0
00000010: 7e1a ae3f 6bf2 523f 4ce1 6fc0 903b d1be
00000020: 4dae 6140 417a 973e f047 0d3f 7fd8 c63f
00000030: d7c8 2fbf 1e73 e6bd 3f5f 803f ac00 883f
00000040: 27da 95bf c79c 60bf a7be 6e40 e985 d43f
00000050: aca2 0ac0 9c5c 61bf a5b2 3fbf d4c2 b43f
00000060: b583 f0be 8168 abbf ab30 0e3e 79a9 8a40
00000070: be02 7ac0 c17d 8f3f 8ca2 0940 45b6 3440
00000080: 85b2 3fbf e37f a3be 446d 30c0 9a3b 87bf
00000090: 17da a53e d509 57c0 2824 8140 7f75 673f
000000a0: 3747 db3f ebcb 80be 58ce 4d40 2004 bf3f
000000b0: 7932 343f 2495 9bbf f4f1 4c3f 2ed7 24bf
000000c0: b4ac 0f3f 7161 c43e 42e2 e53f 8548 76bf
000000d0: 75e2 7fc0 4be7 37c0 ba25 c5bf ee5d d23f
000000e0: 30b3 4a40 e977 53c0 eb72 0940 02a0 00c0
000000f0: 8d93 ee3f 85a5 0f40 398b 323f e1e0 0fbe
00000100: 49c4 a13f b678 ecbf 11e7 993f fc07 3d40
00000110: 038d 433f dd32 ad3e 218f 94bf 4392 1840
00000120: 046a b23e fad6 3ec0 4e58 83c0 1a8d 1e3e
00000130: 9d9b 83bf 29a8 383f 72ea 11c0 4626 68bf
00000140: 0be8 e53f 958f 8d3f cd80 923f 999a 75bf
00000150: afa2 4140 6045 febf 78d8 b1bf 0b9d 2040
00000160: 2e1b 0b40 794a 70bf a1fd 5cbf 4c74 dd3f
00000170: 3523 bc3f cca7 95c0 be64 6abf 6c4b c4be
00000180: f7eb 4340 6bd9 463f fd7c 9c3f b0c4 1d3f
00000190: d7e5 4bbf b911 833e 4416 943e aafb df3f
000001a0: 5956 a6bf 820e d63e 9cbc 5440 fb7b 693f
000001b0: 1e89 103f d22d 60c0 f0d6 8040 19ba 52bd
000001c0: 753f e7be 668f 3740 092b 01c0 f73e 7240
000001d0: 814e 15bf a740 07bc adf1 023e d06a 03be
000001e0: 9fcc f8bf 77ce 48bf 920a 03bf fe2b 1abf
000001f0: 5cd7 f2be 3e1b 77bf 5c8d 2040 e7ba e5bf
0.5420061 1.2209523 0.6109603 -3.2054644 1.3601835 0.8240115 -3.748126 -0.40865755
3.5262635 0.2958546 0.5518789 1.5534819 -0.6866583 -0.112524256 1.0029067 1.0625205
-1.17072 -0.87739223 3.7303865 1.6603366 -2.1661787 -0.88031936 -0.74881965 1.4121957
-0.46975484 -1.3391267 0.13885753 4.3331876 -3.9064174 1.1210252 2.150546 2.8236248
-0.74881774 -0.31933507 -2.756669 -1.0565064 0.32392952 -3.359975 4.0356636 0.9041366
1.7131108 -0.25155577 3.2157192 1.4923134 0.70389515 -1.2154889 0.8005669 -0.6439084
0.561229 0.38355592 1.7959673 -0.96204406 -3.9981968 -2.873492 -1.5402138 1.6434915
3.1671867 -3.3041937 2.147639 -2.009766 1.8638779 2.2444775 0.69743687 -0.14050628
1.2638026 -1.8474338 1.2023641 2.9536123 0.7638704 0.33827868 -1.160618 2.383927
0.34846509 -2.9818711 -4.1045294 0.15483513 -1.0281864 0.7213159 -2.2799344 -0.906834
1.7961439 1.1059443 1.1445557 -0.9593902 3.0255544 -1.9864922 -1.3894186 2.5095851
2.173534 -0.93863636 -0.86324507 1.7301116 1.4698244 -4.676733 -0.9155997 -0.38338792
3.0612772 0.77675503 1.2225643 0.61628246 -0.7964758 0.2559946 0.28923237 1.7498677
-1.2995101 0.41807944 3.3240118 0.91204804 0.56459224 -3.5027966 4.0262375 -0.051447008
-0.451656 2.8681273 -2.0182517 3.785093 -0.5832291 -0.00825516 0.12787504 -0.12833714
-1.9437445 -0.7844004 -0.51188004 -0.60223377 -0.4742993 -0.96525943 2.508628 -1.7947663

encoder_z.fc_layers.2.weight f4 [128, 128]
00000000: 1ff0 093e 7447 1f3d e2b7 00bd ae31 05bd
00000010: 762b 133f b99d 7f3e 0e18 103e 2831 b2be
00000020: 9d21 c6bd 70a7 6e3f d4c8 9cbe be46 ad3e
00000030: 26d1 f4bd 9bf5 e93c 1800 3b3e 0845 03bf
00000040: 5886 3cbe 9011 3f3e 3e35 ab3e 7bad 92be
00000050: ba6f fdbd af61 01be fd77 9ebe 4225 343e
00000060: 53c0 e83c 1ef0 8d3e c5d6 1abe 5309 df3d
00000070: 2efd 133e 9d61 833e 3c2d bb3e 44de 9b3d
00000080: 220d 333e 70ae 4abf bd69 133f 1386 e13c
00000090: d3a3 bfbe bb2d 053e 0555 c53e aea1 46be
000000a0: 2fdb a0be 0db8 8dbe e437 2abd 48ef 52be
000000b0: 7b95 3f3e 5d92 663d e052 dd3e c1d9 083e
000000c0: fa7d 283e a006 613f 407c 8a3e 0e0c 743d
000000d0: 85b7 55bc 89d5 573e ac91 8bbe 00cc 41bc
000000e0: 5bc4 b1bd a688 30be f9f6 3b3e 1d24 513e
000000f0: d2bb c63d 937b 2e3e 108c ccbd 7364 85be
00000100: 0781 99be 536d bbbe f016 053e 919b 853b
00000110: 484b c7bd bf67 bdbe e485 83be a0ea a03d
00000120: b96e a7be 6b5c 613e 8e1f a4bd 54be 8bbe
00000130: 92be 38be 18d2 363f a421 15be bb68 db3e
00000140: 8a6c d8be 82ff 8e3e 1cb1 35be 98b3 8c3d
00000150: 5d15 3fbe 7384 893d 1e21 df3d 02d7 533d
00000160: 71c1 c93e 09c2 e83e d40c ad3e 64ae 7a3c
00000170: cb8e 783e a27a 803b 5605 9f3d da4e 2cbf
00000180: 3c9d 233e 71c6 1e3e ff36 40bd 7937 87be
00000190: 46e9 f13e c279 9fbd ba11 3abe 4e6c d8bd
000001a0: 4573 f6be 993b b63e 1b1d ba3e 41b2 c93e
000001b0: 0621 be3e ab74 ba3d fcf7 0b3e f000 d6bd
000001c0: d140 71bf d0ea c93d 2ed1 da3d 0bfc 093b
000001d0: 7dcb 87be 3679 cdbe 9ffc 9f3e 8eb5 26bf
000001e0: 926d a2be e547 4bbf 1615 37bf ca40 64be
000001f0: 8273 0dbe edd0 b8be e400 e4bd f56c a03e
00000200: 975a 91be 5a4e 9dbd fa7b 2e3e 4a47 eb3d
00000210: 9ca6 d6be c788 93bb dfa5 68bd a38b 683d
00000220: 60c8 003e 09db 9fbe 1f9a 1c3e b359 b1be
00000230: d994 0fbf c1df 88be b020 ccbc 5d74 313e
00000240: aacc 90bd 3aee 803d 29d6 863e 9e6e 023e
00000250: 3b36 943d 72e6 823d 6ea7 f2bd efe9 81be
00000260: 2273 1e3b c977 34be 094c 9d3e 7c47 d7be
00000270: ef36 893e b65c 583c b7fe 513c 9d9f c9be
00000280: b1fe 89be 2d8b ec3e 5fdd 19bc 013b 44be
00000290: 181c 893e 4bab dcbd 8c6e 473d 697b 2bbe
000002a0: aa36 b63d 27dc 06bd a8d4 083f 2c45 5b3d
000002b0: 1379 ba3e aae1 283e fdd1 9fbd 2f4b 01be
000002c0: 87c6 82be 13a8 f8be ae55 aabd 1506 123e
000002d0: 324d 893e 31fa 72be 85ec 6abe 8a7a 0dbe
000002e0: 44dc 65bc 46ee ce3d e886 4dbe 01b6 bfbc
000002f0: 1f04 75be 30b6 21bd 2dc5 c43d e708 053e
00000300: 334e 943e 9614 3f3e fbf2 f93d cb00 00bf
00000310: ec60 b2bd 108e ee3d 48f7 7cbb fef2 56bd
00000320: 25fe 813e 15fb cb3d 4ab0 d23e cfaf 4a3c
00000330: 0f81 89be 0e01 dcbe 3292 9cbe 29c1 0ebd
00000340: 54bc 89be 4cfe 5cbe 50fe d43d ad26 1ebe
00000350: 39ea 2abd 07c5 aebe c547 a83d 63b9 0dbe
00000360: 9bd9 803d 22d0 1fbf 69c2 78be 40d7 07bf
00000370: 9bb9 3abe efb6 a63e f9ae ccbd 04c6 8c3e
00000380: 4b3a 3ebe 1397 00be aac4 6b3d e67f 87bd
00000390: e68e 8c3e 559a c53e 9dcf 41be 07de 40be
000003a0: 623a 453d 297e 733d a9c9 553e 7731 8dbe
000003b0: edba 2fbd 6777 02be 9e93 1abd fdeb d63e
000003c0: 27f8 ab3e 7073 d8bd 309a ce3d b678 0b3e
000003d0: 63b5 cbbe 5ade 9f3d 6a5b 5abd d719 a43e
000003e0: 883a cb3e 816d a53e 43a2 dd3e f107 ad3e
000003f0: 383b 3cbc 3d74 d9be de2b a7be 01e7 533c
0.13470505 0.038886502 -0.031425364 -0.03251808 0.5748819 0.2496251 0.14071676 -0.34803128
-0.0967438 0.9322424 -0.3062197 0.33843035 -0.119539544 0.028559497 0.18261755 -0.5127721
-0.18410623 0.18659043 0.33439058 -0.2864798 -0.12374826 -0.1263492 -0.3095092 0.17592338
0.02841202 0.27722257 -0.1512099 0.1089045 0.14452049 0.2566041 0.3655795 0.07610753
0.17485479 -0.7917242 0.5758322 0.027529752 -0.37429675 0.13005726 0.38541427 -0.19397613
-0.31417224 -0.27679482 -0.041557208 -0.20599091 0.18709366 0.056291927 0.4322729 0.13364317
0.16454306 0.87900734 0.2704792 0.05958181 -0.013044243 0.21077551 -0.27259576 -0.011828423
-0.0868003 -0.17239627 0.18355931 0.20423932 0.09703793 0.17039327 -0.09987652 -0.260532
-0.29981253 -0.36606845 0.12997031 0.004077383 -0.09731156 -0.36993214 -0.25688088 0.07857251
-0.32701662 0.22007911 -0.08013831 -0.27293646 -0.18041447 0.7141433 -0.14563614 0.4285334
-0.4227031 0.27929312 -0.17743343 0.06870192 -0.18660493 0.06714716 0.108949885 0.05171872
0.39405397 0.45460537 0.3379885 0.015300367 0.24273221 0.003920869 0.077646896 -0.6730782
0.15977949 0.15505387 -0.04692745 -0.2640951 0.47248286 -0.07786895 -0.18170825 -0.105675325
-0.4813482 0.35592344 0.3635033 0.3939381 0.3713457 0.09104284 0.13668817 -0.104493976
-0.94239527 0.0985924 0.10684429 0.002105477 -0.26522437 -0.4013154 0.31247422 -0.6512078
-0.3172422 -0.7940658 -0.7151655 -0.2229034 -0.13813594 -0.36096898 -0.111329824 0.31333128
-0.28389427 -0.0768096 0.17039481 0.11488207 -0.41923988 -0.004502389 -0.056798812 0.056773793
0.12576437 -0.31221798 0.15293168 -0.34638748 -0.560865 -0.2673321 -0.02491793 0.17329545
-0.070702866 0.06295438 0.26335266 0.1273751 0.07236906 0.0639161 -0.11848341 -0.2537379
0.0024177511 -0.1762382 0.30722073 -0.42046726 0.26799724 0.013205698 0.012817076 -0.39379588
-0.26952127 0.46199933 -0.009391158 -0.19163133 0.26779246 -0.10774859 0.04868941 -0.16746296
0.08897145 -0.032924797 0.5344949 0.053532764 0.36420497 0.16492334 -0.07803724 -0.12626337
-0.2554209 -0.4856573 -0.08317123 0.14260133 0.26816708 -0.23728253 -0.22941788 -0.13816276
-0.014029566 0.10104041 -0.20070994 -0.023402216 -0.23927353 -0.03948039 0.09607921 0.12991677
0.2896591 0.18660197 0.12204548 -0.5000121 -0.08709893 0.1164819 -0.003859954 -0.05247783
0.2538921 0.099599995 0.41150123 0.012371018 -0.26856276 -0.42969555 -0.30580288 -0.03485218
-0.26901495 -0.21581382 0.10400069 -0.15444441 -0.04172728 -0.34134695 0.08216814 -0.1384025
0.06291505 -0.6242696 -0.24292912 -0.5306282 -0.18234865 0.32561442 -0.09994311 0.27494824
-0.18576925 -0.1255763 0.0575606 -0.066161916 0.27452773 0.38594308 -0.18926854 -0.18834697
0.04815138 0.059446488 0.20877708 -0.275768 -0.042902876 -0.12740861 -0.037738435 0.4197692
0.33587763 -0.10568893 0.10088003 0.13620266 -0.39786825 0.07806082 -0.053309835 0.32050964
0.39693093 0.32310107 0.43287858 0.3379512 -0.011488728 -0.42471495 -0.32650656 0.012933494

encoder_z.fc_layers.2.bias f4 [128]
00000000: 0582 6f3f 09ad c5be 8797 02bf 90cf 2fbd
00000010: 5e28 01bf e391 883d c1d0 0fbe 38ce 5ebe
00000020: 861a 00bd 4348 23bf 4bca 87bc fa1f a3bd
00000030: 3dc6 083f f20b 663d 2037 073f df3e c43e
00000040: 40d7 393d a3b3 813d 1445 113e 72cf 263e
00000050: 79be 43be 5f31 f0bd d8d2 a53e 2bdc b1bd
00000060: 15c4 133e 96a1 34bd 3a41 92be a9db a7bd
00000070: d5bc b13d 7a91 0cbe d355 a93d 547e debe
00000080: 9585 953e 699a c33e 0051 1abd 65b9 493f
00000090: 3ef6 9a3e ca86 a63e 891b 09bd 56ff 0d3e
000000a0: 3705 683d c586 433e 1431 073f 2cd7 ca3e
000000b0: 38bb 153d 7585 d6bb c312 33be 1a90 083c
000000c0: 60ed d9bc a6fa 193e f703 233e 3116 8b3e
000000d0: b0ee 373d 7c62 a6bd c2ad c43e a1e6 73be
000000e0: 38d8 afbe 66cf d7be 9cb2 afbc a86f a73e
000000f0: 7fd3 8dbc 0112 68be e218 373f 590c bbbe
00000100: 4706 32bb 2c46 f5bb 161e 8a3d 625d f63e
00000110: 9942 573e 8892 c0be 181d d93d 89d6 e83c
00000120: b80a 943c f5b4 a03c b255 b53d c86f 743e
00000130: a965 d9bd 5093 9e3d 8277 853e 3ce8 013f
00000140: 3f8c fbbe 54fd 85bc 581c 533e 6a6e acbc
00000150: 118a a2be 90f9 463e 372d 1abd fb31 0cbd
00000160: 9e00 593e db78 1a3e 5992 833c 468d 333f
00000170: 2aad 453e 9563 ea3e 693f 11bf 4f99 eebe
00000180: 29e4 a4be d2ef ecbd f146 fe3c 40a3 6c3c
00000190: 8e7f 9bbe d027 f1bc 23b5 82bd 90c3 87bc
000001a0: e3bc 163d 6719 d9be 2a6a 13bd 2313 b93a
000001b0: 28bd b53c 1cae 8d3e fb94 8d3d 049a d73a
000001c0: 3f2b dabe 722d 0abf 617a c1be e21f babe
000001d0: d6bb 883d f6dc 92be 24c8 263f 919c 9e3e
000001e0: 7401 41bc 0835 a2bc d714 b43c 30e5 22be
000001f0: f7a8 313f 1d38 8abe 2334 eb3e 842e e63e
0.9355777 -0.38608578 -0.5101246 -0.042922556 -0.5045222 0.06668451 -0.14044477 -0.21758354
-0.031275295 -0.6378214 -0.016575953 -0.079650834 0.5342749 0.056163736 0.5281849 0.38329217
0.045371294 0.06333091 0.14186507 0.16290072 -0.19115628 -0.11728167 0.32387424 -0.08684572
0.14430268 -0.044099413 -0.2856539 -0.08196194 0.08678595 -0.1372737 0.08268323 -0.43455756
0.29203478 0.38203743 -0.037674904 0.78798515 0.30265993 0.3252471 -0.033473525 0.13866934
0.0566456 0.19094379 0.5280926 0.39617288 0.0365555 -0.006546671 -0.17487626 0.008335138
-0.026602447 0.15037021 0.15919481 0.27165368 0.044905365 -0.08124253 0.38413817 -0.23818447
-0.3434465 -0.4215042 -0.021447472 0.32702374 -0.017312763 -0.22663118 0.71522343 -0.36532858
-0.0027164386 -0.007485172 0.0674402 0.4811812 0.21021499 -0.37611794 0.10601252 0.02842261
0.018071517 0.019617537 0.08854236 0.23870766 -0.10615093 0.077429414 0.2606774 0.50744987
-0.49130437 -0.016356148 0.20616281 -0.021048743 -0.3174596 0.19431138 -0.037640776 -0.034227353
0.21191642 0.15085165 0.016060995 0.7013744 0.19304338 0.457791 -0.5673738 -0.4660134
-0.32205322 -0.115691796 0.031039687 0.014443219 -0.30370754 -0.02943793 -0.06382205 -0.016572744
0.03680123 -0.42402193 -0.035989918 0.0014120083 0.022184923 0.27671897 0.069131814 0.0016449098
-0.4261112 -0.53975594 -0.3778868 -0.3635245 0.06676452 -0.28684205 0.6514914 0.30978826
-0.011780132 -0.019800678 0.021982593 -0.1590774 0.69398445 -0.26995936 0.45938215 0.44957364

encoder_z.fc11.weight f4 [4, 128]
00000000: 8573 123d d1b2 d83d 5f87 cdbc 3b71 be3a
00000010: 3313 b43c a3d0 5cbd f1b2 02be 138f c0bd
00000020: 3919 19bb 934b 9b3c fca6 20bb 907a 313a
00000030: 3770 6e3d 9d68 2c3d db31 343c dde1 fbbc
00000040: 8dbc b83c a5c2 92bb 0b45 55bc 0ba8 c13d
00000050: 7570 fa3c 8dc4 a83d ecc9 80bc 10a2 613d
00000060: ada7 10bc 40c0 bfbc 648d d93c 61dd 21ba
00000070: 0287 78bd f831 393c 91ef 8ebc 916f 073d
00000080: 3266 c1bd cee3 483d 171a 683b edfb 793d
00000090: bcb5 783c 0bb3 4f3d 4a4b 6d3b 8c70 843c
000000a0: 0aa1 b83a f6a1 42bd 8cf2 fdb9 f931 e93c
000000b0: 7a80 0e3a d6b1 9abc 0780 283d c3ee 88bb
000000c0: 90f8 d2ba da34 e3bc 1bc3 f0bd 5ffb 033d
000000d0: 54c5 4fbc 344c 5237 8b3b d53c 606e 87bd
000000e0: 08ce 973c 96bd 7e38 559d 12b9 6189 cb3b
000000f0: 039b 273d 88ce ff3c 5d46 3c3c 8bf5 9e3b
00000100: 59c1 baba 6b29 733b 9502 e03a 8975 073b
00000110: a746 5abc 3182 f23c 1d95 cd3c 2d59 bb3a
00000120: 5ab6 0ebb f66d 97bc bc45 8737 7176 96be
00000130: c5c7 a4bd 5d06 833d a485 d13c cbc1 1dbe
00000140: 1315 013d e20f fcba 0aab bf3c db53 f8ba
00000150: 8064 cf3b 59e0 103b 8df4 4e3b bce2 6f3b
00000160: f20b 023c 328f babc b32d 9dbc 9089 1c3c
00000170: f047 2ebe 0933 eebc 1b04 8fbd 1086 72ba
00000180: 1c5a 2c3b c10d 133d 7965 ef3a d875 8d3b
00000190: 9274 8739 2338 2f3b 7bf3 28bb ca63 0b39
000001a0: 82d2 8dbb 5136 d5bc 2a40 c0b8 9f19 82ba
000001b0: 3387 8bbb f9f6 5cbd 1d1a 693b 8a4e 69bd
000001c0: 7fc4 6bbb 308f e0bb 1507 e43c cc62 063b
000001d0: de50 88ba 8ad1 deba 0f66 093e b839 1abb
000001e0: c91a 93ba a707 2abb ed99 273b 9683 7abd
000001f0: d6ce bf3d e035 41bd d29f 10bc fa9c e83d
00000200: c209 3d3e 0ee2 11bd 707a e7bd f51c 573a
00000210: 8041 3f3e d4c4 3abd 33f8 993d fde6 2e3d
00000220: c735 a43b 246e 163c 9c76 893c 01da 01bc
00000230: defd cabd c71b a73d 0ec6 f9bc 2073 2dbe
00000240: e0f5 0d3c 97d7 233b 701f 873c c49e 1abd
00000250: c3ae fe3d 2b3b 1abd 450f 4e3d eb7a 5fbc
00000260: a5a6 f2bd 9fe9 19be 077a bebd 74bb 64bb
00000270: 0fab f1bc c67f 103d 223b d3bd da0a 35bd
00000280: cd12 81bc fceb 233e 1666 24bc 1918 4a3d
00000290: 9561 863d 2fd8 a1bd 6eab 9bbb 6b54 42bc
000002a0: 1555 44bc 48be 74ba 7266 ab3d 7497 22bd
000002b0: b740 943a 229e a2bb 7b6f c53d 6741 033c
000002c0: 8654 9e39 26c1 c73d 7261 b5bc c2c9 a2bc
000002d0: ba5b 8cba ca9b febb 043e 0dbe ddcf 2fbd
000002e0: bbda 983d 7411 293a 0287 c0bb 3326 1d3e
000002f0: b96a 1abd c2b3 cd3d 0331 25bd e637 21be
00000300: 4f11 78bb 8f3a 553b 3791 f03b 2882 98bc
00000310: 7fdb 56bc e328 c4bd aea5 df3e 3d70 07bc
00000320: 5be6 743c 9c2c 9cbb 8bca 27bc 0c75 adba
00000330: 6adb 8f3d b4fa d83c 1d16 93be 0d0e b23b
00000340: d25f 743d 40ed f83b e697 673d 7eab 51bc
00000350: 11ac 06be 07a5 adbd 4746 553c d702 5bbc
00000360: 17be 5f3e cf67 1cbd d240 51bd 8ec2 f13d
00000370: abf5 f93a 0852 ffbd 00f3 c5bc 7d34 843d
00000380: c020 c8bd ec96 543d 5a65 613c 9937 cdba
00000390: 01f4 bbbe 0f56 a13b c7ae bcbb 3e9e bf3b
000003a0: b642 013c 0af7 163d f9ee 7a3b 6f64 8d3b
000003b0: f015 62bb 7114 bbbb 8cae a339 25c4 e7bc
000003c0: 7298 9d3c 5b33 713d fb3d 353e d32e 81bd
000003d0: d2b0 0b3c 309f f1bc 8abc 933e 7072 b8bd
000003e0: 8064 35ba f1b4 5f3d 5406 1b3b 7190 efbd
000003f0: 5674 373e c702 6ebd f3cd 3ebb f71b f53d
0.0357547 0.105809815 -0.025088964 0.0014529595 0.021981811 -0.05390991 -0.12763573 -0.09402289
-0.002336098 0.018956935 -0.0024513593 0.00067702774 0.058212485 0.042091954 0.010998215 -0.030747348
0.022550846 -0.00447877 -0.013016949 0.0945588 0.030571202 0.08240614 -0.015721284 0.055086195
-0.0088290395 -0.023407102 0.026556678 -0.00061746506 -0.06067563 0.011303417 -0.017448219 0.033065382
-0.0944332 0.049045376 0.0035415941 0.06103127 0.015180048 0.050707858 0.0036208206 0.016166948
0.0014086079 -0.04751774 -0.00048436632 0.028466212 0.00054360146 -0.018883627 0.04113772 -0.0041788532
-0.0016095806 -0.027735163 -0.117559634 0.032222148 -0.012681324 1.2534718e-05 0.026029369 -0.06612849
0.01853086 6.0734885e-05 -0.00013982256 0.006211445 0.040919315 0.031226411 0.011491385 0.0048510483
-0.0014248296 0.0037103544 0.0017090613 0.0020669422 -0.013322509 0.029603096 0.025095517 0.0014293544
-0.002177617 -0.01848505 1.6125727e-05 -0.2938724 -0.080459155 0.06397698 0.02557642 -0.15405957
0.03151424 -0.0019230808 0.023396987 -0.0018945889 0.006329119 0.0022106378 0.003157887 0.003660365
0.007937418 -0.022773359 -0.01918683 0.009554282 -0.1701963 -0.02907707 -0.06983205 -0.0009251544
0.0026298827 0.03590179 0.0018264494 0.0043170266 0.00025836058 0.002673634 -0.0025779891 0.00013293247
-0.004328073 -0.026026877 -9.167225e-05 -0.0009925849 -0.0042580604 -0.05394647 0.0035568543 -0.056959666
-0.0035975275 -0.006853007 0.027835408 0.0020505665 -0.0010400077 -0.0016999703 0.13417839 -0.0023532938
-0.0011223193 -0.0025944503 0.0025573925 -0.061160646 0.09365623 -0.04717052 -0.008827167 0.11358066
0.18460754 -0.035615973 -0.1130265 0.0008205914 0.1867733 -0.045597866 0.07518043 0.042700756
0.0050112936 0.009181533 0.01678019 -0.007925511 -0.099117026 0.08159595 -0.030489948 -0.16938448
0.008664578 0.0025000328 0.016494483 -0.037749067 0.12435677 -0.037654083 0.05030753 -0.013640146
-0.11848191 -0.15030526 -0.093006186 -0.003490177 -0.029500512 0.035278104 -0.10314013 -0.044199802
-0.015756035 0.1600799 -0.010034105 0.049339388 0.06561581 -0.07902562 -0.0047506606 -0.011860947
-0.011983176 -0.00093362154 0.08369149 -0.03969522 0.001131079 -0.0049626986 0.09640404 0.008011199
0.00030199083 0.09753637 -0.022141192 -0.019871596 -0.0010708489 -0.0077700363 -0.13793188 -0.042922843
0.074635945 0.0006449439 -0.005875469 0.15346603 -0.037699435 0.10044052 -0.040329944 -0.1574398
-0.0037852114 0.0032536124 0.0073415297 -0.01861675 -0.013113855 -0.09578111 0.4368109 -0.008266506
0.014947499 -0.00476606 -0.010241161 -0.0013233735 0.07024272 0.026486732 -0.2872781 0.005433804
0.059661694 0.007596642 0.056541346 -0.012797235 -0.13151576 -0.08478742 0.013017244 -0.013367376
0.21849857 -0.038184937 -0.051087208 0.118046865 0.0019070407 -0.12466818 -0.024163723 0.06455324
-0.097718716 0.051901743 0.013757074 -0.0015656828 -0.36709598 0.004923589 -0.00575814 0.0058477214
0.00788944 0.03685669 0.0038289411 0.004314951 -0.003449794 -0.005709224 0.0003121983 -0.028291771
0.01923773 0.058886867 0.17699425 -0.06307759 0.008526044 -0.029494852 0.2885478 -0.09006202
-0.0006919578 0.05461592 0.0023654895 -0.11697472 0.17915472 -0.058108117 -0.0029114455 0.119682245

encoder_z.fc11.bias f4 [4]
00000000: 2aa7 83bd 0ae7 5f3e 25f6 1d3e ef29 15be
-0.064283684 0.21865478 0.15425928 -0.14566778

encoder_z.fc12.weight f4 [4, 128]
00000000: e808 e6bd 43b0 4f3e 8766 c23d d27d c6bb
00000010: c34e febb 6b9f 183e 596d aaba 36c0 8b3d
00000020: 5ece 70ba bada d13d d6f6 71bc 793f 943b
00000030: ce6b a8bd ce77 e1bc 5bf2 69bc 0965 febc
00000040: 8161 283d 6161 223c a3ca cdbd 4697 01be
00000050: 21fb 563c 3e4f e23c dfb2 66bb 04bc 193e
00000060: dfed 08bd 43e4 c5bd d56c 44bd 839d cc3b
00000070: 9def 9abc f798 42bc 333b 263d 354d 913c
00000080: 317c 17be c83e 233d 5407 853b 39c7 d3bc
00000090: 7633 dbbc 3f91 223c e904 573c 236c 0b3c
000000a0: 7b0b 8b3c 78b6 a8bd 0451 14bd 12e4 dbbc
000000b0: 0a74 11ba 7cbd 42bc 4120 a0bc a504 673c
000000c0: 7f03 3abc fb9e b4bc c68c 3cbd cedb b6bc
000000d0: 6cfa ec3c f548 03ba 2c0d 703d 2f88 023e
000000e0: fd22 9f3c 861b d7bc 9eb3 b53a 5bdd b63c
000000f0: 7c0f 64bd 411c f43c d2fe 35bd cdc2 7a3c
00000100: 2b8f bbbb a4db c7bb e41d 52bc 7c8b f7bc
00000110: 1ab5 25bc d2fd 503d 4f67 023e f1ff 26bc
00000120: b0df d5bb dbfe 753c 4020 f13b 3a49 55be
00000130: f944 08bc 7bd2 37bd 7d1e acbc bf59 14be
00000140: 1a37 d83c a8e4 a1bc 229c 2abc 2935 e9bb
00000150: 6995 1f3d 019a 0fbc 0370 b1b9 c4a1 ed3b
00000160: 87f2 d33a 901d 14bc 11c6 473c 9518 4fbe
00000170: bbc3 3fbe c044 74bd bae0 e43d fcc5 c8bc
00000180: c49e 25b8 199e ab3b bb75 c2bb 1c95 39bc
00000190: 01c7 f23d 156f 38ba 4ff8 1e3c 164e b9bb
000001a0: edfe adbb 8863 c93d 6616 3e3c b264 153b
000001b0: d3da c33b 3c1c dfbd 82f9 d0bb 97fb e9bd
000001c0: f689 173c 6a3d 29bd 7c23 03bc 069f 64bc
000001d0: 4f4a bc3b 2cc9 3d3c ff02 1bbe be6e c1bd
000001e0: 46a2 cbbb 3e96 38bd dd58 1cbb ee2a bbbc
000001f0: 6c02 3ebe c0b0 41bd 0200 ebbc 1aab a73c
00000200: a6e4 fcbd 9aa3 c53d d124 2e3e 1854 a0b8
00000210: 590c 723c e2b8 20be 572d 5fbd 686f f4bc
00000220: ec7a 5c3b 09bc 863d f3b2 bd3b e71f eb3b
00000230: da66 94be d7d9 4a3d 0ab6 debd e800 12bc
00000240: 5eaf dd3b 6846 4ebb 5223 bbbc 1275 51bc
00000250: 131b 1bbd 1608 34bd 88d5 0a3d 6b82 b13c
00000260: 9f39 83bc b0f1 34be 58c2 43bb cba4 8bbc
00000270: 37a3 ccbc 4325 113c 87de 083d 2229 2a3c
00000280: 6dda 61bc c869 d13c 36dd 58bb c584 0bbd
00000290: 5d45 693c f3e0 62bd b465 86bc 573d e2bc
000002a0: 5fae 023c 5b95 18bd c697 48bd 71a9 4f3c
000002b0: 17b7 87bb 73e9 263d a60b 953b de4f a83b
000002c0: 2ce4 6b3c fb52 3a3d 395e 863c a99c acbc
000002d0: 5707 c73d 0ce2 f93b e741 cfbc b0fb b73a
000002e0: fa47 1c3c b3de c13c f8cc 92bb 5626 293d
000002f0: aec3 8f3d 5df7 803d e994 47bd 3713 11bd
00000300: ae22 e1bb f6b3 4cba bc55 df3b 641c df3a
00000310: 1676 02bd 8576 163d 41e7 fa3e 446e 99bb
00000320: 010a 6cbc b1b3 de3c 7713 8abc 958b 80bd
00000330: cf8c 123c 4cf8 2cbc 0150 0c3f d8a6 3d3c
00000340: 6bfa 00be 2d41 6a3c b83e 0c3c dfb4 06bc
00000350: 4107 c43d 7c3d aabb bad0 5fbb c4c7 9439
00000360: 1373 523e 78d9 3cbd 9f7b 75bb 348f 45bd
00000370: 0e12 88bd 8a73 05bd ae94 cf3c ff3b 9b3d
00000380: f648 973c 824a ff3c cc1f 8f3c 817b 7c3c
00000390: 6f7f 5e3e de7e faba 4614 553c 039a 61ba
000003a0: fe76 2e3c a5f0 273e 61cf 0ebc e4ed a3bb
000003b0: 17b7 4b3b 872b 0fbd 964e 4b3b 8a86 9ebd
000003c0: 1cc0 1f3c a877 9c3d cf83 81bd d98f 383d
000003d0: bf92 b1ba 908e 323e 9e53 fabd 6086 3dbd
000003e0: b2e2 bb3b fb3a df3d c2e7 10bc 3129 6e3d
000003f0: 707f 55bd cf9a 07be 14fb cfbd e31a d4bd
-0.112321675 0.20282082 0.09492212 -0.0060574794 -0.007760854 0.14904563 -0.0013002559 0.06823771
-0.00091860245 0.10246797 -0.014768323 0.004524168 -0.08223687 -0.027522948 -0.014278973 -0.031054037
0.041108612 0.009910912 -0.100484155 -0.12655362 0.013121397 0.027625676 -0.003520183 0.15013129
-0.033429977 -0.09662678 -0.047955353 0.006244363 -0.018913085 -0.01187729 0.0405838 0.01773701
-0.14793469 0.039854795 0.0040597115 -0.025851833 -0.026757937 0.009922325 0.013123729 0.0085096685
0.016973248 -0.08237928 -0.036210075 -0.02684215 -0.0005548602 -0.011885997 -0.01954663 0.014100228
-0.011353373 -0.022048464 -0.04603269 -0.022321608 0.028928004 -0.0005008125 0.05860631 0.12747262
0.019425863 -0.026258241 0.0013862734 0.022322347 -0.05567883 0.029798629 -0.04443247 0.015305233
-0.005723854 -0.0060991812 -0.012824509 -0.030217879 -0.010113979 0.051023312 0.12734722 -0.010192857
-0.00652691 0.015014376 0.007358581 -0.20828715 -0.008317226 -0.044878464 -0.021010632 -0.1448736
0.026393462 -0.019762352 -0.0104132015 -0.007116933 0.038960848 -0.008764745 -0.00033843526 0.00725195
0.0016170301 -0.009040251 0.012193219 -0.20224221 -0.18727009 -0.059635878 0.11175676 -0.024508469
-3.9486928e-05 0.0052373526 -0.0059344447 -0.011327054 0.11854363 -0.00070355955 0.009702756 -0.0056550605
-0.0053099305 0.09833437 0.01160202 0.0022795615 0.0059770136 -0.10894057 -0.0063774 -0.1142494
0.009249201 -0.041318335 -0.008004066 -0.01395393 0.005746163 0.011583608 -0.15137862 -0.094449505
-0.006214413 -0.045065157 -0.0023856678 -0.022847619 -0.18555611 -0.047287703 -0.028686527 0.02046733
-0.12348299 0.09650345 0.17006232 -7.645058e-05 0.014773452 -0.15695527 -0.0544866 -0.029838279
0.0033642603 0.065788336 0.0057891547 0.007175434 -0.2898472 0.049524155 -0.10874565 -0.008911349
0.00676529 -0.003147507 -0.02284399 -0.012784259 -0.037867617 -0.043953024 0.033895046 0.021668633
-0.016018687 -0.17670321 -0.0029870477 -0.017046353 -0.02498017 0.008858982 0.033415344 0.010385783
-0.013784987 0.025563136 -0.0033090836 -0.034062166 0.014237729 -0.05539031 -0.016405918 -0.02761714
0.007976144 -0.03725181 -0.048972867 0.012674675 -0.004141699 0.04074998 0.0045485077 0.005136474
0.014397662 0.045489293 0.01640235 -0.021070795 0.09718197 0.007625824 -0.02529998 0.0014036801
0.009538645 0.023665762 -0.0044800006 0.041296326 0.07019745 0.06297181 -0.048725996 -0.035418715
-0.006870589 -0.00078087987 0.0068156403 0.0017022011 -0.031850897 0.036734123 0.49004558 -0.004682334
-0.014406682 0.027185293 -0.016854985 -0.06276623 0.008944704 -0.010557245 0.54809576 0.011575423
-0.12595527 0.014297766 0.008559875 -0.008221834 0.09571696 -0.005195318 -0.003415151 0.00028377597
0.2055171 -0.04610583 -0.0037457717 -0.048232272 -0.06644069 -0.03258089 0.02533945 0.07579803
0.018467408 0.031163458 0.017471217 0.015410305 0.217283 -0.0019111296 0.013005322 -0.00086060184
0.010648487 0.16400392 -0.008716435 -0.005002724 0.0031084472 -0.03495362 0.0031022183 -0.07740505
0.009750392 0.0764001 -0.063239686 0.04505906 -0.0013547762 0.17437196 -0.1222298 -0.046270728
0.0057338113 0.108999215 -0.008844318 0.058144752 -0.052123487 -0.13242649 -0.10155311 -0.10356691

encoder_z.fc12.bias f4 [4]
00000000: 6aa5 80be 55e1 17be aad2 d83d a9c0 38bd
-0.251262 -0.14832051 0.10587056 -0.04510561

decoder.fc_layers.0.weight f4 [128, 4]
00000000: 6962 91bf 86da b43e e1b7 753c ffa4 2740
00000010: f661 aebd c868 40bf 2db1 c73e 05ef db3d
00000020: ab25 82bf a81b a6be b686 923e cbd3 abbe
00000030: e541 ad3e 85d2 e83e 6d9f 1ebc 91f4 133f
00000040: 950d ffbe 4f01 68be 9df3 e93e cd0f 763f
00000050: 7e45 313f bcf7 d5bb e8ed 36be 122f 14bf
00000060: 8bf9 b43f 8108 a03f cf42 18bd aab4 a4be
00000070: 6612 8f3e a157 733d 48ac ba3e 813b b5bf
00000080: 981d 73bf 3975 f03e b488 24bc 01ec 0040
00000090: cd05 09bf 72f2 b73c bc7e 1ebd d3a1 8b3c
000000a0: a762 feba 4c5a 2a3b c88e d33b 17bf 8f3b
000000b0: 7b70 b33b 3a7c 1dbc dca0 b03c 0405 893a
000000c0: b2c3 89c0 2c4d abbd 79fe 7fbb fb37 c83e
000000d0: cb78 893e 569a 23be 051c 1c3f f147 9a3e
000000e0: e1fa 873e c972 24be 591d 3e3e e9c5 0ebf
000000f0: 232c 3c3f f52d cd3e c423 423d cc95 3d3e
00000100: d667 0840 b5ff 81be ee9e c93d 104e 443e
00000110: d819 cdba eabe 2c3b 539b 16bd 7995 8b3b
00000120: c72d 70bd 62ab 033f 4ca6 023e 9852 793e
00000130: a319 273e 78fb adbd 666b 83be 73d3 c7be
00000140: d7fc dd3b e089 8cbc 952c 6ebc 80ca 903b
00000150: 70ae 023f 3d9c 03bd 4068 82bd 02e5 bfbe
00000160: 9372 813f 68b0 e03e cb29 55bc 940f f9bd
00000170: 35c2 b63e bb2a c43e a4de 36bf 0eab cf3e
00000180: a9bd 54bf 5670 aa3e 75e0 0bbe 9561 513f
00000190: 3332 92bf e585 85be 25e9 223e 529b 8dbe
000001a0: f2d6 3cbf 8949 7fbe 24b0 37bf 19e3 cd3f
000001b0: 70a0 b93b c876 e63b 7890 05ba 8953 233b
000001c0: bdb6 34c0 3109 043f f41e 2f3e 1e92 3b3d
000001d0: 1577 1a3d 0375 63bd d513 a03d e7b4 d3be
000001e0: 7e15 893d 89e3 873d 7835 3ebd 84d7 febe
000001f0: a20e 843e 1cba cf3e bd99 3c3f fab5 96be
00000200: f127 253f 619e f2be e757 a93e 37cd 20be
00000210: 4db8 47bf 826c 2a3f 3b67 5abe 9b18 4abf
00000220: 48fd 0cbf 996e 9abe 9f13 903d 0a5f c23e
00000230: b2e1 05c0 9773 03bf 11a1 89be 3eee 04bd
00000240: 22af c33a 2e07 14bc 1d96 463b 6de5 f33a
00000250: f002 ecbe c152 58bf 1178 1fbe 4b9d 2240
00000260: 9366 47bb 340a 2ebc 227d 153c c2dd 70ba
00000270: 82c2 abbe cc2c 913d 5812 773d d64b 72bd
00000280: 4871 ac3e 2c36 a8be d44e 783b d67f ebbf
00000290: 8153 0f40 476c 1e3f dbfe 05bf a3cf d2be
000002a0: d2ab 92be 2b8a 163f 1e25 b63e 6317 1cbc
000002b0: a273 14bf 863a 8cbe 387b 073e faab 023f
000002c0: 12c2 9c3e ae91 443f 914c e2bd a591 a8bf
000002d0: 4dca a1bf 1510 ca3e 8e92 ac3e 03cc 99be
000002e0: 3b0a 883c 2c8c 19ba 1bf3 6bbc 3ccf b13c
000002f0: 3b06 97bf 1cf6 bbbc 598d b23d b70b 8d3f
00000300: 8d8d 983f d2a4 ae3e c7ff 063f cb06 843e
00000310: a8e2 203c e0aa 913b a567 f039 9476 b63b
00000320: cb6e 1bc0 2c0e 1b3f fce4 ccbe 5d66 90be
00000330: 479c 593f 7f78 3dbf dc99 3fbe 1f2b a5bf
00000340: 40a4 033f d2fc cc3e 6d41 353e cc96 773f
00000350: a61c d33b d779 04b9 cbb3 d33b 5e83 853b
00000360: f434 58bd e694 533e ea63 ab3d cc96 823f
00000370: abc4 9d3f 6460 f63e aa33 43bd 0dc3 5fbe
00000380: 94f9 7439 7f5c 593b 9874 91bc 59ff 8b3b
00000390: f08f 53ba 88ac 25bc 5ac3 aaba a3d9 ad3b
000003a0: acdc 503f d905 b63c 95a3 43bf 55ef debe
000003b0: 2f9a c23f 8099 5b3d c394 ddbe 2d95 6d3f
000003c0: 7ca0 303f 048f 12bf e714 0cbe 12ba 28bf
000003d0: 699c 963d a1d0 943d 2881 7cbb bcf1 5dbf
000003e0: 365d 74bb 1353 cfb9 f77e 9fbb a8ec d83b
000003f0: d9cf 37bb 1d29 b2bb 52ed 76bb 4b20 843a
-1.1358157 0.3532297 0.014997453 2.6194456 -0.08514778 -0.75159883 0.39002362 0.10738949
-1.0167745 -0.32442975 0.286184 -0.33560023 0.33839336 0.45473114 -0.009681565 0.57795054
-0.4981505 -0.22656749 0.45693675 0.9611786 0.6924666 -0.0065297764 -0.17864192 -0.57884324
1.4138654 1.2502595 -0.03717309 -0.32169086 0.27943724 0.05940974 0.36459565 -1.4158784
-0.9496703 0.46964434 -0.010042358 2.0144045 -0.53524476 0.022454474 -0.038695082 0.017044937
-0.0019408063 0.0025993763 0.00645623 0.0043867934 0.005476055 -0.009612137 0.021561079 0.0010453765
-4.3051386 -0.08364329 -0.003906159 0.3910521 0.2684997 -0.15976843 0.60980254 0.30133012
0.26558593 -0.16059412 0.18565883 -0.55770737 0.7350485 0.40074125 0.04739739 0.18514174
2.1313376 -0.253904 0.098447666 0.19170403 -0.0015647961 0.002635891 -0.036769222 0.004259762
-0.058637407 0.51433384 0.1275875 0.24347913 0.16318373 -0.084952295 -0.25667876 -0.3902851
0.0067745256 -0.017155588 -0.014536996 0.004418671 0.5104742 -0.032131422 -0.0636754 -0.37479407
1.011309 0.43884587 -0.0130104525 -0.121611744 0.35695043 0.3831385 -0.7143347 0.40560192
-0.831019 0.3328883 -0.13659842 0.81789523 -1.142157 -0.26078716 0.1590925 -0.27657562
-0.7376548 -0.24930395 -0.71753144 1.608493 0.0056648776 0.007033203 -0.0005095075 0.0024921617
-2.8236535 0.51576525 0.17101651 0.045793645 0.03771122 -0.055531513 0.07816283 -0.41348955
0.066935524 0.06635196 -0.04643771 -0.497738 0.25792414 0.40571678 0.73672086 -0.29435712
0.6451407 -0.4738646 0.33074877 -0.15703283 -0.78015596 0.6657182 -0.21328442 -0.78943795
-0.55073977 -0.30162504 0.070349924 0.37963134 -2.0919003 -0.5134825 -0.26880696 -0.032453768
0.0014929513 -0.009034915 0.0030301877 0.0018607803 -0.4609599 -0.8450127 -0.15573145 2.5408504
-0.003042613 -0.01062255 0.009124072 -0.0009188318 -0.33546835 0.070886225 0.06032023 -0.059154354
0.33680177 -0.3285383 0.0037888782 -1.8398387 2.2394717 0.6188397 -0.52342004 -0.4117404
-0.28646713 0.5880458 0.35575193 -0.00952706 -0.5798894 -0.273884 0.13230598 0.51043665
0.30616814 0.7678479 -0.1104976 -1.3169447 -1.2639862 0.39465395 0.33705562 -0.3003846
0.01660644 -0.0005857374 -0.014401223 0.021705262 -1.1798776 -0.022944503 0.08718366 1.10192
1.1918198 0.34110123 0.52734035 0.25786433 0.009819664 0.0044454187 0.00045853588 0.005568335
-2.4286373 0.605685 -0.4001845 -0.28203097 0.85004085 -0.7401199 -0.18711036 -1.2903785
0.514225 0.40036637 0.17700739 0.9671447 0.006442624 -0.0001263389 0.006460642 0.004074498
-0.052784875 0.20662269 0.083686665 1.020227 1.2325643 0.48120415 -0.047656693 -0.2185175
0.00023362628 0.0033166704 -0.017755792 0.004272383 -0.00080704596 -0.010111935 -0.001302819 0.0053054853
0.8158672 0.022219585 -0.7642148 -0.4354197 1.5203303 0.053613186 -0.4327756 0.9280575
0.6899488 -0.57249475 -0.13679849 -0.6590892 0.073540516 0.07266355 -0.0038529132 -0.8669698
-0.0037287003 -0.00039544012 -0.0048674303 0.0066200085 -0.002804747 -0.00543703 -0.0037678075 0.0010080425

decoder.fc_layers.0.bias f4 [128]
00000000: c80f 013f d551 5cbf b891 cd3e 4aef 8bbf
00000010: f10b bebe 2684 abbe 1700 71bf 70fb 16bf
00000020: 9ab4 8e3e f943 1dbf 7e63 693b 14c3 07ba
00000030: 798f fd3e 0caa 503e 3ab1 7abf ac79 35bf
00000040: 0c7d bfbf e24e 76bb 8242 e03f e84b d4be
00000050: a3a6 29bb faae 543f 1fa1 4ebf c935 dc3e
00000060: cd55 26bf 0441 0bbf 0264 c63e 451a 903a
00000070: c3a8 e9be cd9b 3abf d853 04bf f6b6 99bf
00000080: 4291 25bf 9e29 223e 0f47 82bf e4b1 39bf
00000090: 9573 dcbb bcc5 2a3f ec03 f43a 5ae5 bebe
000000a0: 4b3b 8ebf a87d 6bba 8323 b0bf 165c 6dbf
000000b0: 380e 7cbf dccd 9fbf 8828 a0bc 8fc2 b43f
000000c0: 610b c8be 7e45 aebb a243 85be 8f4a 1d3f
000000d0: 8035 8cbe ffc2 2cbb 85fa 45bf 8b5b 223f
000000e0: 5703 c0ba 3fe1 c0b9 6474 b5be 38fc a53f
000000f0: 3545 963f a0a2 c4be 6813 a8ba f4df 3e3b
00000100: 7966 9c3a 7b4d 7a3f c8b8 96bf 6cbc 1b3f
00000110: 1e28 883f e7a4 3c3f 15c9 3dbf 050a ac3f
00000120: d039 c33b 0735 5f3b 0428 afbb 8e62 5e3f
00000130: 42b1 cfbf ccc7 a33b 87af c13f 4802 2dbb
00000140: f469 c3be 9cf7 163f 90f3 66bf c6d6 b33f
00000150: 27fe 863f aade 0fbf 26b5 6abf a66a 6c3f
00000160: fdd6 4fbf df28 95bf 6a6e 4c3f d635 debd
00000170: fdf0 0140 cb97 953e b079 203b 6bc2 a8bf
00000180: cb2f 39bf 50f7 a9be 642d 8c3f 5758 febf
00000190: ae33 2abf 9998 85bf 0e0a 41bf c8ba 8bbf
000001a0: 3532 04ba dcc9 53ba be52 7cbf d80d 393f
000001b0: 7c08 35bf 48a5 e73e 0c72 f6be 2e17 843f
000001c0: 798e 85bf 2086 97bf 80fb a0bf dbfd 713d
000001d0: 31f6 03bf e643 b5ba f65b 883f aaa3 e83b
000001e0: b807 7b3b 9831 17bf b0cc 5dbe ab47 dabb
000001f0: 3d1c 813f 5d28 6d3a b358 43bf 0af7 85bf
0.50414705 -0.86062366 0.40150237 -1.09324 -0.37118486 -0.3349926 -0.9414076 -0.58977413
0.27872163 -0.61431843 0.003561228 -0.000517891 0.49523523 0.20377368 -0.97926676 -0.7088878
-1.4960036 -0.003758364 1.7520297 -0.41464162 -0.0025886677 0.83079493 -0.807146 0.43009785
-0.6497467 -0.5439608 0.38748175 0.0010994157 -0.45636567 -0.72893983 -0.51690435 -1.200896
-0.6467477 0.15836188 -1.0177935 -0.72537065 -0.0067276456 0.6670797 0.0018616891 -0.37284356
-1.1111845 -0.0008983263 -1.3760837 -0.92718637 -0.98459196 -1.2484698 -0.019550577 1.4121875
-0.3907118 -0.0053183427 -0.26028162 0.6144189 -0.27384567 -0.0026361344 -0.7733539 0.63420933
-0.0014649433 -0.00036788915 -0.35440361 1.2967596 1.173987 -0.38405323 -0.0012823166 0.0029125186
0.0011932395 0.97774476 -1.1775141 0.60834384 1.0637243 0.7368912 -0.7413495 1.3440558
0.0059578195 0.0034058706 -0.0053453464 0.8686913 -1.622597 0.004998183 1.5131692 -0.0026399065
-0.38166773 0.5897157 -0.90215397 1.4049919 1.0546311 -0.56199133 -0.9168266 0.9235023
-0.8118742 -1.1653098 0.7985598 -0.10850112 2.0303338 0.2921737 0.0024486594 -1.3184332
-0.7233855 -0.33196497 1.0951352 -1.9870709 -0.66485107 -1.0437194 -0.7540597 -1.0916376
-0.0005042882 -0.00080790906 -0.98563755 0.7228675 -0.7071607 0.45243287 -0.48133886 1.0319574
-1.0434104 -1.1837807 -1.2576752 0.059079986 -0.51547533 -0.0013829439 1.0653064 0.0070995884
0.0038304161 -0.5906005 -0.21660113 -0.0066613755 1.0086743 0.0009046847 -0.7630722 -1.0466015

decoder.fc_layers.2.weight f4 [128, 128]
00000000: dc3a 06be 2421 19be 1b3c e83d 74ec 8abe
00000010: a90e c63d 71bc 0e3f d6b7 50be 6c68 143f
00000020: 95f6 a63d 3e1f b23e 63b1 49bc 09d3 0f3d
00000030: bfe0 8abe 22a4 29bd 3969 a23d c0dc 5abd
00000040: 2ce9 1e3e 0d65 1dbd 8913 223f 6aa5 9ebd
00000050: 947f adbc bcb6 f5be 2f78 483e eb2a c4be
00000060: 2d8c dd3e daab 493f 33e5 fbbe c250 813c
00000070: ce59 803f 8578 83be b9ee 3d3e 0d4a 06be
00000080: 15ca fabc 0563 1d3f e023 833d 8f97 4b3f
00000090: 45a9 88bb 1276 71bd b963 7fbc 215b d9b9
000000a0: 930a 883f a078 c2be 1f9b 41bf 62ce d53e
000000b0: fb38 adbe 5b32 d7be dec3 74be 9d32 a2bf
000000c0: acfd 36be 1a76 ad3c 5630 4e3f 1665 84bd
000000d0: e489 2fbe 2aca df3d 6fdc 0b3f 0a5c 3abf
000000e0: 7e92 cfbc d58e 533d c6fd f43c 203d 6d3d
000000f0: 10e0 b23d 37d5 023e 91cb 1b3b 543a 6c3d
00000100: 6546 003d 6b93 02bf 688d 0dbd 62a4 87be
00000110: b265 83bf b8bf e53d e17e e93c ae35 fbbd
00000120: 49cb fd3b 5f67 ae3d e8da bc3c 6d3e eabd
00000130: 4aa7 15bf 00b7 b13c 8670 9c3e 0f1d b3bd
00000140: dc49 50bd dbdd a7be 10c4 3d3d 8ff2 303f
00000150: 6912 9ebe 14c7 3d3e afa1 acbe 2362 10bf
00000160: e79d ee3d 7e75 5dbc ce5f 433e c5ba 03bf
00000170: d9f0 0d3f fddd 03be 5ed1 b83c cc2c edbe
00000180: 42aa 5c3e cf56 e53c 5db6 e73e 0169 1bbf
00000190: cd0a 8a3e b69b 93bd 633f 643f f237 ac3e
000001a0: 87cb 1c3d 015e 15bd 4ffb 273e 59f2 2bbf
000001b0: 7cca 8d3e 1022 48be 08ae 87be a74a f83e
000001c0: 95c2 14bf a3a6 aa3e 3663 0d3f 1dc7 9a3e
000001d0: 561f 2c3f 5785 f1bd b458 5fbd c21f 2abd
000001e0: 5ee5 51bd 718e a13e 3a9b 2d3e 715b 69bb
000001f0: ca87 60be 9ba2 143d 398a 893d d43f 9bbe
00000200: 8eb4 69be 13d2 d73d 3e7c 07bd bd47 613e
00000210: b8db d23e 6ff9 f83d 3a84 e33e ffc0 2f3e
00000220: d761 bcbe 5bbb 013f bbcb b5bd 57b9 d6bd
00000230: 5288 5bbe e78f 6f3e 3c8c cc3e 114d 243e
00000240: cd3e ea3d 7523 ee3d 7995 83be cbc4 23be
00000250: 062c 983d 437b 1bbf 48dd af3e e513 b33e
00000260: cb03 fabd 4d82 fb3e 6881 bfbe 0529 fcbc
00000270: 547f a23e fad2 483e 6424 68be 18c7 e13e
00000280: dccf 033f 310f 3b3e 30c8 b13e d76c dd3e
00000290: 7cd3 8fbc e018 273e 0c27 8f3c 7c56 bf3e
000002a0: a084 0b3e 1890 7b3e 2f97 853e fd39 9b3e
000002b0: 9937 683d 986b 9a3f fb0e f03d 21e2 d0be
000002c0: b9d1 0cbf eac4 623d d252 263f 69c3 373d
000002d0: 9023 bbbe 1aca 0c3c 392b 683e fc11 03be
000002e0: 342f 953d a283 713d bba7 b03e cbd5 a4be
000002f0: 53dd c93c be4f aabe 56b9 593d 634f 8c3d
00000300: b5d2 0b3d a7dd 043f 808e 8e3e 928c 18bf
00000310: 189e ac3e 8cf2 8f3c 1ef4 dd3d 509b 8fbe
00000320: b07d b43c 8f77 fabd 24f4 f93c c17e 543e
00000330: f9d4 9b3e f7f5 4abc da3c d1be 6c40 793d
00000340: aace 203e 39cc dbbe 65e1 0a3f 1d54 1d3e
00000350: 01e5 e3be 6bf0 8d3e 55fe 7fbd f815 adbe
00000360: 67a3 14be ccde 2bbf 7554 7abe 354c 83be
00000370: a774 1dbf 32ae bcbe 0883 67bd 1d58 943e
00000380: a2fd 52be 5a2a b73e 79ad 293f 6d9b 943e
00000390: 8d6d 7b3e 69b3 80bc ae28 0bbd c41d 013f
000003a0: 1dec 4a3d 0ad5 84bd 04b7 213e 6445 893d
000003b0: 89b1 d53e bef7 03bf 5280 183f 599b bd3e
000003c0: fa64 923c c262 73bf 7860 9d3e c7ef 5bbe
000003d0: d2fb 303e 2d69 f7bc 01d1 b7bc 5da9 01ba
000003e0: c996 c4bc cb6c 16bf b96d 593d ec15 c13d
000003f0: 0c63 893e a876 acba 95dc 513f b56f c9be
-0.1310839 -0.14954048 0.11339589 -0.27133524 0.09670765 0.5575629 -0.20382628 0.57971835
0.081525005 0.3478946 -0.012310359 0.03511337 -0.27124593 -0.041416295 0.07930226 -0.05343318
0.15518636 -0.038426448 0.6331106 -0.07746394 -0.021178998 -0.47990978 0.19577096 -0.38313994
0.43271008 0.7877785 -0.49198303 0.015785579 1.0027406 -0.25677887 0.18548097 -0.13114186
-0.030613938 0.61479217 0.06403327 0.79528135 -0.004170569 -0.05895049 -0.015587741 -0.00041457362
1.0628227 -0.37982655 -0.7562732 0.4175902 -0.33832535 -0.42030606 -0.23902842 -1.2671696
-0.17870206 0.02117448 0.80542505 -0.06464593 -0.17142445 0.109272316 0.5463323 -0.7279669
-0.025338408 0.051649887 0.029906165 0.05791962 0.08734143 0.12776648 0.0023772458 0.057672814
0.031317133 -0.5100619 -0.034558684 -0.26492602 -1.026541 0.11218208 0.028502883 -0.12266098
0.0077451807 0.0851581 0.023053601 -0.11437688 -0.5845839 0.021693707 0.305546 -0.08745777
-0.050851688 -0.3278645 0.046329558 0.69120115 -0.3087342 0.18532974 -0.33717105 -0.56399745
0.11651211 -0.013516782 0.19079515 -0.5145686 0.5544563 -0.1287765 0.022560772 -0.4632324
0.21549323 0.027995495 0.4525632 -0.607071 0.26961365 -0.07207434 0.8915922 0.33636433
0.038280036 -0.036466602 0.1640446 -0.6716667 0.27693546 -0.19544244 -0.26499963 0.48494455
-0.5810941 0.3333026 0.5522951 0.30230036 0.67235315 -0.11793011 -0.054527953 -0.041534193
-0.051244132 0.31553987 0.16953745 -0.0035607482 -0.219268 0.036287885 0.06715817 -0.30322134
-0.22822782 0.10538115 -0.03307747 0.22000022 0.41183257 0.12156951 0.44436818 0.17163466
-0.36793396 0.50676507 -0.08876749 -0.104845695 -0.21438721 0.23394738 0.3995074 0.16045024
0.114377595 0.11627857 -0.25699976 -0.1599304 0.07430272 -0.6073496 0.34348512 0.34976116
-0.12207755 0.4912285 -0.37403417 -0.030781278 0.3173777 0.19611731 -0.22670132 0.4409721
0.51489043 0.18267514 0.34723043 0.432471 -0.017556898 0.16318083 0.017474674 0.3737067
0.13624811 0.24566686 0.26091906 0.3031768 0.056693647 1.2064085 0.11721607 -0.40797523
-0.5500751 0.055363573 0.64970124 0.044864092 -0.3655057 0.008593107 0.22672738 -0.12799829
0.07284394 0.058963425 0.34502968 -0.3219436 0.024641668 -0.33263963 0.053155266 0.06851079
0.034136493 0.51900715 0.27843094 -0.59589493 0.33714366 0.01757171 0.10837577 -0.28048182
0.022032589 -0.12229835 0.030511923 0.20751478 0.30435923 -0.012387744 -0.4086674 0.060852453
0.15703836 -0.42929247 0.54250175 0.15364118 -0.44510654 0.27722487 -0.06249841 -0.33805823
-0.14515458 -0.67136836 -0.2444628 -0.2564408 -0.6150612 -0.3685165 -0.056521446 0.28973475
-0.20604566 0.357745 0.66280323 0.2902483 0.24553509 -0.01571055 -0.033974342 0.50436044
0.04954158 -0.064859465 0.15792471 0.06702688 0.4173701 -0.515499 0.595708 0.37032583
0.017870415 -0.9507257 0.30737662 -0.21478187 0.17283562 -0.030201519 -0.022438528 -0.00049461966
-0.023997681 -0.58759755 0.053083155 0.094280094 0.2683338 -0.0013157921 0.81977206 -0.39343038

decoder.fc_layers.2.bias f4 [128]
00000000: 107e ea3d 07f3 08bf d6f5 cd3e 8da8 b33e
00000010: e29d 6b3f 6c59 593e 6103 bb3e 9be1 d9be
00000020: df7e 6abc 60da e83e f4b5 0f3f 5017 fd3e
00000030: 96f3 29bf de3f bf3d 2c78 97be 6b16 02bf
00000040: 8294 be3e a386 74be 0ecb 65bf 731b 213f
00000050: e07a 0bbf 41ad d0be 0e78 a8be 8525 25bc
00000060: 74a2 02bf 93d4 27bf aa37 19be 4559 edbe
00000070: 5ec4 023e e57c ce3e ab4f 6f3f 8a53 44bf
00000080: aa95 33bf 3dd9 ad3e 18e3 f6be 46dc 0fbd
00000090: e7f6 ca3e 7ebb 8c3f b83d c23e c314 ab3c
000000a0: 5ab3 0ebe 3b73 61bf c2f0 103e 5b67 cb3e
000000b0: 78a7 ff3e 3790 e7be 2d00 d4be 58e7 6abe
000000c0: 94e0 a43e e26e a03e f6c5 643e 4bb7 473e
000000d0: d9a7 a63e 6e6e 61be ab85 c7be 7616 113f
000000e0: 6d02 443c f7ba 19be 5e46 043f eedc 72be
000000f0: cd96 cd3c ca19 e9be 909a 303f 8765 1fbd
00000100: 6394 903d 4220 49be badf 82be 83b9 163f
00000110: 6f62 113f 4d58 e53e 0bc4 e3be 805e 03bf
00000120: f5bf babe 430c 14be 5b52 00bf 3bcc 62bf
00000130: bfa0 7b3e f0d0 19bf 7b8c b03e fc27 87be
00000140: 9bd5 d93e bae4 973f 0f88 243f 6f44 8fbe
00000150: 6241 c13d c93c 60be 742c 26bf b700 9b3e
00000160: 1678 483f b6c4 513f 6b0f 743e 8b35 e13e
00000170: 706e 123e 9b65 26bf a5d7 62be 9190 27bf
00000180: 95e9 ecbe fb43 68be 2512 59be 899e 29be
00000190: ae00 89be 09cb 7d3e 6bd3 7a3d 8e88 57be
000001a0: a531 3dbf 58fa 49be 06e4 073f 0586 673c
000001b0: 4ac3 f83e 446d c4be 130c 45be 93eb dcbe
000001c0: c1bd d5be 276b b63e 3312 163f 528f 113f
000001d0: 03fd 97be a0c7 cdbc dbca c63d 169d f5be
000001e0: 5fb1 5f3e 8fb6 ab3e 93a5 5f3d f77a 96be
000001f0: 9eae 9e3e 9ff4 a8be c6a4 88be c124 1ebe
0.11449826 -0.5349583 0.4022662 0.35089532 0.92037785 0.21225518 0.36526015 -0.42554936
-0.014312475 0.45479107 0.56137013 0.4943185 -0.6638731 0.093383536 -0.2958387 -0.5081546
0.37222677 -0.23879485 -0.8976296 0.6293251 -0.5448437 -0.40757182 -0.32904094 -0.010079746
-0.51029134 -0.6555874 -0.1496264 -0.4635717 0.1277022 0.40329662 0.9348094 -0.7668997
-0.70150244 0.33954802 -0.48220134 -0.03512218 0.39641497 1.0994718 0.37937713 0.020883923
-0.13935605 -0.8806645 0.14154342 0.3972729 0.49932456 -0.45227215 -0.41406384 -0.22939813
0.3220259 0.31334597 0.22341141 0.19503514 0.32549933 -0.22014782 -0.38969168 0.566749
0.011963469 -0.15012728 0.5166987 -0.2371709 0.025096321 -0.45527488 0.68985844 -0.038915183
0.070595525 -0.19641212 -0.25561315 0.5887682 0.5679082 0.4479393 -0.44485506 -0.5131607
-0.36474577 -0.14457802 -0.50125664 -0.8859288 0.24573039 -0.6008444 0.34482178 -0.26397693
0.4254578 1.1866677 0.6427011 -0.27981898 0.09436299 -0.21898188 -0.6491158 0.30273983
0.78308237 0.8194078 0.23834006 0.43986163 0.14299941 -0.6499879 -0.22152574 -0.65454966
-0.4627196 -0.22682182 -0.21198328 -0.16564383 -0.2675833 0.24784483 0.06123678 -0.21048185
-0.73903877 -0.19724405 0.5308231 0.014131074 0.48586494 -0.38364613 -0.19242887 -0.4314848
-0.41746333 0.35628626 0.5862152 0.56859314 -0.2968522 -0.025119603 0.0970666 -0.4797141
0.21845005 0.3353772 0.054601263 -0.2939069 0.30992597 -0.3299913 -0.26688212 -0.15443708
