5DVAE_Ch1_200.pth (torch, 555992 bytes, 14 tensors)

encoder_z.fc_layers.0.weight f4 [128, 400]
0	0x3cd8ad04	0.026449688
1	0x3e1284cc	0.1430847
2	0x3dd2fbbe	0.10301922
3	0x3d86ab4c	0.06575641
4	0x3eab78ed	0.33490697
5	0x3e82aea4	0.25523865
6	0x3dbc1ac6	0.09184794
7	0x3e8ab7ec	0.27093446
8	0xbdbe6293	-0.09296145
9	0x3e10820f	0.14112113
10	0x3eaf85bd	0.34281722
11	0x3e8aa91f	0.27082154
12	0x3c802ea4	0.01564724
13	0x3d615ac2	0.055018194
14	0xbc2ca8f7	-0.010538331
15	0x3e17623b	0.14783566
16	0xbe811951	-0.25214627
17	0x3ce1b203	0.027550703
18	0x3d9f15c6	0.07767825
19	0xbe30b6c0	-0.17257214
20	0xbda2784d	-0.07933102
21	0xbd57a16f	-0.05264419
22	0xbcda04a5	-0.026613543
23	0x3b5804c5	0.0032961827
24	0x3d49ced8	0.049269527
25	0x3e9dcf63	0.30822286
26	0x3d847870	0.06468284
27	0x3e721cc1	0.23643781
28	0x3ed1e4e0	0.4099493
29	0x3da4a191	0.08038629
30	0x3e6862aa	0.22693887
31	0x3e108557	0.14113365
32	0xbe3694e1	-0.1783023
33	0xbeb8200a	-0.35961944
34	0xbeab1fc9	-0.33422688
35	0xbe69bce5	-0.22825964
36	0xbe1c70be	-0.15277383
37	0x3e10cf6f	0.1414163
38	0x3e642f96	0.22283778
39	0x3ed1368c	0.40861928
40	0x3ed2aa8e	0.41145748
41	0x3e50ed42	0.20403007
42	0x3e98672a	0.29766208
43	0xbdb7a817	-0.089676075
44	0x3e0c1d31	0.1368301
45	0x3e2fbcdb	0.17161886
46	0x3ea93150	0.33045435
47	0xbd134f87	-0.035964515
48	0xbe307033	-0.172303
49	0x3ddeec57	0.10884922
50	0x3e05e8ca	0.13077083
51	0x3e48f04c	0.19622916
52	0x3d9d02c6	0.076665446
53	0x3ec9bd6a	0.39402324
54	0x3e790da3	0.24321608
55	0xbe58b436	-0.21162495
56	0xbe3c1b5f	-0.18369816
57	0xbdc9f137	-0.09860461
58	0xbec6a125	-0.3879482
59	0xbe9759ad	-0.29560605
60	0xbe836c2e	-0.25668472
61	0xbe34ee23	-0.17668967
62	0xbeab78c2	-0.33490568
63	0x3e523cda	0.20531026
64	0x3f033857	0.5125784
65	0x3ec9914f	0.39368674
66	0x3e0ede2e	0.13951942
67	0x3d1c950c	0.03822808
68	0x3ebab653	0.36467227
69	0x3dc53eb7	0.096311025
70	0x3d2e356a	0.04253141
71	0x3cb1c6bb	0.021701207
72	0xbe22af6c	-0.1588723
73	0x3e0b49c7	0.13602363
74	0x3dfb2ec7	0.122647814
75	0x3e246b42	0.1605654
76	0x3f05b5d6	0.52230585
77	0x3e7e9f9b	0.24865572
78	0x3e211540	0.15730762
79	0xbe5a4c50	-0.21318173
80	0xbe2df0a3	-0.16986327
81	0xbd856f21	-0.06515337
82	0xbe140273	-0.1445406
83	0xbec254a1	-0.37955192
84	0xbeb92549	-0.3616126
85	0xbe759fdf	-0.23986767
86	0x3e2cd1f9	0.16876973
87	0x3f0667c8	0.5250211
88	0x3e45f78a	0.1933271
89	0x3ea872f9	0.32900217
90	0x3f2b6215	0.66946536
91	0x3f44bda5	0.76851875
92	0x3cd3ee60	0.025870502
93	0xbe1ee5c4	-0.15517336
94	0xbe6eacbd	-0.23308082
95	0xbf0173dd	-0.5056742
96	0xbe77fa51	-0.24216582
97	0xbe8d9bed	-0.27658024
98	0xbdb471c7	-0.08810764
99	0xbbca082e	-0.006165526
100	0xbe11538f	-0.14192031
101	0x3f2470ed	0.6423481
102	0x3f4e460b	0.8057563
103	0x3e40d19e	0.18829963
104	0xbdba2a17	-0.09090059
105	0x3c7f1dd2	0.015571075
106	0xbc956f56	-0.018241566
107	0x3d915c87	0.07097726
108	0xbd00c2e4	-0.031435862
109	0xbd902ceb	-0.070398174
110	0xbdb9a3f7	-0.09064477
111	0x3e84929a	0.25893098
112	0x3d9595f1	0.0730399
113	0x3ea2c86f	0.31793544
114	0x3f2e02a5	0.67972785
115	0x3e085688	0.13314259
116	0x3e86625d	0.2624692
117	0xbd9f2e34	-0.077724844
118	0x3d9fc584	0.07801345
119	0xbe64bec9	-0.22338404
120	0x3c9b9ba1	0.018995108
121	0xbecf9625	-0.4054424
122	0x3d4c6484	0.049900547
123	0xbe70df6d	-0.2352273
124	0xbd04f6ca	-0.03246192
125	0xbd96fc6c	-0.073723644
126	0xbdbb4b2b	-0.091451965
127	0xbe0febba	-0.14054766
128	0xbd2fed07	-0.042950656
129	0x3e844112	0.25830895
130	0x3ed8ec26	0.42367667
131	0x3f2aa883	0.6666338
132	0x3f25831d	0.6465319
133	0x3f258d8c	0.6466911
134	0x3f3eed4c	0.74580836
135	0x3f256a44	0.64615273
136	0x3ecf595d	0.40497866
137	0x3ebc35cc	0.36759794
138	0x3ead3dee	0.3383631
139	0x3e3912ae	0.18073532
140	0xbd95fef9	-0.07324023
141	0xbebdd555	-0.37076822
142	0xbf049d6e	-0.5180272
143	0xbf2f6645	-0.68515426
144	0xbf387eac	-0.72068286
145	0xbf2b1f14	-0.66844296
146	0xbeef34e8	-0.46720052
147	0xbe97de4b	-0.29661784
148	0xbdaaa945	-0.08333067
149	0x3e2b933e	0.16755387
150	0x3ed4611b	0.41480336
151	0x3f2911a3	0.66042536
152	0x3f46b93f	0.77626413
153	0x3f32ed15	0.6989301
154	0x3edb922b	0.42884955
155	0x3d42f041	0.047592405
156	0xbc7dd082	-0.015491607
157	0xbdd03ab2	-0.10167445
158	0xbcf48f83	-0.029853588
159	0xbcd83f6a	-0.026397426
160	0xbcbf4144	-0.02334655
161	0xbda85297	-0.08218878
162	0xbe3be042	-0.18347266
163	0xbe75393a	-0.23947611
164	0xbe5c3e98	-0.21508253
165	0xbe29d5c1	-0.16585447
166	0xbdcd8fc0	-0.10037184
167	0x3d2999a8	0.041406304
168	0x3d33ce85	0.043898124
169	0x3e296aaa	0.16544595
170	0x3e8607ce	0.2617783
171	0x3e6a9c3a	0.22911158
172	0x3e989994	0.2980467
173	0x3e9716fa	0.29509717
174	0x3e71bdc7	0.2360755
175	0x3e919449	0.28433445
176	0x3e7c1811	0.24618556
177	0x3e5c77d8	0.21530092
178	0x3e73dd45	0.23814876
179	0x3dda9475	0.10672847
180	0x3e3f57c2	0.1868582
181	0x3e078e62	0.13237908
182	0x3e09edef	0.1346967
183	0x3de101f6	0.10986702
184	0x3db8e513	0.090280674
185	0x3d4b7c10	0.049678862
186	0xbdce570d	-0.10075197
187	0xbe43a42b	-0.19105594
188	0xbe9bd804	-0.30438244
189	0xbe5e2a22	-0.2169576
190	0xbe81d6fe	-0.2535934
191	0xbe962a04	-0.2932893
192	0xbeb54e69	-0.35411385
193	0xbe4af15c	-0.19818634
194	0xbe2da853	-0.16958742
195	0xbddf7ba5	-0.10912255
196	0xbdd6b6b6	-0.10484068
197	0x3d1ac925	0.037789483
198	0x3dead0bc	0.11465594
199	0x3e6f8f8a	0.233946
200	0x3ece0958	0.40241504
201	0x3f072a9e	0.52799404
202	0x3f0b97c3	0.54528445
203	0x3e932ab5	0.2874352
204	0x3ea27e93	0.31737193
205	0x3eef25bd	0.4670848
206	0x3e44773f	0.19186114
207	0x3e92f2ab	0.28700766
208	0x3e52f1a2	0.20599988
209	0x3e61c486	0.22047624
210	0x3e83c730	0.25737906
211	0x3dd93426	0.1060565
212	0x3eb75cd7	0.3581302
213	0x3e92367c	0.28557193
214	0x3eb69061	0.35657027
215	0x3daed490	0.08536637
216	0x3da3e7ed	0.08003221
217	0x3dd90694	0.10596958
218	0x3eb02688	0.34404397
219	0x3ef57f00	0.47948456
220	0x3f08adc4	0.53390145
221	0x3f22b5fb	0.6355893
222	0x3efc6a34	0.49299777
223	0x3e6e7c90	0.23289704
224	0xbdbe4878	-0.09291166
225	0xbe0bb097	-0.13641582
226	0xbe7def3a	-0.24798289
227	0xbe9bd542	-0.3043614
228	0xbea86446	-0.32889003
229	0xbe9a26b2	-0.30107647
230	0xbe1b4b49	-0.15165438
231	0x3c9b2228	0.018937185
232	0x3d20156a	0.039082922
233	0xbcc689cd	-0.02423563
234	0x3e1b851a	0.15187493
235	0x3e905f54	0.2819773
236	0x3e8c591e	0.2741174
237	0x3e91ca5c	0.284747
238	0x3e9b7232	0.30360562
239	0x3f17158d	0.5901726
240	0x3ec621f3	0.38697776
241	0x3e7a938a	0.24470344
242	0x3e12c629	0.14333405
243	0x3dab30bb	0.08358904
244	0x3dbda406	0.092598006
245	0x3cafbfd7	0.021453781
246	0x3d76f278	0.06028983
247	0x3e5c2032	0.21496657
248	0x3ebaf10c	0.3651203
249	0x3f6177d1	0.8807345
250	0x3f35994a	0.70937026
251	0x3f25e18f	0.647973
252	0x3f46aeb9	0.77610356
253	0x3f511a38	0.8168063
254	0x3f031fb4	0.5122025
255	0x3c5da929	0.0135291

encoder_z.fc_layers.0.bias f4 [128]
0	0x3fa49e46	1.2860801
1	0x3fca8847	1.5822839
2	0x3c873b1d	0.01650768
3	0x3fa45baf	1.284048
4	0x3f56c1e0	0.8388958
5	0xbfa5ea5e	-1.2962148
6	0xbd3c5a0a	-0.045984305
7	0x3fee3885	1.8610998
8	0xbebb7c2b	-0.3661817
9	0xbbbb95fa	-0.0057246657
10	0xbf95fe5c	-1.1718249
11	0x3fe18695	1.7619196
12	0xbedf6075	-0.43628278
13	0x3f3e476b	0.74327725
14	0xbf802d5b	-1.0013841
15	0xbcb09f34	-0.021560289
16	0x3c4f1ca6	0.012641108
17	0xbc9f58fc	-0.01945161
18	0x3f26490f	0.6495523
19	0xbc6d5358	-0.014485203
20	0xbbb872ef	-0.0056289355
21	0x3c06385a	0.008192146
22	0xbf710963	-0.9415495
23	0x3c6c40bd	0.014419732
24	0xbeb653b1	-0.35610726
25	0x3f93197a	1.149215
26	0x3f0826c5	0.5318416
27	0x3f9a8ec2	1.2074816
28	0xbfd9f7f4	-1.7028794
29	0x3ccb4957	0.024815245
30	0x3f5e4737	0.86827415
31	0xbf978311	-1.1836873
32	0x3ee51f5a	0.44750482
33	0xbfa1dcf1	-1.2645551
34	0x3fb504b9	1.4142066
35	0xbfef7e3a	-1.8710396
36	0xbf6ae281	-0.9175187
37	0x3e05f174	0.13080388
38	0x3c8ea102	0.017410759
39	0xbf2d00bc	-0.67579246
40	0xbdf1aca4	-0.11800507
41	0x3f4c2df8	0.7975764
42	0xbeed2383	-0.46316156
43	0x4012429f	2.2853162
44	0xbb908e34	-0.004411483
45	0x3c03dbb3	0.008047986
46	0x3fc42eb8	1.5326757
47	0x3d0dcfa4	0.03462185
48	0x3f0784a6	0.5293678
49	0x3f622751	0.8834124
50	0xbe5d7ff0	-0.21630836
51	0xbc83ea39	-0.016102897
52	0x3fb87119	1.4409515
53	0xbf0d4878	-0.55188704
54	0x3ff79e6d	1.9345223
55	0x3fd9a2c3	1.7002796
56	0x3f42ae8d	0.76047593
57	0xbf1a2536	-0.6021303
58	0xbf8ac71f	-1.0842017
59	0x3c54d9fd	0.012991426
60	0x3b36be8f	0.0027884578
61	0x3e8bc674	0.27299845
62	0xbcd26725	-0.025683949
63	0x3ca60617	0.020266576
64	0xbd533bbb	-0.051570635
65	0x3cf53724	0.02993352
66	0xbf53526e	-0.8254765
67	0xbb779150	-0.0037775822
68	0x3de02800	0.109451294
69	0x400061d8	2.005972
70	0x3f84c760	1.0373344
71	0x3e60da6b	0.2195832
72	0x3fac2fae	1.3452051
73	0x3f170558	0.5899253
74	0xbfe2d5e5	-1.7721525
75	0x4039e9eb	2.9049022
76	0xbfef1602	-1.8678591
77	0x3f447844	0.7674601
78	0x3b1bb37d	0.0023758106
79	0xbf81e764	-1.014874
80	0x3eb43550	0.35196924
81	0xbe45daaf	-0.19321702
82	0x3f59845c	0.8496759
83	0xbf593ed2	-0.8486148
84	0xc0303a19	-2.753546
85	0x3b960b7c	0.0045790058
86	0xbff3edd6	-1.9056957
87	0x3f050765	0.5196441
88	0x3e29c1f6	0.16577896
89	0xbbdcb0f8	-0.0067349635
90	0x3ee7dcf8	0.45285773
91	0xbf9a4814	-1.2053246
92	0xbc979b03	-0.018506533
93	0x3f2716f8	0.6526942
94	0xbfac402d	-1.3457085
95	0x3e28c1e1	0.16480209
96	0x3e068ab4	0.13138849
97	0x3f4340a2	0.76270497
98	0x402cc38f	2.699436
99	0x3ee62bb1	0.4495521
100	0x4019bc37	2.4021127
101	0x3f4de528	0.8042779
102	0x3fa567b7	1.2922276
103	0x3c1742c3	0.009232226
104	0xbfa6bdfe	-1.3026731
105	0xbf05d74f	-0.5228166
106	0xbee82d0b	-0.45346865
107	0x3ff512e0	1.9146385
108	0xbb1dee96	-0.0024098507
109	0xc03ddcf7	-2.9666116
110	0xbcd6b8e9	-0.026211219
111	0x3de26cd4	0.110559136
112	0xbff0d7c3	-1.8815845
113	0x3f1ad6b2	0.6048385
114	0xbf14bb58	-0.58098364
115	0x3f24a6db	0.643171
116	0xbe261973	-0.16220646
117	0xbac903b8	-0.0015336191
118	0xbfdeac91	-1.7396413
119	0xbf2676e5	-0.6502517
120	0xbe4cfb3a	-0.2001771
121	0x3e8c4b93	0.2740141
122	0xbebbba0b	-0.36665377
123	0xbf5c3c5d	-0.8602961
124	0x3cb6f275	0.02233241
125	0xbc992bdb	-0.01869767
126	0x40222f87	2.5341508
127	0x3b5de82e	0.0033860314

encoder_z.fc_layers.2.weight f4 [128, 128]
0	0x3f6b9903	0.9203035
1	0x3ec687e5	0.38775554
2	0xbe07e3b9	-0.13270463
3	0x3f8b36c6	1.087609
4	0x3f6621fe	0.8989562
5	0x3de125c9	0.10993535
6	0x3c82085e	0.01587313
7	0x3e4eb3ea	0.2018582
8	0xbf7680cb	-0.9629027
9	0xbd1dcd74	-0.038526013
10	0xbf7b9480	-0.9827347
11	0x3eb2626e	0.3484072
12	0xbd8cf234	-0.06882134
13	0xbe83ce3c	-0.25743282
14	0xbee79170	-0.45228148
15	0x3cc898d0	0.02448693
16	0x3d07df7d	0.03317212
17	0xbd38ef74	-0.045150235
18	0xbcf1924e	-0.029488709
19	0xbd89a2cb	-0.067205034
20	0xbe1ad5ba	-0.15120593
21	0x3d7b36c7	0.061331537
22	0x3f1ea9de	0.61977947
23	0x3e0048a9	0.12527718
24	0xbee36ddf	-0.44419762
25	0xbf10ca3e	-0.565586
26	0xbe9af775	-0.3026692
27	0x3f49a1c4	0.7876246
28	0xbdc0083f	-0.09376573
29	0xbd7c92eb	-0.06166355
30	0xbd69dfe3	-0.05709828
31	0xbe6d5175	-0.23175605
32	0x3f892e89	1.0717326
33	0x3ab9049d	0.0014115755
34	0x3e81f9e9	0.2538598
35	0x3e0bfd6d	0.13670893
36	0xbf36fe40	-0.71481705
37	0xbe2eaa58	-0.17057168
38	0x3e10f7cb	0.14157026
39	0x3e3b9972	0.18320253
40	0xbe383e9c	-0.17992634
41	0xbd9ba9de	-0.07600759
42	0xbdd25be7	-0.10271435
43	0xbe736c94	-0.23771888
44	0x3dfcbb7b	0.123404466
45	0x3ce06803	0.027393347
46	0x3e24f650	0.16109586
47	0x3dcfbc42	0.10143329
48	0xbebd0b3d	-0.36922637
49	0xbc77e375	-0.015129914
50	0x3d5d3a4f	0.054010686
51	0x3d21bf27	0.039488938
52	0x3e8d84b6	0.27640313
53	0x3e585693	0.21126775
54	0xbdc0de60	-0.09417415
55	0x3eb2e6a6	0.34941596
56	0xbf326c7f	-0.696968
57	0xbde7defe	-0.11321829
58	0xbee9e470	-0.45682096
59	0x3df8ed65	0.121546544
60	0xbe12f659	-0.14351787
61	0x3f05fcdb	0.5233895
62	0xbddcee78	-0.10787672
63	0xbd04eff3	-0.032455396
64	0xbe5e5769	-0.21713032
65	0xbd5a2e20	-0.053266644
66	0x3e58c042	0.2116709
67	0xbdcc056b	-0.09961971
68	0xbec1de77	-0.3786504
69	0x3dd0c158	0.101931274
70	0xbebbd717	-0.36687538
71	0x3f3d5a21	0.7396565
72	0x3ede4c00	0.43417358
73	0x3f37ced5	0.71799976
74	0xbf12b7a5	-0.5731147
75	0x3e70ce6f	0.23516248
76	0xbe7ff639	-0.2499627
77	0x3f438368	0.76372385
78	0xbcd45475	-0.025919179
79	0xbf41c31f	-0.75688356
80	0xbd0ac0ac	-0.033875152
81	0x3f121a8f	0.57071775
82	0xbe30ed78	-0.17278087
83	0xbd8610dd	-0.06546185
84	0x3d376c5e	0.04478108
85	0xbc688cb7	-0.014193705
86	0xbf35dfae	-0.71044433
87	0x3d0a6c3a	0.03379462
88	0x3e11e955	0.14249165
89	0x3e6011f1	0.21881844
90	0x3e81cd29	0.25351837
91	0xbf498752	-0.7872211
92	0xbd59baf0	-0.053156793
93	0x3e571c8d	0.21006985
94	0x3e9d00c0	0.30664635
95	0x3e194a92	0.14969853
96	0x3ec13333	0.37734374
97	0xbee27eec	-0.4423746
98	0x3fa5195f	1.2898368
99	0xbea42730	-0.32061148
100	0x3f31187d	0.6917799
101	0xbe8d51fe	-0.27601618
102	0x3c4b6bb8	0.012415819
103	0xbe5a359e	-0.21309516
104	0x3e63422b	0.2219321
105	0x3dee64bf	0.116403095
106	0x3ef29c36	0.47384804
107	0x3e812542	0.25223738
108	0xbc0cbef6	-0.0085904505
109	0xbf4d65b1	-0.80233294
110	0x3e26f830	0.16305614
111	0x3e496ffe	0.19671628
112	0xbed2c1ff	-0.41163632
113	0x3f5cf091	0.86304575
114	0xbe755a02	-0.23960117
115	0x3e1ca169	0.15295948
116	0xbdf1a3a9	-0.11798794
117	0xbd48d4ec	-0.049031183
118	0xbe75f251	-0.24018218
119	0xbf29e23d	-0.6636084
120	0x3ee273c6	0.44228953
121	0x3e9996f8	0.29997993
122	0xbe704f34	-0.23467714
123	0xbee51e2e	-0.44749588
124	0x3e068f2e	0.13140556
125	0xbce12a68	-0.027486041
126	0x3d8d644d	0.069038965
127	0x3dd781a3	0.10522773
128	0xbd2b6da7	-0.04185262
129	0x3b927aac	0.00447019
130	0x3c24d912	0.010061519
131	0x3cf22e7d	0.029563183
132	0x3c1daa8f	0.009623184
133	0x3ca5b8aa	0.020229656
134	0x3bc3030b	0.0059512905
135	0xbc303cfd	-0.010756728
136	0x3cce4bcb	0.025182625
137	0xbcd33318	-0.0257812
138	0x399f7669	0.00030415066
139	0xbade3e42	-0.001695581
140	0x3c3783c7	0.011200852
141	0xbc1851b6	-0.009296825
142	0x3c850310	0.016236812
143	0x3c1a89b5	0.009432246
144	0x3c19f21e	0.009396104
145	0xbbd3ea64	-0.0064671505
146	0xbc39d0d1	-0.01134129
147	0x3d39bc90	0.045345843
148	0x3c2d3b46	0.010573214
149	0xbbf15d1d	-0.0073658363
150	0x3cb22f45	0.021751055
151	0x3c26a457	0.010171018
152	0x3d1143fa	0.035465218
153	0xbc8fe27a	-0.017564047
154	0xbca4e264	-0.020127483
155	0xbd01d54e	-0.031697564
156	0xbcfba542	-0.03071845
157	0xbbdab634	-0.0066745523
158	0xbd00376b	-0.03130285
159	0xbbbf4fd3	-0.005838373
160	0xbcaa2978	-0.020771727
161	0xbc97cf1f	-0.01853138
162	0x3cafdfa4	0.021468945
163	0x3b94cd38	0.0045410655
164	0xbb7895d1	-0.0037931094
165	0xbb7cd473	-0.0038578778
166	0xbcbfad7e	-0.023398157
167	0x3c5066c1	0.012719811
168	0x3c4dd9ce	0.012564136
169	0x3ce209ee	0.027592625
170	0x3bb35664	0.005472945
171	0xbc37ca2a	-0.011217633
172	0xbc6c9272	-0.014439212
173	0xbcb3588a	-0.021892805
174	0xbd413d1a	-0.04717741
175	0xbb4a3066	-0.0030851602
176	0x3d1c895b	0.03821693
177	0x3ba3feb0	0.0050047264
178	0xbc0cbd1d	-0.00859001
179	0xbc81fda9	-0.015868025
180	0xbd27b191	-0.040940825
181	0x3cbdbea1	0.023162188
182	0xba930c93	-0.0011218957
183	0x3b571c22	0.0032823165
184	0x3cd46bea	0.025930364
185	0x3d0811b1	0.033219997
186	0xbc08983e	-0.008337079
187	0x3c5c7534	0.013455678
188	0xbd6771f2	-0.05650515
189	0x3b6d0c5c	0.0036170697
190	0xbc969670	-0.018382281
191	0x3cb8921d	0.02253061
192	0x3c59d2b2	0.013294863
193	0xba0604b7	-0.0005112397
194	0x3c892d4f	0.016745238
195	0x3aa41550	0.0012518559
196	0xbd995eb5	-0.07488767
197	0xbcd9b712	-0.026576553
198	0x3cc5a617	0.02412705
199	0x3c8eb72b	0.017421326
200	0x3c95728f	0.018243102
201	0xbc1218ce	-0.008917047
202	0x3c859d3b	0.016310325
203	0x3cef5a35	0.029217819
204	0x3c115e1f	0.008872538
205	0x3c3295a8	0.010899939
206	0x3a25ed59	0.0006329618
207	0x3b6fd3b5	0.0036594693
208	0xbd012641	-0.031530622
209	0xbc541a57	-0.012945733
210	0x3abe4c7b	0.0014518643
211	0xbbf4e0c2	-0.0074730823
212	0xbc8a9a1d	-0.01691919
213	0x3a5426e4	0.00080929534
214	0x3cc88a7f	0.024480103
215	0x3c87fc47	0.016599787
216	0xbc039768	-0.0080317035
217	0xbc383960	-0.011244148
218	0xbd0e9408	-0.034809142
219	0x3be488e1	0.006974325
220	0x3cad9473	0.02118895
221	0x3c904e11	0.01761535
222	0x3c134487	0.008988506
223	0x3b153693	0.0022768124
224	0xbc817e4c	-0.015807293
225	0xbcba714f	-0.022759108
226	0x3c975311	0.018472226
227	0x3b6889af	0.0035482456
228	0x3c97516a	0.018471438
229	0xbaa97443	-0.0012928325
230	0x3c51c599	0.012803459
231	0x3cf46047	0.029831065
232	0x3c506fb0	0.012721941
233	0xbc738c78	-0.014865033
234	0xbd0ba7c3	-0.034095537
235	0xbd1cfb2a	-0.038325466
236	0x3d2c1503	0.042012226
237	0x3c1b4249	0.009476253
238	0x3ce1313d	0.027489299
239	0xbcd94ddb	-0.026526382
240	0x3b6bd5a7	0.00359855
241	0xbc95cad2	-0.018285189
242	0xbc04753c	-0.0080845915
243	0x3b93da84	0.004512133
244	0xbc4b9cb6	-0.0124274995
245	0xbcd2fce7	-0.025755359
246	0x3d08df49	0.033416066
247	0x3d013033	0.031540107
248	0xbc64e52d	-0.013970655
249	0x3c08351c	0.0083134435
250	0xbcfdb328	-0.030969217
251	0x3ab771fd	0.0013995763
252	0x3bc6e77e	0.0060700765
253	0xbc2153ef	-0.0098466715
254	0xbc488408	-0.01223851
255	0x3ca74974	0.020420767

encoder_z.fc_layers.2.bias f4 [128]
0	0x3f7caeea	0.987044
1	0x3c470d85	0.012149219
2	0xbf3e82e9	-0.74418503
3	0xbd83accd	-0.064294435
4	0x3e605c70	0.21910262
5	0x3f82e763	1.0226864
6	0x3bc0b7cd	0.0058812858
7	0xbf69d749	-0.91344124
8	0x3f3c406a	0.7353579
9	0xbeb30743	-0.34966478
10	0xbc18bc39	-0.0093222195
11	0xb9f3135e	-0.00046363001
12	0x3e171514	0.14754134
13	0xbd589c12	-0.052883215
14	0x3f13150e	0.57454
15	0xbefa1ace	-0.48848575
16	0x3c0183c3	0.00790495
17	0x3da97c07	0.082756095
18	0x3d3ea78b	0.0465465
19	0xbc418d85	-0.011813526
20	0x3bf96b90	0.0076116994
21	0xbdb1fc5b	-0.08690711
22	0x3eb136de	0.34612173
23	0x3d4eaf04	0.050459877
24	0xbd16cffa	-0.036819436
25	0x3c4a2f75	0.012340416
26	0xbeca41f5	-0.39503446
27	0xbde8c1e6	-0.11365108
28	0xbeb7aa26	-0.35872
29	0xbee03e18	-0.43797374
30	0x3f0ea7d2	0.55724823
31	0xbe30cb67	-0.17265092
32	0x3cc00ab9	0.023442613
33	0x3c39dfbb	0.011344845
34	0xbd2f7e5a	-0.042845108
35	0x3ed35a19	0.41279677
36	0xbd8ab7a4	-0.06773308
37	0x3d774317	0.060366716
38	0xbdb1e2ce	-0.08685838
39	0x3c15b88c	0.009138238
40	0x3ec0a9d4	0.3762957
41	0x3d66c93f	0.056344267
42	0x3ec35bdb	0.38156018
43	0x3df50315	0.119634785
44	0x3d2a3c06	0.04156115
45	0x3e9bbf50	0.30419397
46	0xbae8cffc	-0.001776218
47	0x3b2af68c	0.0026086895
48	0x3d96cd7f	0.07363414
49	0xbeec6a91	-0.46175054
50	0x3d20e21a	0.039278127
51	0x3e81e9c5	0.25373664
52	0x3f017190	0.5056391
53	0x3ea26de8	0.31724477
54	0x3ed961d5	0.42457452
55	0x3bf0806a	0.007339527
56	0xbc0966f3	-0.008386361
57	0x3da6de1e	0.08147834
58	0x3ee272c3	0.4422818
59	0x3cd12ac4	0.025533088
60	0x3d2385fe	0.039922707
61	0x3dd163e3	0.1022413
62	0xbe34aa83	-0.1764317
63	0xbd085c27	-0.03329101
64	0x3f04c05e	0.5185603
65	0xbf037304	-0.51347375
66	0xbdaacdae	-0.083400115
67	0x3e9b7488	0.30362344
68	0x3c5e3474	0.0135623105
69	0x3f43e930	0.7652769
70	0xbc34f2df	-0.011044233
71	0x3df2efb7	0.11862128
72	0xbf50e2d5	-0.8159612
73	0xbd26c909	-0.040719066
74	0x3ddb0df3	0.1069602
75	0x3edbac3e	0.42904848
76	0xbe5e14d1	-0.21687628
77	0xbd13f4a4	-0.03612198
78	0x3c6829f8	0.014170162
79	0x3da16d5f	0.07882189
80	0xbf1f8237	-0.6230807
81	0xbd17bdf2	-0.03704638
82	0x3f4f5f3b	0.81004685
83	0x3f099784	0.5374682
84	0xbe74fa20	-0.2392354
85	0x3ef4c6f2	0.47808033
86	0xbdb4d137	-0.08828967
87	0x3cb3c8cd	0.021946335
88	0x3cbf241f	0.023332654
89	0xbd7e9619	-0.062154863
90	0xbc53b1ef	-0.012920841
91	0x3d073fe3	0.03301991
92	0xbd5a9ad4	-0.05337031
93	0x3e3a5ff7	0.1820067
94	0xbd170450	-0.036869347
95	0xbdfc8ad7	-0.12331169
96	0xbd1b6829	-0.03794113
97	0xbe8208cf	-0.25397345
98	0x3cef6abf	0.029225705
99	0xbd78fd23	-0.060788285
100	0x3ec2771c	0.37981498
101	0x3eb9cbde	0.3628835
102	0xbe3a8268	-0.18213809
103	0xbccd659f	-0.02507287
104	0x3d356420	0.04428494
105	0xbee257cc	-0.4420761
106	0x3d50906d	0.050918985
107	0x3d59cf59	0.053176258
108	0x39f981f0	0.00047589792
109	0xbd86f771	-0.065901645
110	0x3def102e	0.11673008
111	0x3d67fab4	0.056635574
112	0xbde7f7e5	-0.11326579
113	0xbe30b65e	-0.17257068
114	0x3ed61279	0.4181097
115	0xbe5b8ac5	-0.21439655
116	0xbf7d020d	-0.98831254
117	0xbbd54907	-0.0065089497
118	0x3f441c96	0.7660612
119	0x3ed31524	0.41227067
120	0x3ce7b9ea	0.028286893
121	0xbc96f1ab	-0.018425783
122	0x3da48733	0.080336
123	0xbd92616b	-0.07147487
124	0x3d82ae8a	0.06380947
125	0x3c0b5f4e	0.008506609
126	0x3e2ed66e	0.17073986
127	0x3f43742e	0.7634915

encoder_z.fc11.weight f4 [4, 128]
0	0x3cc17f56	0.023620289
1	0x3bb112e7	0.0054038647
2	0xba068b13	-0.0005132418
3	0x3b236550	0.0024932213
4	0x3b8b347e	0.004248201
5	0xbd819622	-0.06327464
6	0x3b1cd04a	0.002392786
7	0x3c8d148c	0.017221712
8	0xbb06a114	-0.0020542787
9	0xba2ce487	-0.00065953325
10	0x3c3b6b67	0.011439181
11	0x3c571285	0.013126974
12	0xba8061ec	-0.0009794808
13	0xbc8dde91	-0.017318042
14	0xbb2f3adc	-0.0026737964
15	0xbbee420f	-0.0072710584
16	0xbb413b08	-0.0029484648
17	0xba1c056a	-0.00059517345
18	0x3c516b0b	0.012781869
19	0xbbb30e9c	-0.005464388
20	0x3b26cd2f	0.0025451889
21	0x3ca39e10	0.019972831
22	0xbc9a3f6c	-0.01882907
23	0xbba56d5c	-0.005048437
24	0xbb4b65a5	-0.0031035927
25	0x3b604e30	0.003422629
26	0xbba236f8	-0.0049504004
27	0xbc1c5b61	-0.009543271
28	0xbbb35b18	-0.0054735057
29	0x3bd05820	0.0063581616
30	0x3cab4014	0.020904578
31	0xbb8b4e62	-0.0042512873
32	0x3b7c4c69	0.0038497692
33	0xbc818d45	-0.015814433
34	0xbb840592	-0.0040289843
35	0xbb47bef0	-0.0030478798
36	0xbc619e4c	-0.013770651
37	0x3c359f82	0.011085393
38	0x3b86bd1f	0.0041119005
39	0x3b8eab26	0.0043538986
40	0x3bc7cda9	0.0060975146
41	0x3c171e10	0.009223476
42	0xbadfeaa6	-0.001708348
43	0xbbd0f584	-0.006376924
44	0xbbb25114	-0.005441794
45	0x3be8434f	0.007088102
46	0xbb9cd252	-0.0047858143
47	0x3c584137	0.013199142
48	0xbc82fa3b	-0.01598846
49	0x3bf6ea82	0.0075352797
50	0x3c68c589	0.014207252
51	0xbc866adf	-0.016408382
52	0x3b35b3fc	0.0027725687
53	0xbb57e6a0	-0.003294386
54	0x3bcfb5cc	0.0063388105
55	0x3cbd05b4	0.023074009
56	0x3b75c6c3	0.0037502504
57	0x3c13dc37	0.009024671
58	0x3abc6c46	0.001437553
59	0xbabdaf3c	-0.001447178
60	0x3a866a5d	0.0010255087
61	0xbac47c39	-0.0014990635
62	0x3bf5bcdc	0.0074993204
63	0x39a471f0	0.00031365408
64	0xbc6af0e5	-0.01433966
65	0xbac40ddf	-0.0014957747
66	0x3b74c89b	0.0037351015
67	0xbc0283b0	-0.007965967
68	0xbc0e7535	-0.0086949365
69	0x3ab03069	0.0013442162
70	0x3be93ef4	0.0071181003
71	0x3c09efe4	0.008419011
72	0x3b625875	0.0034537588
73	0xbc0a343f	-0.008435308
74	0x3c8b9b06	0.017041694
75	0xbbc7b8f8	-0.006095048
76	0xbc754db5	-0.01497214
77	0xb9b36574	-0.0003421713
78	0xbb300ec0	-0.002686426
79	0xbc680781	-0.014161945
80	0xbbbbc99e	-0.0057308218
81	0xbb812d53	-0.0039421706
82	0xbbc90811	-0.006134995
83	0x3ba78f2a	0.005113502
84	0xbb8b4e93	-0.00425131
85	0xbb829752	-0.003985324
86	0x3a73bf73	0.00092982425
87	0x3c1d379f	0.009595781
88	0xbb2ce79f	-0.0026383174
89	0xbba2f284	-0.004972758
90	0x380c1298	3.3395918e-05
91	0xbbefb82e	-0.007315657
92	0x3c178d6e	0.009250028
93	0xbb68191c	-0.0035415357
94	0xbc0e2446	-0.00867564
95	0x3c0f4ba3	0.008746061
96	0xbbd5d6a2	-0.0065258304
97	0xbc1fb9d8	-0.009748898
98	0xbc82856a	-0.015932757
99	0x3be18645	0.0068824613
100	0xbba1936e	-0.004930905
101	0x3b95b489	0.0045686406
102	0xbbd9c032	-0.006645226
103	0x3a939ed4	0.0011262544
104	0x3b5b9924	0.0033508027
105	0xbbf897a0	-0.0075864345
106	0xba064530	-0.0005122004
107	0xbb13901c	-0.0022516316
108	0x3ad6f884	0.0016400968
109	0xb9984233	-0.00029041021
110	0xbc5b5811	-0.013387696
111	0xbaf1cabb	-0.0018447259
112	0xbbd62d44	-0.006536158
113	0x3c34082d	0.010988277
114	0x3b7ae4ad	0.0038283274
115	0xbbbe9c76	-0.0058169914
116	0xbd325fbb	-0.043548327
117	0xbb952cc3	-0.004552455
118	0xbc03d474	-0.008046258
119	0xbb35f3ec	-0.0027763797
120	0x3be9f10b	0.0071393303
121	0x3b0553ae	0.0020344066
122	0x3b59b1eb	0.003321762
123	0x3b472137	0.0030384788
124	0x3bba88ee	0.005692593
125	0xbbdd9476	-0.0067620827
126	0xbbfa0885	-0.00763041
127	0xbbc5ec8c	-0.0060401615
128	0xbe1899e3	-0.14902453
129	0xbb9bbc48	-0.0047526695
130	0xbe0c166e	-0.13680431
131	0xbbbbdbd9	-0.005732995
132	0x3dd49e8d	0.10381804
133	0xbdc42235	-0.09576837
134	0xbb206431	-0.0024473781
135	0x3e8c9f00	0.27465057
136	0x3d7c6467	0.06161919
137	0xbdceffb1	-0.10107363
138	0x3bdfccc4	0.00682983
139	0x3b5989f1	0.0033193792
140	0xbb5922ea	-0.0033132383
141	0x3a3e4fac	0.0007259797
142	0xbd0c3bf4	-0.034236863
143	0xbd0473cf	-0.032337006
144	0xbb29d364	-0.0025913352
145	0xbbf45f44	-0.0074576456
146	0xbb4e2837	-0.0031457075
147	0xb9e5fc1e	-0.00043866126
148	0xbc00c1b9	-0.007858687
149	0xbba043b7	-0.0048908847
150	0x3b3cc02e	0.0028801071
151	0xbb72f4b5	-0.0037072126
152	0xbb12eb20	-0.0022417977
153	0xbc378dd3	-0.011203247
154	0xbdae9140	-0.08523798
155	0x3b00a594	0.0019629942
156	0x3c3df849	0.01159484
157	0xbd935a67	-0.07194977
158	0xbcc8896c	-0.02447959
159	0x3cbe53fa	0.023233403
160	0x3b3db459	0.0028946607
161	0x3b1669e3	0.0022951297
162	0xbb8aef11	-0.0042399247
163	0xbcc1a509	-0.023638265
164	0x3aa9961e	0.0012938415
165	0xbb801ce0	-0.003909692
166	0x3af3ce76	0.0018600959
167	0x3beb3124	0.007177489
168	0x3d82f368	0.06394082
169	0xbba1a16d	-0.0049325735
170	0x3ddea368	0.10871011
171	0xbab9d070	-0.0014176499
172	0x3b4d88a1	0.0031361955
173	0xbd274a42	-0.040842302
174	0x3d19dfe5	0.037567038
175	0x3b09dd9a	0.0021036626
176	0x3aef9ed2	0.0018281585
177	0x3d81ddb0	0.06341112
178	0x390d1040	0.00013452861
179	0x3cbeaa88	0.023274675
180	0xbe1b18f5	-0.15146239
181	0xbe11ce5f	-0.1423888
182	0xbdacb5fe	-0.0843315
183	0xbd28f81d	-0.041252244
184	0x3b6e24cf	0.0036337858
185	0x3e2261a6	0.15857562
186	0xbdd5d7c3	-0.10441544
187	0x3a77bff9	0.00094509084
188	0xbaa2cea0	-0.0012421198
189	0xbb7216d5	-0.0036939878
190	0xbd617819	-0.055046175
191	0x3b8c6c6b	0.0042853854
192	0x3e63f509	0.22261442
193	0x3c541a11	0.012945668
194	0x3e1cba00	0.15305328
195	0x3cb4388e	0.021999624
196	0xbc8c201c	-0.017105155
197	0xbdef1ec3	-0.11675789
198	0xb60c4a68	-2.0904936e-06
199	0xbb730e4d	-0.0037087381
200	0x3e9488a8	0.2901051
201	0xbb2275cf	-0.0024789458
202	0x3b49c895	0.0030789722
203	0x3c54f56f	0.012997969
204	0xbc21fd79	-0.009887093
205	0x3baf3cb7	0.005347814
206	0x3aa7cf25	0.0012802823
207	0xba92d595	-0.0011202568
208	0xbba47085	-0.005018296
209	0x3b05bae7	0.0020405592
210	0x3e1fb009	0.15594496
211	0xbe021b7c	-0.12705797
212	0xbd7f5237	-0.062334266
213	0xbcebcd56	-0.028784435
214	0x3b0d8eea	0.0021600076
215	0x3b6f071f	0.003647275
216	0x3b32ce30	0.0027283542
217	0x3e025854	0.12729007
218	0x399af856	0.00029558194
219	0x3bc33185	0.005956831
220	0xba28acbd	-0.00064344314
221	0xb91f50f6	-0.00015193582
222	0xb9b42a19	-0.0003436364
223	0x3a95791f	0.0011403895
224	0x3bec4ba0	0.0072111636
225	0x3d3359c7	0.04378679
226	0xbb0dc2b6	-0.002163095
227	0x3bbc3d9c	0.005744649
228	0xbd83d0b2	-0.0643629
229	0x3d7f7cab	0.062374752
230	0x3d306da6	0.04307332
231	0xbbf86a61	-0.0075810407
232	0xbb90171b	-0.0043972856
233	0xbcb1b854	-0.02169434
234	0xbadd8c62	-0.0016902799
235	0x3a4b6f85	0.0007760453
236	0xbb10ec78	-0.0022113603
237	0x3ab93614	0.0014130496
238	0x38d3ac9a	0.000100934136
239	0xbb14a91a	-0.00226838
240	0xbaa6fe4e	-0.0012740584
241	0x3cbc3c8d	0.022978092
242	0x3da5ee62	0.081021085
243	0x3bd06529	0.0063597155
244	0x3e26a1ee	0.16272709
245	0xb9005668	-0.0001223922
246	0x3e03d7b7	0.12875257
247	0xbe3040d5	-0.17212231
248	0xbb454a6c	-0.0030104173
249	0xbb90c6f2	-0.0044182474
250	0xbb7b4bf9	-0.0038344844
251	0xbb2b1a47	-0.0026108192
252	0x3a1f6a6f	0.00060812285
253	0xbe222980	-0.15836143
254	0xbb546c82	-0.0032413309
255	0x3e20be97	0.15697704

encoder_z.fc11.bias f4 [4]
0	0x3bc5e407	0.006039146
1	0xbdaf7849	-0.085678644
2	0x3cc5854a	0.024111409
3	0xbd58a083	-0.05288745

encoder_z.fc12.weight f4 [4, 128]
0	0x3db1b9b7	0.086780004
1	0x3bffc075	0.007804925
2	0xbb781edb	-0.0037860188
3	0x3bb65c46	0.005565199
4	0x3c1c2a54	0.009531576
5	0x3e5bc165	0.21460493
6	0xbc57f9e8	-0.013182141
7	0x3cb98edc	0.022651128
8	0x3ca27e81	0.019835712
9	0xbc15b39a	-0.009137059
10	0xbc1cd658	-0.009572588
11	0x3c59fbc4	0.0133046545
12	0x3c2cbca7	0.010543025
13	0xbc12e0b1	-0.008964703
14	0x3c969b29	0.018384533
15	0xbc02e0f9	-0.007988208
16	0xbbe1da05	-0.006892445
17	0x3b87ad75	0.0041405507
18	0x3c6c8dae	0.014438076
19	0x3ba4b701	0.0050266986
20	0xbc2bbb16	-0.0104816165
21	0xb9dd42d4	-0.00042202196
22	0x3c7e4ef1	0.015521751
23	0x3b92b86f	0.0044775526
24	0xbc368681	-0.011140467
25	0x3c050db2	0.008120941
26	0xbc6aef99	-0.014339351
27	0xbab62c59	-0.0013898715
28	0xbba034cc	-0.0048891064
29	0x3bbc3468	0.005743552
30	0xbb2ba674	-0.0026191743
31	0xbc73523b	-0.014851148
32	0x3c16e7af	0.009210511
33	0xbc32828c	-0.010895383
34	0xbc0ccbcf	-0.008593514
35	0x3af72303	0.0018855039
36	0xbae5b674	-0.0017525689
37	0x3b1e2750	0.0024132319
38	0x3aaa1802	0.0012977126
39	0xbc099700	-0.008397818
40	0xbc6490e3	-0.013950559
41	0x3b9e6b2e	0.004834554
42	0xbc871c32	-0.016492937
43	0x3b0d0994	0.0021520602
44	0x3a10e7b3	0.000552769
45	0xba8108f9	-0.0009844593
46	0xbc098a07	-0.008394725
47	0xba335e84	-0.0006842392
48	0xbaaa16c7	-0.0012976759
49	0x3c9791b0	0.018502086
50	0xbb947702	-0.0045307884
51	0xba947197	-0.0011325356
52	0x3bf234df	0.0073915566
53	0xbb67c9d4	-0.0035368102
54	0xbc3dba59	-0.011580073
55	0x3b9b84a1	0.004746035
56	0xbc632282	-0.013863208
57	0x3c4ceab6	0.012507131
58	0x3b42a0d1	0.0029697905
59	0xb8869049	-6.416493e-05
60	0xbc0ee5ac	-0.00872175
61	0x3ca730aa	0.020408947
62	0xbbd14f73	-0.006387645
63	0x39faa32c	0.00047805288
64	0x3c039b56	0.00803264
65	0x3b8f81ea	0.0043795006
66	0x3b54ad0b	0.0032451774
67	0x3b385c8f	0.002813134
68	0xbb72537a	-0.0036976025
69	0xbc50880e	-0.01272775
70	0x398070e8	0.00024498184
71	0xbb521b41	-0.0032059702
72	0x3b7f9c3b	0.0039003033
73	0x3bcdefe0	0.006284699
74	0xb9b5d989	-0.00034685087
75	0x3c114182	0.008865716
76	0xbb2d3f0f	-0.002643529
77	0xbbc951c7	-0.006143782
78	0x3c0b4ab5	0.008501698
79	0x3b249ba9	0.0025117195
80	0xbbf74121	-0.007545606
81	0x3a9e7a7e	0.0012090949
82	0x3b919ab4	0.004443491
83	0x3a4f9d78	0.0007919888
84	0xbbb5c80a	-0.005547528
85	0xbb92a09d	-0.004474713
86	0xbadc30c8	-0.0016799206
87	0x3aa4eff9	0.0012583724
88	0xbbe47db4	-0.006972993
89	0xbb0eabee	-0.0021769959
90	0xbc07b050	-0.008281782
91	0xbbcd43f3	-0.0062642037
92	0xbaf1f9e2	-0.0018461312
93	0x3abc15ac	0.001434972
94	0x3b410859	0.0029454438
95	0xbc2477af	-0.0100383
96	0xbb6f61d9	-0.0036526828
97	0xbc0a53cb	-0.008442829
98	0x3b10345a	0.002200386
99	0xbbcfb139	-0.0063382653
100	0xbbded1b0	-0.006799899
101	0x3b0e2f43	0.002169565
102	0x3ac7d7e8	0.001524684
103	0x3a233926	0.00062264723
104	0x3c532920	0.012888223
105	0x3bf0e0ca	0.0073510157
106	0xbbf6d8e1	-0.007533178
107	0xbbb9a2e4	-0.00566517
108	0x3c265e07	0.010154254
109	0xbc87d2a3	-0.016579932
110	0xbbdde9cb	-0.006772255
111	0x3b92e828	0.0044832416
112	0xbbddc898	-0.0067682974
113	0xbc768d5a	-0.015048349
114	0x3c273e89	0.010207781
115	0x3c5f589b	0.013631965
116	0xbe1c69bf	-0.15274714
117	0xbb739e4e	-0.0037173214
118	0x3b5666d1	0.0032715092
119	0x3c0a3de6	0.008437609
120	0xbab8ab9d	-0.0014089231
121	0x3c3c8f70	0.011508808
122	0xbbe7b4ca	-0.0070711123
123	0x3c93fa16	0.018063586
124	0x39434428	0.0001862204
125	0xbbcef10a	-0.006315355
126	0xbc35d60a	-0.011098394
127	0x3c3982ce	0.01132269
128	0xbd397248	-0.045275003
129	0x3b4dabe6	0.0031382977
130	0x3e80859d	0.2510194
131	0xbb898243	-0.0041964366
132	0x3db6b572	0.08921327
133	0xbe324543	-0.17409234
134	0x3bf46a13	0.007458934
135	0xbcb99138	-0.022652254
136	0x3b043577	0.002017347
137	0x3dd505cb	0.104014955
138	0xbbb00d8b	-0.005372708
139	0x3ac85c87	0.0015286364
140	0xbb13e6ef	-0.0022568067
141	0xbbe865c8	-0.0070922114
142	0xbe190759	-0.14944209
143	0x3db5661d	0.08857367
144	0xbc19fb88	-0.009398349
145	0xbacc62d6	-0.001559342
146	0xba0a0cc7	-0.0005266186
147	0xba8dce96	-0.0010819014
148	0xb96ea866	-0.00022760182
149	0x3aaf4b76	0.001337393
150	0xbd66136c	-0.056170866
151	0x3bad6f9e	0.005292847
152	0x3b5b9f72	0.0033511785
153	0x3a7d70d7	0.00096679985
154	0x3d23c49c	0.039982423
155	0xbbe2de25	-0.0069234543
156	0x3e0c709d	0.13714834
157	0xbd73b40f	-0.05949789
158	0xbcd3ede0	-0.025870264
159	0xbd3ad885	-0.045616645
160	0x3b98815e	0.0046540936
161	0x3b309cc5	0.002694891
162	0xbb30574f	-0.0026907509
163	0xbdc69f30	-0.09698331
164	0xba957b23	-0.0011404495
165	0xb99d5b17	-0.0003001324
166	0x3a6c8d2a	0.00090237206
167	0x3abc79ea	0.0014379595
168	0xbdd1eb7d	-0.10249994
169	0xbb0cb1ce	-0.0021468285
170	0xbe35ef9d	-0.17767186
171	0xbbe2761c	-0.0069110524
172	0xbbe82856	-0.0070848865
173	0x3e6b21d9	0.2296213
174	0xbdcd7d46	-0.1003366
175	0x3a43e3ba	0.00074725936
176	0xbbf7bf40	-0.0075606406
177	0x3daae18f	0.08343803
178	0x3b841ff5	0.00403213
179	0xbd8621fc	-0.06549451
180	0xbdc4c67f	-0.096081726
181	0xbdb14493	-0.086556576
182	0xbdd51b72	-0.104056254
183	0x3d4a3f22	0.049376614
184	0x3bc640eb	0.0060502193
185	0x3dc24763	0.09486272
186	0xbddea0b2	-0.10870494
187	0x3b823dd1	0.0039746542
188	0x3ba63df2	0.0050733024
189	0xbe10d3e8	-0.14143336
190	0xbd3d1277	-0.046160188
191	0x3b02761b	0.0019906822
192	0x3e3f4e15	0.1868213
193	0x3d7fda28	0.06246391
194	0x3ee32bd1	0.44369367
195	0xbde24c83	-0.1104975
196	0xbb9972dd	-0.004682882
197	0xbdaaeecc	-0.08346328
198	0x3b80bc12	0.0039286697
199	0x3c26a019	0.010170006
200	0x3d36c3dc	0.04462038
201	0xbb011cf1	-0.0019701088
202	0xbac15f1c	-0.0014753076
203	0x3c893a95	0.016751567
204	0x3c9185ab	0.017763933
205	0x3aed46e1	0.0018102789
206	0x3b2db09b	0.002650297
207	0xbb2ee9c7	-0.0026689635
208	0x3ca12497	0.019670768
209	0xbbbe9019	-0.0058155176
210	0x3e5754f3	0.210285
211	0xbe4237ee	-0.18966648
212	0x3d37a98f	0.044839438
213	0xbceed3e4	-0.029153772
214	0x3bb45671	0.0055034687
215	0xbb91a92e	-0.0044452166
216	0x3b2d59ec	0.0026451303
217	0x3e5ae3e5	0.21375997
218	0x3ba72188	0.005100433
219	0x3b58ae79	0.0033062978
220	0xbb4d37c4	-0.0031313756
221	0x3a1e3662	0.00060353254
222	0xbbc93218	-0.006140005
223	0x3bd61942	0.0065337727
224	0x3ad23edf	0.0016040466
225	0x3d1a6c38	0.03770086
226	0xbb50fde6	-0.0031889617
227	0x3b2dae5c	0.0026501631
228	0xbe6d52c2	-0.23176101
229	0xbc05243c	-0.008126315
230	0x3d269a66	0.04067459
231	0x3c9ac59b	0.018893054
232	0x3a96b32a	0.0011497487
233	0x3d6f2f93	0.05839498
234	0x3c1eb785	0.009687309
235	0xb93399fb	-0.00017128132
236	0x3b2c1b37	0.0026261338
237	0x3b86d721	0.004115001
238	0x3b384b4a	0.0028121048
239	0x3c03d785	0.008046989
240	0x3a9f7a66	0.0012167215
241	0xbdeab22c	-0.11459765
242	0xbe33bde7	-0.17552911
243	0xbbd88694	-0.00660784
244	0x3e080f6c	0.13287133
245	0x3b0d7393	0.002158378
246	0xbacd9f31	-0.0015687702
247	0xbe3d9538	-0.18513954
248	0x3c003dc9	0.007827231
249	0xba93afc6	-0.0011267595
250	0x3b9db23b	0.0048125065
251	0xb989d2a9	-0.0002628763
252	0x3a97f5da	0.0011593655
253	0xbdd783d4	-0.10523191
254	0xbb0fcf63	-0.002194368
255	0x3e8ad166	0.27112883

encoder_z.fc12.bias f4 [4]
0	0x3dc737fa	0.097274736
1	0xbe7bcd8a	-0.24590126
2	0x3e417912	0.18893841
3	0xbe6b2519	-0.2296337

decoder.fc_layers.0.weight f4 [128, 4]
0	0xbc76701d	-0.015041378
1	0x3ee4fa01	0.44721988
2	0xbc3e4522	-0.011613162
3	0x3fff6e3b	1.9955515
4	0x3b780e98	0.0037850495
5	0xbf302847	-0.6881146
6	0x38826408	6.217515e-05
7	0xbdf300b4	-0.118653685
8	0x3cbe7b38	0.023252115
9	0xc11d879e	-9.84561
10	0x3d209a0b	0.039209407
11	0x3f94513e	1.1587293
12	0x3c8cf48f	0.017206458
13	0x39bdb76f	0.00036185558
14	0xbaa67bdc	-0.0012701708
15	0x3b8ae5d8	0.0042388253
16	0xbba0c0f7	-0.0049058157
17	0xbe93d9b7	-0.2887704
18	0xbb4d0707	-0.0031284706
19	0x3fd0dbd9	1.6317092
20	0x3a73a4da	0.0009294279
21	0xbad4144c	-0.0016180365
22	0xbcd25641	-0.025675895
23	0x3b1b0985	0.0023656797
24	0x3aa48b9d	0.0012553815
25	0x3fcbe4ce	1.5929201
26	0xbc87c5a3	-0.016573733
27	0xbf8d0f51	-1.1020299
28	0xbb2a5489	-0.0025990328
29	0x3db69f77	0.08917134
30	0x3cbf39d3	0.023343002
31	0xbf6a63d0	-0.9155855
32	0x3c4afa1e	0.012388734
33	0x3f9167fa	1.1359856
34	0x3cc77ece	0.024352457
35	0x3fff5353	1.9947304
36	0xbd503647	-0.050833013
37	0x3ba1e81e	0.0049410006
38	0xbbf419e8	-0.0074493773
39	0xba90aef7	-0.0011038472
40	0x3c31a45f	0.010842412
41	0x3ad0fd48	0.0015944624
42	0xbcff36e4	-0.031154104
43	0x3a8299a5	0.0009964003
44	0xbc51a55a	-0.012795771
45	0x3b98ff4b	0.004669105
46	0x3a8b97a3	0.001065005
47	0x3bb6f84c	0.0055837985
48	0x3cbf5313	0.023355043
49	0xbb548cac	-0.003243248
50	0x3c0f7d0b	0.00875784
51	0xbade5387	-0.0016962149
52	0xbc4a059f	-0.012330442
53	0x3b05f440	0.0020439774
54	0x3c3698ef	0.011144861
55	0xbb8eea14	-0.0043614004
56	0xbc206a59	-0.00979098
57	0xbe5b5fc8	-0.21423256
58	0x3cb2d979	0.021832215
59	0xbed59304	-0.41713727
60	0x3bc1c1ea	0.005913009
61	0x404bbac6	3.1832747
62	0x39deb83e	0.0004248041
63	0x3f548f43	0.830311
64	0x3b9d33a1	0.0047974144
65	0xbb53de00	-0.0032328367
66	0xbbe80e1b	-0.0070817596
67	0x3b8eeffb	0.004362104
68	0xbc7d972f	-0.0154779395
69	0x3df76eab	0.12081655
70	0x3c6994bf	0.014256655
71	0xbf4d161f	-0.8011188
72	0x3c7ab4a4	0.015301857
73	0x3f14a6d3	0.58067054
74	0x3c96de74	0.01841662
75	0x3e89ee62	0.26939684
76	0x3b4d6cc2	0.0031345342
77	0xbf1a3115	-0.60231143
78	0xbb2c81a5	-0.0026322391
79	0xbe934009	-0.28759792
80	0x3c8c3787	0.017116321
81	0xbf151605	-0.58236724
82	0x3a58969e	0.000826219
83	0x3f4d250a	0.8013464
84	0xbbe2c74e	-0.0069207316
85	0xbd4353b9	-0.047687266
86	0x3c382eb4	0.011241604
87	0xbf43c37b	-0.76470155
88	0x3b71fb0f	0.0036923324
89	0xbb97329a	-0.0046141865
90	0xbc4806c7	-0.012208647
91	0x3c1e4997	0.0096611
92	0x3c82036d	0.015870774
93	0xbb6795e3	-0.0035337142
94	0xbb229e51	-0.0024813602
95	0xbad9530d	-0.0016580537
96	0x3c1e1d6b	0.0096505685
97	0x3e93d4b6	0.28873223
98	0xbc4c82a5	-0.01248232
99	0x3fa4725b	1.2847399
100	0x3b75445d	0.003742478
101	0xbe47de69	-0.19518436
102	0xba89e27d	-0.0010519769
103	0xbc1a4c5a	-0.009417618
104	0x3ae02a31	0.0017102418
105	0xbe26f27a	-0.16303435
106	0xbb3f2f4b	-0.0029172476
107	0x3fd60546	1.6720359
108	0x3b25f844	0.002532498
109	0x3bf72825	0.0075426274
110	0xbafb21ee	-0.0019159892
111	0xbb07a2ee	-0.002069648
112	0x3c539e0d	0.0129161
113	0xbbf6723c	-0.007520942
114	0xbc13b2f7	-0.0090148365
115	0x3b435477	0.0029804984
116	0x3c320cf0	0.010867342
117	0xbf0ea55a	-0.55721056
118	0xbba7a668	-0.0051162727
119	0xbe98f51a	-0.29874498
120	0xbbbd1d7f	-0.0057713385
121	0x3c9c77ae	0.019100036
122	0xbc48f6f0	-0.012265906
123	0xbf1012ec	-0.5627887
124	0xbbb39433	-0.005480313
125	0x3ed7ec59	0.42172506
126	0xbc6ea4df	-0.0145656755
127	0xbf495904	-0.7865145
128	0x3b8b7e39	0.0042569903
129	0xbf3a5ece	-0.7280091
130	0x3bd589a5	0.0065166526
131	0xbc177b67	-0.00924573
132	0x3c07fc03	0.00829983
133	0x3b1304a2	0.0022433181
134	0xbc80df00	-0.015731335
135	0x3ad73700	0.001641959
136	0xb9e989e4	-0.0004454396
137	0xbf125946	-0.5716747
138	0x3c282355	0.01026233
139	0x3f26fd95	0.65230685
140	0xbc0684ef	-0.008210405
141	0xbfbf1883	-1.4929355
142	0xbc47b24f	-0.012188508
143	0x3ea60b0d	0.32430306
144	0x3b74f7ed	0.003737922
145	0xbe0760b3	-0.13220482
146	0x3b7fbc3b	0.0039022106
147	0x3fa0586c	1.2526984
148	0x3c7b739e	0.0153473895
149	0xbe59969b	-0.21248858
150	0x3b86df4b	0.004115974
151	0x3f8cccde	1.100002
152	0xbbc0429e	-0.0058673164
153	0xbdceb136	-0.10092394
154	0xbbcedaf9	-0.0063127247
155	0xbd139902	-0.03603459
156	0xbb1797ac	-0.0023131175
157	0x3f592ae1	0.84831053
158	0x3ce7863c	0.02826225
159	0xbeee9f7c	-0.46606052
160	0xbcec0b0b	-0.02881386
161	0x3c3cd3a1	0.011525066
162	0xbcd4b899	-0.02596693
163	0x3b4445de	0.002994887
164	0x3ac5ae54	0.0015081861
165	0x400918de	2.1421428
166	0x3b3f1a39	0.0029159917
167	0xbf84b99f	-1.0369147
168	0x3b996e1f	0.004682317
169	0x4003d1e1	2.059685
170	0xbc89fd14	-0.01684431
171	0xbebc1774	-0.36736643
172	0xbbed98e1	-0.0072508906
173	0xbe91e987	-0.2849848
174	0x3cd976db	0.026545933
175	0x3f4c539c	0.7981508
176	0x3c449e74	0.012000669
177	0x3f91947c	1.1373439
178	0x3d18c100	0.037293434
179	0xbf9c9621	-1.2233316
180	0xbca7bc6b	-0.020475587
181	0x3d4d851c	0.05017577
182	0xbac46c96	-0.0014985974
183	0xbf144051	-0.5791064
184	0x3cbeb4ce	0.023279574
185	0xbdfc7b6e	-0.1232823
186	0xbb9a465d	-0.004708095
187	0x3f2dff54	0.67967725
188	0x3c85c93b	0.016331306
189	0x3e0ef3a9	0.13960136
190	0xbc3d407b	-0.011551018
191	0x3f14716c	0.5798557
192	0xbb1c631f	-0.0023862792
193	0x40dc7349	6.889073
194	0xbc18a873	-0.009317505
195	0x3f9f6a05	1.245423
196	0xbc1d9359	-0.00961765
197	0x3aa4031e	0.0012513136
198	0x3b6c6704	0.0036072144
199	0x3a6278f5	0.000863924
200	0xbcb6f865	-0.02233524
201	0x3b7df8b3	0.0038752973
202	0xbcae7da6	-0.021300148
203	0x3b9c8d0b	0.004777556
204	0x3b32ccff	0.0027282832
205	0xbe884090	-0.26611757
206	0x3bcc0347	0.0062259766
207	0xbfa4d1bf	-1.287651
208	0xbca5c5df	-0.020235954
209	0xbb8e37bb	-0.0043401397
210	0xbc92f76c	-0.017940246
211	0xbb4c2652	-0.003115077
212	0x3ba25b03	0.004954697
213	0x3f4f6df1	0.8102713
214	0x3c6408f7	0.013918153
215	0xbf2a36a8	-0.6648965
216	0x3caa2d90	0.020773679
217	0x3e2efcc7	0.17088614
218	0xba82572f	-0.0009944196
219	0x3f82e370	1.0225658
220	0x3c95c6cf	0.018283276
221	0x3ecf31af	0.40467593
222	0x3b8bffa2	0.004272417
223	0xbf0b49d1	-0.5440951
224	0x3cd83641	0.026393058
225	0x3d94c108	0.0726338
226	0x3bf0c358	0.0073475055
227	0x3f23c3a0	0.63970375
228	0x3cef3f15	0.029204885
229	0xbb9ce2e2	-0.0047877887
230	0xbba3e46b	-0.005001595
231	0xbbd72ba9	-0.006566484
232	0x3bee9aea	0.007281651
233	0xbbe7be37	-0.007072236
234	0x3c160003	0.009155276
235	0xbbd95a40	-0.006633073
236	0x3c0a0803	0.008424762
237	0x3d8c4069	0.06848223
238	0xbc378fb5	-0.011203696
239	0x3ec0fcf4	0.37692988
240	0xbaa4defe	-0.0012578664
241	0xbde831c7	-0.11337619
242	0x3cce8500	0.025209904
243	0xbf00b363	-0.5027372
244	0x3b28b68c	0.0025743572
245	0x3d844611	0.064586766
246	0x3c1e6c20	0.009669334
247	0xbeb3d127	-0.35120508
248	0x3ade1ebc	0.0016946415
249	0xbbb76418	-0.005596649
250	0xbc47fe30	-0.012206599
251	0xba902e0d	-0.0011000052
252	0xbba845da	-0.00513528
253	0xbba457c2	-0.0050153444
254	0xbc36e136	-0.011162093
255	0x3b0695ce	0.0020536068

decoder.fc_layers.0.bias f4 [128]
0	0xbe9ed032	-0.31018215
1	0xbfa394b9	-1.2779762
2	0xbf82de07	-1.0224007
3	0x3b9dfc4c	0.004821336
4	0x3e013945	0.12619503
5	0xba4a6bc8	-0.0007721749
6	0x3e8a3fc4	0.27001774
7	0xbed7aaf6	-0.4212262
8	0xbebf0e1b	-0.3731545
9	0xbb94dab5	-0.0045426735
10	0x3ba25426	0.004953879
11	0xbc3b913c	-0.011448201
12	0xbab3a00b	-0.0013704313
13	0x3c17ac42	0.009257378
14	0xbf3e2587	-0.7427601
15	0xbf2997e9	-0.6624742
16	0x3b22a4b9	0.002481742
17	0xbe44de33	-0.19225387
18	0x3fae6bdf	1.362667
19	0xbfa4f9dd	-1.2888752
20	0x3e2b1f48	0.16711152
21	0x3f1972a6	0.59940565
22	0x3aead666	0.0017916679
23	0x39e24b04	0.0004316197
24	0xbeeeb5a7	-0.46622965
25	0xbe86ad92	-0.263043
26	0x3f0361e0	0.5132122
27	0x3b088e61	0.0020836818
28	0x3c138857	0.009004674
29	0xbf9a2e8f	-1.2045459
30	0xbeed4517	-0.46341774
31	0xbf273fc3	-0.6533167
32	0xbf7b44d5	-0.98151904
33	0xbb26a44d	-0.002542752
34	0xbf6f50de	-0.9348277
35	0xbf8f52e6	-1.1197174
36	0x3ecca19b	0.39967045
37	0x3dbc8430	0.092049
38	0xbe2bfd29	-0.16795792
39	0x3eae53d4	0.3404833
40	0xbac3c59d	-0.0014936213
41	0x3f8b4192	1.0879385
42	0xbe642524	-0.22279793
43	0xbf1780ad	-0.5918072
44	0xbe91799f	-0.28413102
45	0xbf079236	-0.52957475
46	0xbefd1884	-0.49432766
47	0x3f578966	0.8419403
48	0x3f85d60f	1.045595
49	0xb9caa31f	-0.00038649977
50	0xbad01b05	-0.0015877193
51	0x3eec3e05	0.46141067
52	0x3bac59fd	0.005259751
53	0x3ebd1656	0.36931103
54	0xbf5e9fc0	-0.8696251
55	0x3f123118	0.5710616
56	0xbeb34ddc	-0.3502034
57	0x3ae5e4b8	0.0017539477
58	0x3b93a4e5	0.004505741
59	0x3ed347ba	0.4126566
60	0x3e81b6f2	0.2533489
61	0xbdbda912	-0.09260763
62	0xba176699	-0.0005775481
63	0x3ae2ae06	0.0017294295
64	0xbf8c27d6	-1.0949657
65	0xbb8a6e21	-0.004224554
66	0xbf2ebe88	-0.6825948
67	0xbbfab3d5	-0.007650832
68	0xbf2e330f	-0.6804666
69	0x3ed26ddd	0.41099444
70	0xbc01eca6	-0.007929957
71	0x3f9d2aa8	1.2278643
72	0xb9899c68	-0.00026247208
73	0x3b92c974	0.0044795815
74	0x3b8fa7b4	0.0043840054
75	0xbd4a3745	-0.049369115
76	0xbfba99a4	-1.4578137
77	0xbe89f4d6	-0.26944607
78	0x3f99aa6a	1.2005131
79	0xbf1d7286	-0.61502874
80	0x3a80f1b3	0.0009837657
81	0x3eeb8c57	0.46005508
82	0x3b2f648e	0.0026762816
83	0x3f84d59d	1.037769
84	0x3f414e02	0.75509655
85	0x3b66c248	0.0035211015
86	0xbfac6940	-1.346962
87	0x3f3c859e	0.73641384
88	0xbf13fce6	-0.5780777
89	0xbf2a659c	-0.66561294
90	0x3f5366e5	0.8257888
91	0xbc115d6d	-0.008872372
92	0x3fb7eff3	1.4370102
93	0x3ed98a11	0.4248815
94	0x3b6e93e4	0.0036404068
95	0xbf83319a	-1.0249512
96	0xbf98bfd1	-1.1933538
97	0xbf48946a	-0.7835146
98	0x3f2cd49f	0.67511934
99	0xbf255459	-0.6458183
100	0xbf2acd16	-0.66719186
101	0xbf76cfb3	-0.96410674
102	0xbf065b57	-0.52483124
103	0xbf952274	-1.1651139
104	0xbf219966	-0.6312469
105	0xbf9bbd00	-1.2167053
106	0xbf62ddaa	-0.8861948
107	0x3f20c95e	0.6280726
108	0xbf95737a	-1.1675866
109	0x3b022e95	0.001986419
110	0x3ba104ec	0.004913917
111	0x3f61d9a7	0.88222736
112	0x3befb57e	0.0073153367
113	0xbefbeec3	-0.49205598
114	0xbe9d8c74	-0.3077122
115	0x3c2c1530	0.010503098
116	0xbdb93b8f	-0.09044563
117	0x3b867340	0.0041030943
118	0x3f81a227	1.012761
119	0x3f9a043c	1.2032542
120	0xbc483453	-0.012219506
121	0x3d8da69d	0.069165446
122	0xbf47e6f2	-0.7808677
123	0xbb9cda92	-0.004786798
124	0x3edb90f8	0.4288404
125	0x3eeb84a1	0.45999625
126	0xbeb70831	-0.35748437
127	0xbf0219ca	-0.508206
