5DVAE_Ch0_200.pth (torch, 557528 bytes, 14 tensors)

encoder_z.fc_layers.0.weight f4 [128, 400]
0	0xbe691704	-0.22762686
1	0xbda2df2f	-0.07952725
2	0xbe97eca5	-0.29672733
3	0xbe621485	-0.2207814
4	0xbdfd8bc9	-0.123801775
5	0x3c4e4fa2	0.012592228
6	0xbe3c333f	-0.18378924
7	0xbe3e5adf	-0.18589352
8	0xbe4292b0	-0.1900127
9	0xbe2cc8cc	-0.16873473
10	0xbe838bfb	-0.25692734
11	0xbe94b4c3	-0.2904416
12	0xbed6c222	-0.41944987
13	0xbe4b42f9	-0.19849767
14	0xbc948d9c	-0.01813393
15	0xbc670714	-0.014100809
16	0x3ba9f81e	0.0051870486
17	0xbe9fa0ba	-0.31177312
18	0xbe088b8b	-0.13334481
19	0xbbcaff9c	-0.006195022
20	0x3df84e97	0.12124365
21	0xbdde9fcd	-0.10870323
22	0xbe9144e7	-0.2837288
23	0xbe09025f	-0.13379811
24	0xbe5d3599	-0.21602477
25	0xbd782972	-0.0605864
26	0xbd476075	-0.048675973
27	0x3cb988c4	0.022648223
28	0x3cf405ad	0.029787863
29	0x3e34cd14	0.17656356
30	0x3d9dcffc	0.077056855
31	0xbe3e61e7	-0.18592034
32	0xbe933f07	-0.28759024
33	0xbe047d9e	-0.12938544
34	0xbe64347f	-0.2228565
35	0xbda10819	-0.07862873
36	0x3c8ee31c	0.017442279
37	0x3e9c50ac	0.30530298
38	0x3e58c9b1	0.21170689
39	0x3eb70a07	0.35749838
40	0x3e882a97	0.26594993
41	0x3dd14c4c	0.102196306
42	0x3e084da3	0.13310866
43	0xbbbbe439	-0.0057339934
44	0x3d9f5ebb	0.0778174
45	0x3db61579	0.08890814
46	0xbcd06020	-0.025436461
47	0xbe47bc00	-0.1950531
48	0xbdde8f65	-0.10867194
49	0xbdbf7727	-0.093488984
50	0x3d1170ff	0.035508152
51	0x3e103cd9	0.14085712
52	0xbdbe5cf2	-0.09295072
53	0xbe7bc6d2	-0.24587563
54	0xbe936de4	-0.28794777
55	0xbf15e8ff	-0.5855865
56	0xbf1b815c	-0.6074426
57	0xbf05d3f7	-0.5227656
58	0xbecdc985	-0.4019281
59	0xbea9b164	-0.3314315
60	0xbe9f63b9	-0.3113077
61	0xbd8fe70b	-0.0702649
62	0x3d861e3b	0.06548735
63	0xbcec2879	-0.028827893
64	0xbe2f42d6	-0.1711534
65	0xbde0bb39	-0.1097321
66	0x3e029372	0.12751558
67	0xbdd3e620	-0.10346627
68	0x3d5c2231	0.053743545
69	0x3ca839fe	0.020535465
70	0x3d635527	0.05550113
71	0x3ca82ccb	0.020529171
72	0x3da894ab	0.08231481
73	0xbcfabbbe	-0.0306071
74	0x3e38a0c6	0.1803008
75	0x3ed1eede	0.41002554
76	0x3ef26743	0.47344407
77	0x3ede8179	0.43458155
78	0x3efcba48	0.4936087
79	0x3f231b1d	0.63713247
80	0x3e8c2fcd	0.2738022
81	0x3de121d2	0.10992779
82	0xbbdb1efb	-0.006687043
83	0x3cc87388	0.024469152
84	0x3e26ebb7	0.16300856
85	0x3e6a179e	0.22860572
86	0x3dbb3f7d	0.09142969
87	0x3d84737c	0.064673394
88	0x3e7b1e5b	0.24523298
89	0x3e8ce30a	0.27516967
90	0x3f0b5977	0.5443339
91	0x3f20a8a3	0.6275732
92	0x3effe0c6	0.49976176
93	0x3f27ea30	0.65591717
94	0x3ed4beea	0.41551906
95	0x3ebb43f3	0.3657528
96	0x3ebad6bb	0.3649195
97	0x3ed49962	0.41523272
98	0x3ed0d770	0.40789366
99	0x3f2b0312	0.6680156
100	0x3f49776b	0.7869784
101	0x3f4757c7	0.7786831
102	0x3f48ba1b	0.78408974
103	0x3f67783b	0.9041783
104	0x3f668aa3	0.9005529
105	0x3f4feddc	0.8122232
106	0x3f763f63	0.9619047
107	0x3f795548	0.97395754
108	0x3f7a2771	0.9771643
109	0x3f3a9048	0.72876406
110	0x3ed1859f	0.40922257
111	0x3ecf07bb	0.40435585
112	0x3f12cc42	0.5734292
113	0x3f409e17	0.75241226
114	0x3f57b8b1	0.8426619
115	0x3f182fa7	0.5944771
116	0x3f066dab	0.5251109
117	0x3eeefd56	0.46677655
118	0x3e9c2912	0.30500084
119	0x3ea39341	0.31948283
120	0x3e94b84f	0.29046866
121	0x3e9afc40	0.30270576
122	0x3eaf3295	0.3421828
123	0x3eb76efa	0.35826856
124	0x3e6cc507	0.23122035
125	0xbcac922c	-0.021065794
126	0x3b101474	0.0021984847
127	0x3e189bdf	0.1490321
128	0x3e3ff50d	0.18745823
129	0x3dbc16c0	0.09184027
130	0x3dfd68eb	0.12373527
131	0x3dbd7019	0.092498966
132	0xbe30c1d7	-0.17261444
133	0xbe70ae4f	-0.23503993
134	0xbe1abafe	-0.15110394
135	0xbd53b9fb	-0.051691037
136	0x3b452c79	0.0030086322
137	0xbe291a7f	-0.16514014
138	0xbdd589cb	-0.104266725
139	0xbe782132	-0.24231413
140	0xbd327bf2	-0.043575235
141	0x3bb88341	0.005630881
142	0x3d66ab2a	0.05631558
143	0xbd7c9eae	-0.061674766
144	0xbcf38cd8	-0.029730245
145	0xbc9dc6d0	-0.01925984
146	0x3d1b31e7	0.037889387
147	0x3c1922ff	0.009346723
148	0x3d534977	0.051583733
149	0xbe51c326	-0.204846
150	0xbe993ec1	-0.2993069
151	0xbe5f5c88	-0.21812642
152	0xbe64242a	-0.2227942
153	0xbe3104d5	-0.17287
154	0xbdd9ee01	-0.10641099
155	0xbea0b47f	-0.31387708
156	0xbe57c56c	-0.21071404
157	0xbeaabb38	-0.33345962
158	0xbe98546b	-0.29751906
159	0xbeb75041	-0.35803416
160	0xbe6a4a00	-0.22879791
161	0xbe404b38	-0.18778694
162	0xbe413718	-0.18868673
163	0xbeb5004c	-0.3535179
164	0xbebb08e1	-0.36530212
165	0xbec2c779	-0.3804281
166	0xbec866ad	-0.39140835
167	0xbed50bfc	-0.41610706
168	0xbed75f38	-0.42064834
169	0xbebd5209	-0.3697665
170	0xbeddb47e	-0.43301767
171	0xbf02b26b	-0.51053494
172	0xbe9f1924	-0.31073868
173	0xbec2c142	-0.3803807
174	0xbed6f369	-0.41982582
175	0xbea0997b	-0.31367096
176	0xbee52dc3	-0.44761476
177	0xbee1c2e6	-0.44094008
178	0xbe9d4bbd	-0.30721846
179	0xbf03419e	-0.51272
180	0xbeafea04	-0.34358227
181	0xbead6f66	-0.33874053
182	0xbe930133	-0.28711852
183	0xbeced661	-0.40397933
184	0xbea6883d	-0.32525817
185	0xbe7caeaa	-0.24676004
186	0xbe43da6e	-0.19126293
187	0xbda24d75	-0.0792493
188	0xbe596045	-0.2122813
189	0xbe2233b5	-0.15840037
190	0xbde999a4	-0.11406258
191	0xbe370dea	-0.17876402
192	0xbe83305f	-0.25622842
193	0xbe240778	-0.16018474
194	0xbea70b5c	-0.32625854
195	0xbef15956	-0.4713847
196	0xbf129427	-0.5725731
197	0xbeda8cb5	-0.42685476
198	0xbecaa5ca	-0.39579612
199	0xbee1d655	-0.44108835
200	0xbebd3030	-0.36950827
201	0xbe90ecbf	-0.28305623
202	0xbe714698	-0.23562086
203	0xbc1bc494	-0.009507317
204	0x3e8fede7	0.28111193
205	0x3f197831	0.5994902
206	0x3f1fa9d7	0.6236853
207	0x3f4c04d4	0.7969487
208	0x3f6e1358	0.92998266
209	0x3f5c5cc6	0.8607906
210	0x3f3f43a9	0.74712616
211	0x3f280bda	0.65643084
212	0x3f1afa2b	0.60537976
213	0x3f085135	0.5324891
214	0x3eec72e9	0.4618142
215	0x3ecc8bd7	0.3995044
216	0x3e995623	0.2994853
217	0x3e83fa1b	0.25776753
218	0x3e98413f	0.2973728
219	0x3e7d153e	0.24715135
220	0x3e89b8c5	0.2689878
221	0x3ea70922	0.32624155
222	0x3e5884b9	0.2114438
223	0x3e0dd433	0.13850479
224	0x3e20d111	0.15704753
225	0x3e82ba6f	0.25532863
226	0x3e64049d	0.22267385
227	0x3eafaf6d	0.34313527
228	0x3ea9dfe7	0.33178636
229	0x3ea35b39	0.31905535
230	0x3e9eca3f	0.31013677
231	0x3e9741f9	0.2954252
232	0x3e8373af	0.25674197
233	0x3e8d0476	0.27542466
234	0x3e673d59	0.22581996
235	0x3e1d5fdb	0.15368597
236	0x3e238d6f	0.15971921
237	0x3dd1a31e	0.1023619
238	0x3db804c8	0.08985287
239	0x3dde920c	0.108677
240	0x3da3da71	0.08000649
241	0x3c138b64	0.009005401
242	0xbdeaa7b0	-0.11457765
243	0xbe1dc369	-0.15406574
244	0xbdebebfe	-0.11519621
245	0xbe2afdfa	-0.16698447
246	0xbdd1936d	-0.10233197
247	0xbe457efc	-0.19286722
248	0xbe0a7284	-0.13520247
249	0xbe4712b0	-0.19440722
250	0xbde8d1bb	-0.11368128
251	0xbd621df2	-0.05520434
252	0x3c6ac513	0.014329213
253	0xbd090928	-0.033455998
254	0xbd200520	-0.039067388
255	0xbd8e29e5	-0.069415845

encoder_z.fc_layers.0.bias f4 [128]
0	0xbfe0dd6a	-1.756757
1	0xbf165e33	-0.58737487
2	0x3fb78264	1.4336667
3	0x3f773a63	0.96573466
4	0xbf1a6737	-0.60313743
5	0x4086d9e5	4.2140985
6	0x3f932a21	1.1497232
7	0x3f940974	1.1565385
8	0xbe9e99e6	-0.3097679
9	0xbeacfa56	-0.3378474
10	0x3e49f2dd	0.19721551
11	0x40092650	2.1429634
12	0x4060dd8a	3.5135217
13	0xc00c5812	-2.1928754
14	0x402dc28d	2.7149994
15	0x400a0b1f	2.1569288
16	0x3fcd8d7a	1.60588
17	0xc002bd06	-2.042787
18	0x3effcaa2	0.49959284
19	0x3f6397d6	0.8890356
20	0xbfc7885f	-1.5588492
21	0xbfb04e99	-1.3773986
22	0xc076eeca	-3.8583245
23	0x3fdb121d	1.7114903
24	0xbf299f9b	-0.66259164
25	0xbf1f83d3	-0.6231052
26	0x3f79db56	0.97600305
27	0xbf89ef75	-1.0776201
28	0xc02966f5	-2.646909
29	0x40100ff7	2.2509744
30	0x3dcae35e	0.09906648
31	0x40443411	3.065678
32	0xc0071fd2	-2.1113172
33	0xc00301ad	-2.0469773
34	0x3f8ef5fd	1.116882
35	0x3f25374e	0.64537513
36	0xbf88a68c	-1.0675826
37	0x3fd5076b	1.6642889
38	0x40489366	3.1339965
39	0xbf573b0f	-0.8407449
40	0x3fb66525	1.4249617
41	0x402ee072	2.732449
42	0xbf84cadd	-1.0374409
43	0xbf4c9d8b	-0.7992789
44	0x3f63abad	0.8893383
45	0x3fe29199	1.7700683
46	0x3e8ed3db	0.27896008
47	0x403cef89	2.95212
48	0x3f9439c4	1.1580129
49	0xbf8c64f4	-1.0968308
50	0xc04a8cdb	-3.1648471
51	0xc0430fba	-3.0478349
52	0x3f96618c	1.1748519
53	0x3f3c15e1	0.73470885
54	0x407e498b	3.9732387
55	0x3f0f445e	0.55963695
56	0x3ff4f2e9	1.913663
57	0xc004bb6d	-2.0739396
58	0xbe5d0c22	-0.2158666
59	0xbf8513e0	-1.039669
60	0x3f402744	0.75059915
61	0x40165397	2.348852
62	0xc08a4d77	-4.321956
63	0x3f3f08b2	0.74622643
64	0x4001ad29	2.0261939
65	0x3fbe53e6	1.4869354
66	0x3f3a0b50	0.7267351
67	0x3fc3a2a6	1.5284011
68	0xbf2ff222	-0.6872884
69	0x3f6bfa7a	0.9217907
70	0x4064ecce	3.5769534
71	0xbdd25a81	-0.102711685
72	0xbfd1fb29	-1.6404773
73	0x3f1ca686	0.61191595
74	0xbe95c4ab	-0.29251608
75	0xc0567990	-3.3511696
76	0xbe7a00b5	-0.24414332
77	0x3ea74ed8	0.3267734
78	0x3e422a61	0.18961479
79	0x3ef00fc5	0.4688703
80	0x3fb3befc	1.4042659
81	0xc06cd5fa	-3.70056
82	0x3f384d5e	0.7199305
83	0x3e97bbc6	0.29635447
84	0xbf7686be	-0.9629935
85	0xc024e387	-2.5763872
86	0xbfc823d1	-1.563593
87	0xbf46e1ff	-0.7768859
88	0xbebe4d85	-0.37168518
89	0xbf50e757	-0.81602997
90	0x3f559ad4	0.83439374
91	0xbebc2f0c	-0.36754644
92	0x402dbb33	2.7145507
93	0xbf2f1040	-0.6838417
94	0x3f6d3be6	0.9266952
95	0x3ee6ee19	0.4510353
96	0x3fe8a441	1.8175126
97	0xbf56cac4	-0.83903146
98	0xc05a4820	-3.4106522
99	0x3fcc8dfd	1.5980831
100	0xbfaf356e	-1.368818
101	0xbe9357fd	-0.28778067
102	0xc00a4964	-2.1607294
103	0xbf90fdbe	-1.1327436
104	0x3ffa9efd	1.9579769
105	0x3f102ce6	0.5631851
106	0xbe9e4aa6	-0.30916327
107	0xbf98fae0	-1.1951561
108	0x3fa4664b	1.2843717
109	0xbf4111e7	-0.7541794
110	0xbf066beb	-0.5250842
111	0x3f71fa3a	0.9452244
112	0xbf4528c7	-0.77015346
113	0x3fc87390	1.5660267
114	0xc07a6938	-3.912672
115	0x3f4a4487	0.79010814
116	0xbf334e18	-0.70041037
117	0xbf2412a4	-0.64090943
118	0x3f720a9a	0.94547427
119	0xc085dbe7	-4.1830935
120	0x3e9181ae	0.2841925
121	0xbf0b612c	-0.5444515
122	0xbe277f55	-0.16357167
123	0xbfefcc16	-1.8734157
124	0xc0745016	-3.817388
125	0x3b7daade	0.003870658
126	0x3f709d4f	0.93990034
127	0x3fbfd37c	1.4986415

encoder_z.fc_layers.2.weight f4 [128, 128]
0	0xbd21cd59	-0.039502475
1	0xbdfc954f	-0.12333166
2	0x3eb0f714	0.34563506
3	0x3ee72145	0.4514257
4	0xbc21591e	-0.009847907
5	0x3e0fc48b	0.14039819
6	0xbc396511	-0.0113156
7	0xbf33c6ba	-0.7022511
8	0xbf5101f3	-0.816436
9	0x3b54286e	0.003237273
10	0xbd532d16	-0.05155667
11	0x3e89cb26	0.26912802
12	0x3eb84347	0.3598883
13	0x3d3e1569	0.046407137
14	0x3e3f1a1c	0.18662304
15	0x3e0ccb70	0.1374948
16	0xbe2220f8	-0.15832889
17	0x3e8b9576	0.27262467
18	0x3ea9511d	0.33069697
19	0x3f34954c	0.7054031
20	0x3e158284	0.14600569
21	0xbd1b1577	-0.037862267
22	0xbf0220c1	-0.5083123
23	0x3ea7ffbe	0.32812303
24	0xbf0eb981	-0.55751806
25	0xbe89129d	-0.26772013
26	0xbced4968	-0.028965667
27	0xbdc22ffc	-0.094818085
28	0xbed424d5	-0.4143435
29	0x3d497dbc	0.049192175
30	0x3ed2714d	0.41102067
31	0x3da8cba3	0.082419656
32	0xbcbb7c61	-0.022886457
33	0x3e19b518	0.15010488
34	0x3ec055da	0.375655
35	0x3edb4335	0.42824712
36	0xbd534ed9	-0.051588867
37	0x3bf6ae82	0.007528127
38	0x3d2a77b3	0.04161806
39	0xbe25d510	-0.16194558
40	0xbd063cfc	-0.032773003
41	0x3df7e416	0.12104051
42	0xbe8c6a64	-0.2742492
43	0x3d0394e5	0.03212442
44	0x3e6dabbc	0.23210043
45	0x3b786664	0.0037902826
46	0xbea3917e	-0.3194694
47	0x3dc4fac5	0.09618143
48	0x3e4cff94	0.2001937
49	0x3f22d2d7	0.63602966
50	0x3de80e82	0.11330892
51	0xbe75087d	-0.2392902
52	0xbde85c02	-0.11345674
53	0x3e9acc3e	0.3023395
54	0x3f6b7c27	0.91986316
55	0x3f31786a	0.6932436
56	0xbe8654d9	-0.2623661
57	0xbe8689f2	-0.2627712
58	0x3d2ad3f1	0.04170603
59	0x3d9ad5bf	0.075603
60	0x3f249f6b	0.6430575
61	0x3da55b01	0.08073998
62	0xbe932c22	-0.28744608
63	0x3f123139	0.5710636
64	0xbeccd38e	-0.40005153
65	0x3e58d3ad	0.21174498
66	0x3dc350a1	0.09536863
67	0x3ea80f93	0.32824382
68	0x3ce8f39a	0.02843647
69	0x3dcd52e3	0.10025575
70	0xbc96d0c7	-0.0184101
71	0x3ea13489	0.31485394
72	0xbed2a0f0	-0.4113841
73	0x3e9eb3a8	0.30996442
74	0x3f1e3ea4	0.6181433
75	0x3d374dab	0.044751804
76	0xbd0275c0	-0.031850576
77	0x3eb8d097	0.3609664
78	0xbf125d1d	-0.5717333
79	0x3f23e521	0.640215
80	0xbd046053	-0.032318424
81	0x3eca0f87	0.3946497
82	0x3e311f89	0.17297186
83	0xbd8f7c1f	-0.07006096
84	0x3e354547	0.17702208
85	0xbe184c2f	-0.14872812
86	0xbe83854b	-0.25687632
87	0x3e78d8a5	0.24301393
88	0xbe03b82f	-0.12863229
89	0xbf3796aa	-0.7171427
90	0xbde48806	-0.11158757
91	0x3ec19f18	0.3781669
92	0xbe83dfcb	-0.25756678
93	0xbeb06d51	-0.34458402
94	0x3f887908	1.0661936
95	0xbe8329ae	-0.25617737
96	0xbc5438f3	-0.012953031
97	0xbdbadf59	-0.091246314
98	0xbdd6af9b	-0.10482713
99	0x3ed6bcd4	0.4194094
100	0x3eb6899b	0.3565186
101	0xbf2d41d8	-0.67678595
102	0xbef5f54b	-0.48038706
103	0xbe7eb3b7	-0.24873243
104	0xbba2292f	-0.004948757
105	0x3ee0f287	0.43935034
106	0x3e7b276d	0.24526758
107	0x3de6d830	0.11271703
108	0x3ed69364	0.41909325
109	0x3e6e1285	0.23249252
110	0xbf00b8f0	-0.5028219
111	0x3f36b899	0.71375424
112	0xbf1ca686	-0.61191595
113	0x3d960d98	0.073268116
114	0x3dd3821f	0.10327553
115	0xbe81e955	-0.2537333
116	0xbee6c235	-0.45070043
117	0x3d4d84e1	0.05017555
118	0x3ea76911	0.32697347
119	0xbe84b704	-0.2592088
120	0x3d0889e3	0.033334624
121	0xbea29cf7	-0.3176038
122	0x3f32671d	0.6968859
123	0xbe63fd38	-0.22264564
124	0xbe9f2980	-0.3108635
125	0xbdab2696	-0.08356969
126	0x3ed79bfd	0.42111197
127	0x3f3796fe	0.7171477
128	0xbe08fa0e	-0.13376638
129	0x3e8858d5	0.26630273
130	0x3e16e722	0.14736608
131	0x3e630435	0.22169574
132	0x3e5dab74	0.21647435
133	0xbec8aba4	-0.3919345
134	0xbe4bc976	-0.1990107
135	0x3f131b96	0.5746397
136	0x3e8f4d22	0.27988535
137	0xbe5dc015	-0.21655305
138	0x3e3680e7	0.1782261
139	0x3eb08182	0.34473807
140	0xbec41985	-0.3830072
141	0xbe225891	-0.15854098
142	0x3b0e73b1	0.0021736438
143	0x3d52b87c	0.05144547
144	0xbed93786	-0.42425174
145	0x3de697ca	0.1125942
146	0xbdfbfdb7	-0.12304252
147	0xbc76ff1b	-0.01507547
148	0xbebd0de4	-0.3692466
149	0xbdde4e77	-0.1085481
150	0x3e30a775	0.1725138
151	0xbe2fd945	-0.17172725
152	0x3f129e8d	0.5727318
153	0x3db29c5f	0.08721232
154	0xbf2e6523	-0.6812307
155	0x3f433437	0.7625155
156	0xbe335dfb	-0.1751632
157	0xbdf46c54	-0.119347245
158	0xbe93461a	-0.2876442
159	0x3da28410	0.07935345
160	0xbe9eab14	-0.30989897
161	0xbdee988b	-0.11650189
162	0x3c0ebf90	0.008712664
163	0xbe819c45	-0.25314537
164	0xbe646c1c	-0.22306865
165	0xbf0e533a	-0.55595744
166	0xbe99d7c4	-0.3004743
167	0x3f6581f1	0.896514
168	0x3ee69c9a	0.45041353
169	0x3d5de6ef	0.054175314
170	0x3e661290	0.22468019
171	0x3ec3273d	0.38115874
172	0xbe34eb16	-0.17667803
173	0xbe35c105	-0.17749412
174	0xbd9d8f1b	-0.07693311
175	0xbe83b64c	-0.2572502
176	0x3d9176b0	0.07102716
177	0xbeb05ebb	-0.34447274
178	0xbe24f9aa	-0.16110864
179	0x3e635b7c	0.22202867
180	0xbe694732	-0.22781065
181	0xbe81ed42	-0.25376326
182	0x3e5b9184	0.21442229
183	0xbf0dd5c1	-0.5540429
184	0x3e00f2f8	0.12592685
185	0xbb882fab	-0.004156073
186	0x3e9fbc24	0.31198227
187	0xbe915d1c	-0.2839135
188	0x3e9f3617	0.31095955
189	0x3d19ebb9	0.03757832
190	0x3e85edd2	0.26158005
191	0x3f0d5038	0.5520053
192	0x3e2f462d	0.17116614
193	0xbe87ec0d	-0.2654728
194	0x3d9dce90	0.07705414
195	0xbe049645	-0.12947948
196	0xbd93d93f	-0.07219171
197	0x3e4bdead	0.19909163
198	0x3ef30246	0.47462672
199	0x3cd46c15	0.025930444
200	0x3ed83f73	0.42235908
201	0x3e90a800	0.28253174
202	0x3c150506	0.009095436
203	0x3e3b9228	0.18317473
204	0xbec56422	-0.38552958
205	0xbed2090a	-0.4102252
206	0x3e5456a5	0.20736177
207	0xbe87b708	-0.2650683
208	0xbef581a1	-0.47950462
209	0x3b90b202	0.0044157514
210	0x3d6ae9e8	0.057351977
211	0xbe086447	-0.13319503
212	0xbe92522f	-0.28578326
213	0xbd020c7b	-0.031750184
214	0xbee24770	-0.44195127
215	0x3eaad97d	0.33369055
216	0xbe7cc62c	-0.24684972
217	0xbf13c683	-0.5772478
218	0x3d17d78e	0.037070803
219	0x3e48bde1	0.19603683
220	0xbe9b916d	-0.3038439
221	0x3e4196b5	0.18905146
222	0xbf17e257	-0.5932974
223	0x3e45e5f4	0.19326001
224	0xbdcd4fb8	-0.10024971
225	0xbec6e28e	-0.38844723
226	0xbf18e8e9	-0.5973039
227	0x3e54cad1	0.20780493
228	0x3e6a7caa	0.22899118
229	0x3f0afdbc	0.5429342
230	0x3e24f815	0.16110261
231	0x3e12c10e	0.14331457
232	0xbf4ef56a	-0.8084322
233	0xbe0c763a	-0.13716975
234	0x3dc85207	0.097812705
235	0xbde86d34	-0.11348954
236	0x3e10dfe4	0.14147907
237	0xbe822f98	-0.25426936
238	0x3f24130d	0.6409157
239	0x3d22a015	0.039703447
240	0xbe7b84a8	-0.24562323
241	0x3edf6407	0.43631002
242	0x3e1a11d2	0.1504586
243	0x3df5eb34	0.12007752
244	0x3e369212	0.17829159
245	0xbdef89d0	-0.116962075
246	0xbe348719	-0.1762966
247	0x3d835d1b	0.06414243
248	0xbec8f4e7	-0.39249346
249	0x3df9ab1b	0.12190839
250	0xbe48e581	-0.19618799
251	0xbee04730	-0.43804312
252	0xbda4a1bc	-0.08038661
253	0x3d5cc990	0.053903162
254	0xbe1e9b3a	-0.15488902
255	0xbf030a86	-0.5118793

encoder_z.fc_layers.2.bias f4 [128]
0	0x3eeb1478	0.45914054
1	0xbe43791f	-0.19089173
2	0xbd931917	-0.0718252
3	0xbd68b058	-0.0568088
4	0xbe8c69ec	-0.27424562
5	0xbe96d15c	-0.29456604
6	0xbdd6420d	-0.10461817
7	0xbe60b47f	-0.21943854
8	0xbad3ab8b	-0.0016149146
9	0xbe7f71c2	-0.24945739
10	0xbbe95118	-0.007120263
11	0x3e67b926	0.22629222
12	0xbded10da	-0.1157548
13	0x3e9aa16e	0.30201286
14	0x3c0e73fc	0.008694645
15	0x3d8d5abd	0.069020726
16	0x3d4fc345	0.050723333
17	0x3df29ca1	0.11846281
18	0xbdee191a	-0.116258815
19	0xbd0a2af3	-0.033732366
20	0xbe3f4940	-0.18680286
21	0xbebacdeb	-0.36485228
22	0xbee5ce7b	-0.44884095
23	0xbe600e7a	-0.21880522
24	0xbe1e741a	-0.15473977
25	0x3e85159e	0.25993055
26	0xbdae1dee	-0.085018024
27	0xbd108bc2	-0.035289533
28	0xbebf22c4	-0.37331212
29	0x3d678ac0	0.056528807
30	0xbe1ec3ea	-0.15504423
31	0x3edf65b7	0.4363229
32	0x3c0604d5	0.008179863
33	0x3e3d30a0	0.1847558
34	0x3e1f65e0	0.15566206
35	0x3e4f5e5e	0.20250842
36	0xbd907659	-0.07053823
37	0x3eef18fe	0.46698755
38	0xbed0135d	-0.40639773
39	0x3ea38d37	0.31943676
40	0x3cee3b7f	0.029081104
41	0x3da72e0b	0.08163079
42	0xbe3de25d	-0.18543382
43	0x3da5f9ed	0.0810431
44	0x3e0b14f3	0.1358221
45	0xbd1fc01a	-0.03900156
46	0x3f419e9b	0.7563264
47	0x3ac1d51c	0.0014788243
48	0xbcbb2f7b	-0.022849789
49	0xbcc3a3bd	-0.023881787
50	0xbdeaa44d	-0.11457119
51	0x3ea912df	0.3302221
52	0xbe1c2e06	-0.15251932
53	0x3ee8bfce	0.45458835
54	0x3ced4791	0.02896479
55	0x3e99a34a	0.30007392
56	0xbd7bf4dc	-0.061512813
57	0xbe507b77	-0.20359598
58	0xbde25b0c	-0.11052522
59	0x3f4305ad	0.76180536
60	0xbd609576	-0.054830037
61	0x3b9fcfb8	0.004877057
62	0x3ec45dc7	0.38352796
63	0xbe679d3f	-0.22618578
64	0xbec366d2	-0.38164383
65	0x3dbf7c77	0.09349912
66	0x3d6d5fb3	0.057952594
67	0xbe94ef1b	-0.29088673
68	0x3ea1e574	0.3162037
69	0x3e993ee8	0.29930806
70	0xbc870b35	-0.016484836
71	0xbd96b094	-0.07357898
72	0x3bc44371	0.005989485
73	0x3e3bfe51	0.18358733
74	0x3e306830	0.17227244
75	0x3d0be5f2	0.03415484
76	0xbe5c54ce	-0.21516725
77	0xbe83401e	-0.25634855
78	0x3e39fdd7	0.18163238
79	0x3c8338e1	0.016018333
80	0x3dd28c18	0.10280627
81	0x3c38506d	0.011249644
82	0x3eedb66d	0.46428242
83	0xbce4723a	-0.027886499
84	0x3f160bd4	0.586118
85	0xbe0cf476	-0.1376513
86	0xbd367d51	-0.044553105
87	0xbe6646b9	-0.22487916
88	0x3e9bd904	0.30439007
89	0x3c3cebb4	0.011530805
90	0x3e91255d	0.28348818
91	0xbd104c76	-0.03522917
92	0x3e72ef59	0.23724116
93	0x3d4cc6cc	0.049994275
94	0xbf013d69	-0.5048433
95	0xbcf11d1b	-0.029432824
96	0xbcd953a7	-0.026529146
97	0x3f331b0c	0.69963145
98	0x3c028b8a	0.007967839
99	0x3f348fd5	0.7053197
100	0xbd732c5b	-0.059368473
101	0xbdc0621b	-0.09393712
102	0xbecae102	-0.39624792
103	0x3ce92728	0.028461054
104	0x3d8c0536	0.068369314
105	0xbdf507e6	-0.11964397
106	0xbdc56f65	-0.096403874
107	0x3ce783e7	0.028261138
108	0xbc9a6d29	-0.01885088
109	0x3ea2e1ac	0.318128
110	0xbe9df055	-0.3084742
111	0x3d06c0c9	0.032898698
112	0xbd3cf174	-0.046128705
113	0x3d8385b5	0.06421987
114	0xbc33107b	-0.010929222
115	0xbd6403cc	-0.055667683
116	0xbe8fde76	-0.28099412
117	0xbe529c01	-0.20567323
118	0x3d83ed3c	0.06441733
119	0x3d28b031	0.041183654
120	0x3e28e809	0.16494764
121	0xbc93d2b2	-0.018044803
122	0x3eff35fd	0.49845877
123	0xbd4fd4fb	-0.050740223
124	0x3e51f8ed	0.20505114
125	0x3e101d52	0.14073685
126	0xbe30463d	-0.17214294
127	0x3e7f7c70	0.24949813

encoder_z.fc11.weight f4 [5, 128]
0	0x3c654041	0.01399237
1	0x3d0da67f	0.03458261
2	0x3c55defe	0.013053654
3	0xba577060	-0.00082183443
4	0xbd8085b3	-0.06275501
5	0xbd85a3d8	-0.06525391
6	0xbd25c2bb	-0.040468913
7	0x3b656479	0.0035002513
8	0xba9aaf31	-0.0011801479
9	0xbcc7f3f3	-0.024408316
10	0x3ad53ae1	0.0016268158
11	0xbd1ad74c	-0.03780298
12	0x3e220b46	0.15824613
13	0x3cb0f897	0.021602912
14	0x3ad919af	0.001656344
15	0xbd8facb5	-0.07015363
16	0x3b07d731	0.002072763
17	0x39e4c5af	0.00043634835
18	0xbc16ae6c	-0.009196859
19	0x3b207d93	0.002448891
20	0x3d5b2a41	0.053507093
21	0x3ca3a312	0.019975219
22	0xbdafff35	-0.08593599
23	0x3de18574	0.11011782
24	0xbd8abaa2	-0.06773879
25	0xbca212c5	-0.01978434
26	0x3dab732e	0.08371578
27	0x3a041898	0.0005039065
28	0x3c766c49	0.015040466
29	0xbb015684	-0.0019735405
30	0x3cedaa1e	0.029011782
31	0x3c7dd6eb	0.015493135
32	0xbb77284a	-0.0037713223
33	0x3c162a00	0.009165287
34	0xbd46c07c	-0.04852341
35	0xbcc250b2	-0.02372012
36	0x3a21f355	0.0006177922
37	0xbaf6d7f8	-0.0018832674
38	0xbe5d3443	-0.21601968
39	0x3ba2f087	0.0049725208
40	0x39a0522c	0.000305788
41	0xbcbb559a	-0.022867966
42	0xbde10d3f	-0.109888546
43	0xbadea559	-0.0016986533
44	0xbe116a28	-0.14200652
45	0xbc889f3d	-0.016677493
46	0x3c3882e3	0.011261675
47	0xb91b0f57	-0.00014787666
48	0xbb1900ad	-0.002334635
49	0xbb373931	-0.0027957673
50	0xbd80a992	-0.06282343
51	0x3d723a72	0.05913777
52	0x3ba90790	0.005158372
53	0xbca8c85a	-0.020603348
54	0x3d4d51f1	0.050126974
55	0xbd9eb3c3	-0.077491306
56	0xba535e70	-0.00080630835
57	0xbd46ce49	-0.048536573
58	0xbbd1ac05	-0.00639868
59	0x3cb03611	0.021510156
60	0x3d13dfb9	0.03610203
61	0x3b0703dc	0.0020601666
62	0x3e058d83	0.13042264
63	0x3e142efe	0.14471051
64	0xbdf4e78c	-0.119582266
65	0xbda508c8	-0.080583155
66	0xbc27500e	-0.010211958
67	0xbc118c63	-0.008883568
68	0x3c081578	0.0083059
69	0x3bb76232	0.0055964226
70	0x3bcc4b4e	0.006234563
71	0xbc91de98	-0.017806336
72	0x3a0cc1eb	0.0005369472
73	0xbcd59154	-0.026070274
74	0xbcf4e4f5	-0.029894331
75	0xbced7939	-0.028988468
76	0xbd294a83	-0.041330826
77	0x3c179ff9	0.009254449
78	0x3e1bfdce	0.15233538
79	0xbac4f858	-0.0015027625
80	0x3d69df83	0.057097923
81	0xbb488f00	-0.0030602813
82	0xbc29a68c	-0.010354649
83	0xba882256	-0.001038621
84	0x3c5ca079	0.013465994
85	0xbc50bad7	-0.012739859
86	0xbb1d08e9	-0.002396161
87	0x3c5515ee	0.013005717
88	0x3c912b73	0.017720914
89	0xbb5a8fb2	-0.003334981
90	0xbd5bf0de	-0.053696506
91	0x3b7af19b	0.003829098
92	0xbe1c5f1b	-0.15270655
93	0x3b107264	0.0022040838
94	0xbd6f01c2	-0.058351286
95	0xbcd9fe79	-0.0266106
96	0x3dc46a50	0.0959059
97	0x3d7142e0	0.058901668
98	0xb7ce2cf8	-2.4578054e-05
99	0x3c927d5e	0.017882045
100	0xba3f9338	-0.0007308009
101	0x3abae36d	0.0014258452
102	0x3ddf875b	0.10914489
103	0x3a40f2b2	0.0007360383
104	0xbb883929	-0.0041572046
105	0xbd488136	-0.04895135
106	0x3bd2e8ed	0.0064364583
107	0xba395551	-0.0007069903
108	0xbb692eb6	-0.003558082
109	0xbe635ff1	-0.22204567
110	0x3ca9775f	0.020686803
111	0xbb4e7dee	-0.0031508165
112	0x3ace28c3	0.0015728701
113	0x3b8ea26c	0.0043528583
114	0x3d7abfc0	0.061218023
115	0xba8f6568	-0.0010940256
116	0xbd9fb5ea	-0.07798369
117	0xbd7cd8fe	-0.061730377
118	0xbb640c21	-0.0034797268
119	0x3aed488e	0.0018103288
120	0xbd66bcf8	-0.05633256
121	0xbc4572e0	-0.012051314
122	0xbe5a3f3e	-0.21313187
123	0x3ace6e86	0.0015749491
124	0xbd8224ca	-0.06354673
125	0xbcf40b67	-0.029790593
126	0xbcd5e05d	-0.026107961
127	0x3ae31510	0.0017325003
128	0xbd849ebd	-0.064755894
129	0xbdf824b5	-0.12116376
130	0xbdbea205	-0.093082465
131	0xbc10611a	-0.008812213
132	0xbc9d3e0c	-0.019194625
133	0x3d229bf5	0.039699513
134	0x3c8ebbb0	0.01742348
135	0x3bca7a28	0.006179113
136	0xb7b6d925	-2.1797207e-05
137	0xbe0a730a	-0.13520446
138	0x3c36b041	0.011150421
139	0x3c707749	0.014676877
140	0xbd698b28	-0.057017475
141	0x3e5f29fb	0.21793358
142	0x3b2df9b4	0.002654654
143	0xbd3524de	-0.044224612
144	0x3b5cd7e5	0.003369802
145	0xbc47d81a	-0.012197519
146	0xbdd2386e	-0.10264669
147	0x3b130c25	0.0022437659
148	0x3e475b1e	0.19468352
149	0x3d00fe44	0.031492487
150	0x3d0cbe7f	0.03436136
151	0x3d393798	0.045219034
152	0xbdeed502	-0.11661722
153	0xbdc1f16b	-0.09469875
154	0x3c9ed6db	0.01938956
155	0x3a1d2e4d	0.0005995974
156	0xbdd41058	-0.1035468
157	0xba861566	-0.0010229766
158	0x3dc68dab	0.0969499
159	0xbd9e4cec	-0.077295154
160	0xbaa714e1	-0.0012747311
161	0x3e20c6a1	0.15700771
162	0xbdd0833b	-0.1018128
163	0x3dfcbec1	0.12341071
164	0xbacc8e57	-0.0015606385
165	0x3d1fc029	0.039001618
166	0x3caa865d	0.020816023
167	0xbcca47b2	-0.02469239
168	0xbc02e969	-0.00799022
169	0xbd9b2246	-0.075748965
170	0x3d8b660b	0.068065725
171	0x3c23b111	0.009990946
172	0xba42b46e	-0.0007427399
173	0xbd8c2d38	-0.06844562
174	0x3e35a722	0.17739537
175	0x3c0ca3e4	0.008583996
176	0x3bdc79b0	0.0067283735
177	0xbb7b24f9	-0.0038321598
178	0xbd0868df	-0.033303138
179	0x3cd28fe1	0.025703372
180	0xbe65ce94	-0.22442085
181	0x3c8742d7	0.016511364
182	0xbc92744d	-0.017877722
183	0xbdcd45b7	-0.10023063
184	0x3b0db730	0.002162408
185	0x3daa8bc8	0.083274424
186	0xbe9350a7	-0.2877247
187	0x3e7bba44	0.24582773
188	0x3e05fff9	0.13085927
189	0xbb5ed248	-0.003399985
190	0xbc84211e	-0.016129073
191	0xbda95f66	-0.08270149
192	0x3cfa1644	0.030528195
193	0xbdba9f13	-0.09112372
194	0x3dd2be1f	0.10290169
195	0x3c834d7f	0.016028164
196	0xbe86db81	-0.26339343
197	0xbd8897b0	-0.06669557
198	0xbc21b2ed	-0.009869319
199	0xbd1ea999	-0.03873596
200	0xbc9f4a8f	-0.019444732
201	0x3e1b00ca	0.1513702
202	0xbdbec1e2	-0.09314324
203	0x3c846ec7	0.016166104
204	0xbcb9d9a4	-0.022686787
205	0x3e1890e7	0.14899026
206	0xbda83d67	-0.082148366
207	0x3ad794a1	0.0016447493
208	0xbc5605b0	-0.013062879
209	0x3a5758bb	0.0008214821
210	0x3d2d3412	0.042285986
211	0xba1ca6eb	-0.00059758004
212	0xbd682c3c	-0.05668281
213	0xbe5ba952	-0.2145131
214	0x3b0a7d62	0.0021131863
215	0xbda138e9	-0.07872183
216	0x3e0ee64e	0.13955042
217	0x3bb02dfb	0.005376575
218	0xbead4a2a	-0.33845645
219	0x37c8b55c	2.392631e-05
220	0x3d160d9b	0.03663407
221	0xbbd9f26a	-0.0066512125
222	0xbdef8069	-0.11694414
223	0xbd29a9f1	-0.041421834
224	0xbd087146	-0.03331115
225	0x3e1b58f6	0.15170655
226	0xbac41481	-0.0014959724
227	0x3dacc3b4	0.08435765
228	0xbc110799	-0.008851909
229	0xbc53079f	-0.012880235
230	0x3d686372	0.056735463
231	0x3b77552b	0.0037739973
232	0x3997ee63	0.00028978576
233	0xbc676c11	-0.014124886
234	0x3de7e36e	0.11322676
235	0xbb25582e	-0.002522956
236	0x3c8dc442	0.017305497
237	0x3ce0e894	0.027454652
238	0xbd255615	-0.040365297
239	0x3b2e17cc	0.0026564477
240	0x3c14a584	0.009072665
241	0xbc199e41	-0.00937611
242	0x3d162f2b	0.036666077
243	0x3c2f1a48	0.010687418
244	0xbdca643a	-0.09882398
245	0x3e1366d0	0.14394689
246	0x3c9e7680	0.019343615
247	0x3c0375c2	0.008023681
248	0xbd2e352d	-0.04253118
249	0x3e0807c0	0.13284206
250	0xbd199117	-0.037491884
251	0x3bf5b634	0.007498527
252	0x3e1ee30e	0.15516302
253	0xbd8c98e4	-0.06865099
254	0xbdbf9e11	-0.09356321
255	0x3e2629fa	0.1622695

encoder_z.fc11.bias f4 [5]
0	0xbcf10dda	-0.02942555
1	0x3dade28d	0.08490477
2	0xbd6275c2	-0.055288084
3	0x3d8cc2db	0.06873103
4	0xbd85c158	-0.06531018

encoder_z.fc12.weight f4 [5, 128]
0	0x3d6b1239	0.057390425
1	0x3d53c765	0.05170383
2	0x3d234b67	0.03986683
3	0xba0d7357	-0.000539591
4	0xbd2d2d3e	-0.042279474
5	0x3c649263	0.013950917
6	0x3dd7cb5f	0.10536837
7	0x3d4c342a	0.049854435
8	0xbb6c4d62	-0.0036056866
9	0xbbd30f33	-0.006441021
10	0xbb9a6f7f	-0.0047129984
11	0x3c1be71d	0.009515551
12	0x3e514de3	0.20439868
13	0x3d284fb5	0.04109164
14	0x3c17c9ab	0.00926439
15	0xbe20f384	-0.15717894
16	0xbc6c691a	-0.014429355
17	0x3a17b9c5	0.00057878747
18	0x3c8f67a4	0.017505474
19	0x3c33c959	0.010973298
20	0x3d0557d5	0.032554466
21	0x3c8d638a	0.017259378
22	0x3dfe0885	0.12403969
23	0x3d3c7bf9	0.046016667
24	0x3db19a6f	0.08672034
25	0xbc8d8410	-0.017274886
26	0x3e31c9ff	0.17362212
27	0x39a840be	0.00032091694
28	0xbd003a58	-0.03130564
29	0xbb2a4f92	-0.002598737
30	0x3c143a48	0.009047098
31	0xbd2f1062	-0.042740233
32	0x3c3efae3	0.011656496
33	0x3d7eb693	0.062185835
34	0x3da663e8	0.08124524
35	0x3cf52ec8	0.029929534
36	0xbbe4c7bd	-0.0069818185
37	0xbd06ef76	-0.03294321
38	0x3e6f0e03	0.23345189
39	0xbc9a446a	-0.01883145
40	0xbb532ed6	-0.0032223961
41	0xbc0f0119	-0.008728289
42	0x3db86a31	0.090046294
43	0xbb1cb852	-0.0023913574
44	0xbd3f18d2	-0.04665453
45	0x3b33b67a	0.0027421997
46	0xbe6627c3	-0.22476105
47	0xbc212c3d	-0.009837207
48	0x3a7c93b0	0.0009635044
49	0xbc403662	-0.011731716
50	0xbc7b1cb8	-0.015326671
51	0xbe191c59	-0.1495222
52	0xbd6d97cb	-0.05800609
53	0xbd62a607	-0.055334117
54	0x3d6b13f8	0.05739209
55	0xbcf94e9c	-0.030432992
56	0x3b240a00	0.0025030375
57	0x3c887c5d	0.016660864
58	0x3cb89869	0.022533612
59	0x3cdb7bfe	0.026792523
60	0xbc37a88c	-0.011209618
61	0x3b7ccdff	0.0038574932
62	0x3cc0a84f	0.023517756
63	0xbbffcf7e	-0.0078067174
64	0x3c9e1d59	0.019301103
65	0xbdd145f0	-0.10218418
66	0xbd02a91e	-0.031899564
67	0x3c32eff8	0.010921471
68	0x3d0fbdac	0.035092995
69	0x3d15bb76	0.03655573
70	0xbc4a6fa5	-0.01235572
71	0xbd9a177a	-0.07524009
72	0x3c10ebaa	0.008845249
73	0xbd328acf	-0.04358941
74	0xbd0688e5	-0.032845397
75	0x3c84c0cf	0.01620522
76	0x3d0a4076	0.03375288
77	0xbd798239	-0.060915206
78	0xbe3c7042	-0.18402198
79	0xbb9790b3	-0.004625404
80	0x3d9747f5	0.073867716
81	0x3a8950cd	0.0010476351
82	0xbd1ddaef	-0.03853887
83	0xbc0a7ccb	-0.0084526045
84	0xbe36d4ea	-0.17854658
85	0xbc0b2f2f	-0.008495136
86	0x3c1c1a9e	0.00952783
87	0x3c2408e5	0.010011886
88	0x3d81fa23	0.06346538
89	0xbbec622f	-0.007213853
90	0xbc8bbbcd	-0.017057324
91	0x390a0147	0.00013161181
92	0xbde00011	-0.10937513
93	0x3ae2e356	0.0017310183
94	0x3ddc62cb	0.10761031
95	0xbdbb1037	-0.09133952
96	0xbe090d80	-0.13384056
97	0xbe60ed25	-0.21965463
98	0x3a10e3b0	0.0005527092
99	0xbe2c691d	-0.16836973
100	0x3b9b1a91	0.0047333916
101	0x3b4bbeee	0.0031089145
102	0xbc639a9c	-0.013891842
103	0xba8e79c9	-0.0010870035
104	0xbb9634d0	-0.0045839325
105	0x3b753fe5	0.0037422117
106	0xbccb5293	-0.024819648
107	0x3b873f41	0.0041274135
108	0x3c84e97c	0.016224615
109	0xbdb404ca	-0.08789976
110	0xbdaa8d42	-0.08327724
111	0xbc081723	-0.0083062975
112	0x3b5c608a	0.0033626878
113	0x3b6aa8e0	0.0035806224
114	0x3cb7eeb2	0.022452686
115	0x3bf5c432	0.007500195
116	0x3b5ea8fd	0.0033975237
117	0xbd90826d	-0.07056127
118	0xbc45f190	-0.012081519
119	0xbbf23ce4	-0.0073925126
120	0xbdd870ad	-0.10568366
121	0x3d6d4dfe	0.057935707
122	0xbe512fcd	-0.20428391
123	0xbb67d736	-0.0035376078
124	0xbd484923	-0.048897874
125	0xbd9e7513	-0.07737174
126	0xbb1d2c9b	-0.0023982886
127	0xbd14d38a	-0.036334552
128	0xbd361844	-0.044456735
129	0x3d210d39	0.03931925
130	0x3d08f024	0.03343214
131	0x3a928e93	0.0011181406
132	0x3c072048	0.008247443
133	0xbd1fa23d	-0.03897308
134	0x3da3205f	0.07965159
135	0x3cd83f08	0.026397243
136	0x3a3c5137	0.0007183733
137	0x3df019dd	0.11723683
138	0xbab1f35d	-0.0013576556
139	0xbb901480	-0.004396975
140	0x3d4de9d8	0.05027184
141	0xbd60e2d1	-0.05490381
142	0x3b84a171	0.0040475656
143	0xbd31c4df	-0.04340064
144	0x3b21a92c	0.0024667485
145	0xb96c6b02	-0.00022546577
146	0x3cefc652	0.029269371
147	0x3c5058df	0.012716501
148	0xbc63b4b5	-0.013898064
149	0x3d77f333	0.060534667
150	0x3daafc32	0.08348884
151	0x3bfad7dc	0.007655127
152	0xbc95eda0	-0.018301785
153	0xbd234594	-0.039861277
154	0x3da98250	0.08276808
155	0x3c3e6f25	0.011623179
156	0x3d231c02	0.039821632
157	0x3b55c631	0.0032619352
158	0x3e217848	0.1576854
159	0xbcbe5f4a	-0.023238797
160	0x3bc4ef1a	0.0060099484
161	0x3dfa785d	0.12229989
162	0xbbe6835a	-0.0070347013
163	0xbd928334	-0.07153931
164	0x3b692e1f	0.0035580469
165	0x3d40c553	0.047063183
166	0xbd006ec1	-0.031355623
167	0xbd0d27c3	-0.034461748
168	0x3a967e22	0.0011481682
169	0xbe010c7d	-0.1260242
170	0x3d4c17f8	0.049827546
171	0xbb86a84c	-0.004109418
172	0x3c435e9f	0.011924415
173	0xbd107a61	-0.03527296
174	0xbe5bd186	-0.21466646
175	0x3ad9e7f3	0.0016624912
176	0xbb52294f	-0.003206808
177	0xbcabed19	-0.02098708
178	0x3c821b07	0.015882028
179	0xbdd88018	-0.10571307
180	0x3dea4e90	0.11440766
181	0x3c93843e	0.018007394
182	0x3c5b59dc	0.013388123
183	0xbcfd924c	-0.030953549
184	0x3bdf0b0b	0.0068067363
185	0x3d5434e2	0.051808245
186	0xbe9213d6	-0.2853076
187	0x3e67ae9d	0.22625203
188	0xbcde240e	-0.027116802
189	0xbc4b2c80	-0.012400746
190	0xbd91f667	-0.07127076
191	0xbd2b3183	-0.041795265
192	0x3d9223ed	0.071357585
193	0xbda87805	-0.08226017
194	0xbc933f0f	-0.017974405
195	0x3e03b841	0.12863256
196	0x3eb5128e	0.3536572
197	0xbe22b434	-0.15889055
198	0x3c05d054	0.008167345
199	0xbd692d62	-0.056928046
200	0xbc6491b4	-0.013950754
201	0xbde819e6	-0.11333065
202	0xbd0e26a6	-0.034704827
203	0xbd0bfc86	-0.034176372
204	0x3b2b931f	0.002618022
205	0xbe24e365	-0.16102369
206	0xbd443cb2	-0.047909446
207	0x3ca728a6	0.020405125
208	0x3d256ff2	0.040389962
209	0x3c1c0684	0.009523038
210	0xbcdd3750	-0.027003914
211	0xba7adfc5	-0.00095700874
212	0xbe0893e2	-0.13337663
213	0xbde5bac8	-0.11217266
214	0xb9bb71b3	-0.00035752132
215	0xbc70c0d2	-0.014694409
216	0x3e44c469	0.1921555
217	0x3b44d9fb	0.0030037153
218	0xbe3561ff	-0.17713164
219	0xbbc16e11	-0.0059030135
220	0xbb11a886	-0.0022225692
221	0x3afc8e9d	0.0019268576
222	0x3c1b335f	0.009472697
223	0xbe5af4cf	-0.2138245
224	0xbb967dda	-0.0045926394
225	0xbe62aea8	-0.22136939
226	0x3bbe77e6	0.005812633
227	0xbdd6bb57	-0.10484951
228	0x3c546e40	0.012965739
229	0xbc1a6e24	-0.009425674
230	0x3c90c190	0.017670423
231	0x3c057d4d	0.00814755
232	0x3bdb4ca6	0.006692487
233	0x3d100192	0.035157748
234	0xbdfdf6f3	-0.124006175
235	0x3c930dc0	0.017950892
236	0x3cbe8e69	0.023261266
237	0x3bbee4aa	0.0058255987
238	0x3c8b85a1	0.017031493
239	0xbacabc9a	-0.0015467585
240	0x3af607ab	0.0018770596
241	0x3c6252be	0.013813673
242	0x3cf88053	0.030334627
243	0xb8f02233	-0.00011450462
244	0x3da2ae2f	0.07943379
245	0xbdeb087d	-0.114762284
246	0x3ba40cef	0.0050064246
247	0xbc19befb	-0.009383912
248	0x3bad30cf	0.0052853595
249	0x3dbed6f6	0.09318344
250	0xbda45156	-0.08023326
251	0xbae81152	-0.0017705357
252	0xbe324f65	-0.17413099
253	0xbd8d37eb	-0.06895431
254	0xbcb1d61a	-0.021708537
255	0xbe0906e5	-0.13381536

encoder_z.fc12.bias f4 [5]
0	0xbe13d877	-0.14438044
1	0xbe2bd96e	-0.16782162
2	0x3e276e67	0.16350709
3	0xbe26166b	-0.1621949
4	0x3d2f86ff	0.04285335

decoder.fc_layers.0.weight f4 [128, 5]
0	0x3cfc0985	0.030766258
1	0x3cf9f280	0.03051114
2	0x3cf0eefe	0.029410835
3	0x3eca4b1c	0.3951043
4	0x3d57d313	0.05269153
5	0x3f4030ff	0.7507476
6	0x3eaf7efb	0.34276566
7	0x3d0dabf2	0.034587808
8	0xc000b2d7	-2.0109155
9	0x3d5d2c50	0.053997338
10	0x3eaaad28	0.33335233
11	0x3e5db852	0.21652344
12	0x3a1dbf67	0.0006017596
13	0xbe15bea7	-0.1462351
14	0x3f08cd25	0.53438026
15	0xbfc92335	-1.5713869
16	0xbec90b0a	-0.39266235
17	0x3c8c687b	0.017139664
18	0x3eab6ee5	0.33483043
19	0xbe86e469	-0.26346138
20	0xbe3b464a	-0.18288532
21	0x3c751e23	0.014960798
22	0x3befe3a7	0.0073208394
23	0x3b04f146	0.0020285412
24	0x3978f380	0.00023741834
25	0xbb60d2a5	-0.0034305241
26	0xbcf2940a	-0.029611606
27	0x3c8755e4	0.016520448
28	0x3e9d58ff	0.3073196
29	0x3ca89dac	0.020582996
30	0xb88c635e	-6.694229e-05
31	0xba803ae6	-0.0009783178
32	0xbb09736e	-0.0020973342
33	0xbb9b1fa6	-0.0047339974
34	0x3c1c2e1f	0.0095324805
35	0xbef175e2	-0.4716025
36	0x3e43686b	0.19082801
37	0xbb52feec	-0.0032195402
38	0xc0482a13	-3.127568
39	0x3d87d49d	0.0663235
40	0xbb9b0dc7	-0.004731867
41	0x3a907e40	0.0011023954
42	0x3bd33933	0.0064460277
43	0xb9e0a8af	-0.00042850288
44	0xbab9a0d9	-0.0014162316
45	0x40109c02	2.259522
46	0xbe881b04	-0.2658311
47	0x3c10b6d3	0.008832651
48	0xbf14e5fa	-0.58163416
49	0xbd2f3aac	-0.042780563
50	0x3deaaab0	0.11458337
51	0x3dc14119	0.094362445
52	0xbbecbad0	-0.007224418
53	0xbe94261a	-0.2893532
54	0xbbde7e64	-0.0067899693
55	0xbb161413	-0.0022900149
56	0x3bbadad9	0.005702358
57	0xbc234c4b	-0.00996692
58	0xbb0ec8aa	-0.0021787086
59	0x3c656bb1	0.014002726
60	0xbd166403	-0.036716472
61	0xbd2b38db	-0.04180227
62	0xbb598671	-0.0033191706
63	0xbea3d697	-0.31999657
64	0xbb96c520	-0.004601136
65	0xc00a6c3c	-2.162856
66	0x3dd46372	0.1037053
67	0x3cbdb8a9	0.023159342
68	0x3f295016	0.66137826
69	0xbba10105	-0.0049134516
70	0xbea739f9	-0.32661417
71	0x3ccffb7d	0.025388474
72	0xbc7ce859	-0.015436255
73	0x3d4b450f	0.049626406
74	0xbc73ad01	-0.01487279
75	0xbf7cce36	-0.9875215
76	0x3f2208c4	0.63294625
77	0xba2dc57d	-0.00066288543
78	0x3ef2ab61	0.47396377
79	0x3d93f5ee	0.07224642
80	0x39e90d91	0.0004445133
81	0xba28115c	-0.0006411278
82	0xbc12dc87	-0.008963711
83	0x3ba511e4	0.005037533
84	0xbc40769a	-0.011747027
85	0x3c194450	0.009354666
86	0xbebfaf7c	-0.3743857
87	0xbaf102a1	-0.0018387624
88	0x3f79c26e	0.975623
89	0xbd16ab3e	-0.036784403
90	0xbf04a970	-0.5182104
91	0xbeb9d254	-0.3629328
92	0xbc5810b3	-0.013187575
93	0x3f841241	1.0318071
94	0xbde1eba6	-0.110312745
95	0x3ded0469	0.11573107
96	0xbe650d5e	-0.2236838
97	0xbca46d29	-0.020071583
98	0xbffb6924	-1.9641461
99	0xbe511dcf	-0.20421527
100	0x3e8435e8	0.25822377
101	0xbf3e9c3d	-0.7445715
102	0xbc26733c	-0.01015931
103	0xc05cd2f6	-3.450376
104	0x3e8052d2	0.25063187
105	0xbd2e5e3f	-0.04257035
106	0xbbc8e4e3	-0.006130801
107	0xbc1f98ed	-0.00974105
108	0xbd092543	-0.0334828
109	0x3c592f8b	0.013255964
110	0xbf2a1912	-0.66444504
111	0x3f172457	0.59039825
112	0xbc4ec52b	-0.012620251
113	0x3d4ae320	0.04953301
114	0xbe1192f8	-0.1421622
115	0xbee4c6a7	-0.4468281
116	0xbf1a9d49	-0.6039625
117	0xbc63b62c	-0.013898414
118	0x3d3539d9	0.04424462
119	0x3d96d349	0.07364518
120	0xbf1fe11c	-0.62452865
121	0xbe4a892d	-0.19778891
122	0xbbae02ea	-0.005310406
123	0xbf1b030f	-0.6055154
124	0x3e3dae5d	0.18523546
125	0x3fed1e17	1.8524808
126	0x3f058b88	0.5216603
127	0x3b72b451	0.0037033746
128	0x3f01fc3d	0.5077551
129	0xbed2aff6	-0.41149873
130	0xbbd4e952	-0.0064975405
131	0xbb9f7aba	-0.004866925
132	0x3c4affaa	0.012390057
133	0x3aa12043	0.001229294
134	0xbb93dc2f	-0.004512332
135	0xba576229	-0.0008216226
136	0x3a5d5482	0.00084430736
137	0xbc6fd4a5	-0.014638101
138	0xbbd0ff9a	-0.0063781263
139	0x3c323d60	0.010878891
140	0x3f9a6b6a	1.206403
141	0x3e8b0ba8	0.2715733
142	0xbc3c49b3	-0.011492181
143	0xbed099fa	-0.40742475
144	0xbda6e204	-0.08148578
145	0xbb70de43	-0.0036753572
146	0xbc74c544	-0.01493961
147	0xbca0c55d	-0.01962536
148	0xba6d74ca	-0.00090582354
149	0x3c8c7788	0.01714684
150	0xbde656d2	-0.112470284
151	0xbe0a3ee3	-0.13500552
152	0x3c09b064	0.008403871
153	0x3fca0694	1.5783257
154	0xbde75b4a	-0.11296709
155	0xbb48d2cc	-0.0030643223
156	0x3bec7145	0.007215651
157	0xba2e979e	-0.0006660166
158	0xbbf9cf58	-0.0076235943
159	0xbbace74e	-0.005276597
160	0xbd56215c	-0.052277908
161	0xbd2ef3a8	-0.042712837
162	0xbbc99d37	-0.0061527747
163	0xbf0ea6b6	-0.5572313
164	0xbd4987d7	-0.049201813
165	0xbf154a9a	-0.5831696
166	0x3f024d3b	0.50899094
167	0xbc0bdadb	-0.008536066
168	0xc065a877	-3.5884073
169	0x3cb6ea3a	0.022328485
170	0xbebcc941	-0.36872295
171	0x3e881220	0.26576328
172	0x3c906740	0.017627358
173	0x401a4b91	2.4108622
174	0xbdd69560	-0.1047771
175	0xbface29c	-1.3506656
176	0xbe9363d9	-0.28787115
177	0xbcaa0697	-0.020755095
178	0x3e818121	0.2529383
179	0x3d449740	0.047995806
180	0xbe0b2e98	-0.13591993
181	0x3d60e694	0.054907396
182	0xbc483497	-0.01221957
183	0xbff13b37	-1.8846196
184	0x3e897b26	0.26851767
185	0xbe6ce086	-0.23132524
186	0xbeddaa97	-0.43294212
187	0xbbbee49a	-0.0058255913
188	0x3c106eb6	0.008815458
189	0xbeada971	-0.33918336
190	0xbd6d8522	-0.057988293
191	0x3f498a39	0.78726536
192	0x3b2a8de5	0.0026024517
193	0xbefefebe	-0.49803728
194	0x3ce2820b	0.0276499
195	0x3fdbfef1	1.7187177
196	0xbeb40802	-0.3516236
197	0xbb01f120	-0.001982756
198	0x3f6b2d00	0.9186554
199	0x3d3d091e	0.046151273
200	0xbf597b32	-0.84953606
201	0xbf38b856	-0.72156274
202	0xbc6c1821	-0.01441005
203	0xbf773512	-0.96565354
204	0xbc376d97	-0.011195562
205	0xbe915f1f	-0.28392884
206	0xbe12ea91	-0.14347292
207	0x3cbf732d	0.02337035
208	0x3f0f9b71	0.5609656
209	0xbe7d8398	-0.2475723
210	0xbf0c42ac	-0.54789233
211	0xbe50f01b	-0.20404093
212	0x3c8d8cbe	0.017279025
213	0xbdfc55bb	-0.12321039
214	0x3ad2bde3	0.0016078319
215	0xb9f1925d	-0.0004607615
216	0xbc2bcf44	-0.010486428
217	0xbb19dcb3	-0.0023477494
218	0x3afa6f63	0.0019106682
219	0xba86695d	-0.0010254789
220	0x3d6c59ff	0.057703014
221	0xbd570d0a	-0.05250267
222	0x3c869928	0.016430452
223	0x3ec32f36	0.38121957
224	0xbe025d17	-0.12730823
225	0xbcbf1909	-0.023327367
226	0x38b2ace9	8.5199084e-05
227	0xbb1d79e7	-0.0024028958
228	0xbe9c3110	-0.30506182
229	0xbcd9809b	-0.026550582
230	0xbd194f8e	-0.037429385
231	0x3df5f61a	0.12009831
232	0x3b5e86fc	0.0033954969
233	0xbf4b6c19	-0.7946182
234	0x3d11f196	0.035630785
235	0x3ef95ad6	0.48702115
236	0x3d501f18	0.050810903
237	0xbd1bc72d	-0.038031746
238	0x3ed3ccdc	0.41367233
239	0xbe560ac1	-0.2090254
240	0x3e7ac5d0	0.24489522
241	0x3f04b685	0.51841
242	0xbcd4d570	-0.025980681
243	0xbf4866dd	-0.78281957
244	0xbe1da6d5	-0.15395673
245	0xbe257204	-0.16156775
246	0xbe271d44	-0.16319758
247	0xbc6f2cee	-0.014598114
248	0xbf1071c7	-0.5642361
249	0x3e391c28	0.18077147
250	0xbecb91cb	-0.3975967
251	0x3e383f0a	0.17992797
252	0x3baec379	0.0053333608
253	0xbe8dd8bc	-0.27704418
254	0xbe983a33	-0.29731902
255	0xbf6c7f75	-0.92381984

decoder.fc_layers.0.bias f4 [128]
0	0xbef33349	-0.47500065
1	0xbf0eda1a	-0.55801547
2	0x3f46fe69	0.7773195
3	0xbee90537	-0.4551179
4	0xbe6dfd73	-0.23241214
5	0xbeaa5b24	-0.3327266
6	0xbbcdb296	-0.0062773926
7	0xbeab6cc9	-0.33481434
8	0xba89a75f	-0.0010502151
9	0x3ee30e13	0.44346675
10	0x3ef7b8f8	0.48383307
11	0xbae05a78	-0.0017116806
12	0x3eb33867	0.3500397
13	0x3f1e379f	0.6180362
14	0xbed411d8	-0.41419864
15	0x3f06fe15	0.5273145
16	0x3a4b9726	0.00077663583
17	0x3f494cda	0.7863289
18	0xbebb2e5c	-0.36558807
19	0x3f54de4f	0.83151716
20	0x3f3bdbd9	0.73382336
21	0xbb5bb774	-0.0033526095
22	0xbfa5934f	-1.293558
23	0x3f928c71	1.1449109
24	0x3f6bf468	0.9216981
25	0x3f293ae4	0.66105485
26	0x3a0cbe92	0.00053689734
27	0x3bad4275	0.0052874633
28	0x3f63aa58	0.889318
29	0xba83dcd2	-0.0010060316
30	0xbf07dddc	-0.53072906
31	0x3a9e8aff	0.0012095867
32	0x3efcb1b4	0.49354327
33	0x3e61e0ea	0.22058454
34	0xbf7f11d0	-0.99636555
35	0xbfba9d31	-1.4579221
36	0x3e8bc480	0.27298355
37	0x3f052325	0.5200675
38	0x3f65c342	0.89751065
39	0xbf70ca07	-0.9405827
40	0xbdcd0f28	-0.100126565
41	0xbf483e18	-0.7821975
42	0xbf490d9c	-0.7853639
43	0x3b896879	0.0041933623
44	0xbf013721	-0.50474745
45	0x3e288e84	0.16460615
46	0xbee3034b	-0.4433845
47	0xbe5bae40	-0.2145319
48	0xbf95ba01	-1.1697389
49	0x3f95cf11	1.1703817
50	0x3e40753f	0.18794726
51	0xbf4128ba	-0.7545277
52	0xbf15b5f7	-0.5848078
53	0x3be60ea8	0.00702079
54	0xbf49e394	-0.7886288
55	0x3f9d3fb3	1.2285064
56	0x3e9b8e9d	0.30382243
57	0x3f005113	0.5012371
58	0x3f45ebe2	0.77313054
59	0xbe3ecff7	-0.1863402
60	0xbed167a7	-0.40899393
61	0xbe467301	-0.19379808
62	0x3f785893	0.97010154
63	0x3f856b57	1.0423383
64	0xbf81f55c	-1.0153003
65	0xbf8b17ae	-1.0866601
66	0xbf37b91d	-0.71766835
67	0xbfbf7ffa	-1.496093
68	0xbf965d80	-1.1747284
69	0xbf80df8f	-1.0068225
70	0xbf8cd901	-1.1003724
71	0x3e86685d	0.26251498
72	0xbf467903	-0.775284
73	0x3f6cc349	0.9248548
74	0xbed76a23	-0.42073163
75	0xbbe0c4d4	-0.0068594012
76	0xbf38154c	-0.71907496
77	0x3f64244f	0.891179
78	0xbf9c8c9d	-1.2230412
79	0x3f930ded	1.1488625
80	0x3f6177dc	0.88073516
81	0x3f8dd0bb	1.1079324
82	0xbf24f0d8	-0.6443
83	0xbeb85c36	-0.3600785
84	0x3e8b75a8	0.27238202
85	0x3f43fb7b	0.76555604
86	0xbeeb67c0	-0.45977592
87	0xbf886366	-1.0655334
88	0x3f0b3c24	0.5438864
89	0xbbc13766	-0.0058964966
90	0xbf911511	-1.1334554
91	0x3ac469a1	0.0014985093
92	0xbb341067	-0.0027475597
93	0x3b368fd9	0.0027856736
94	0xbf8aac17	-1.0833768
95	0xbfa81a29	-1.3132983
96	0x3fa19266	1.2622802
97	0xbee8bebd	-0.45458022
98	0xbf004c23	-0.50116175
99	0xbca3318a	-0.019921083
100	0x3fa1f378	1.2652426
101	0x3f5c91be	0.86159885
102	0xbbb59a23	-0.005542056
103	0xbf42e546	-0.76131094
104	0xbf47a500	-0.77986145
105	0xbf9bf802	-1.2185061
106	0x3f8b7bea	1.089719
107	0xb927aa4a	-0.00015989799
108	0x3b0560c6	0.002035187
109	0xba3ad4eb	-0.0007127064
110	0xbfadf3da	-1.3590043
111	0xbeecf674	-0.4628178
112	0x3f94ea77	1.1634053
113	0xbf434622	-0.7627889
114	0x3c27f1a3	0.010250482
115	0xbecc7ba7	-0.3993809
116	0x3f0d544b	0.55206746
117	0x3ae1c835	0.0017225804
118	0x3ed04823	0.40680036
119	0xbee89b91	-0.45431188
120	0x3ece0114	0.40235198
121	0x3f98a26e	1.192457
122	0x3f1d1564	0.61360765
123	0xbb02b41f	-0.0019943786
124	0xbf6a67bd	-0.9156454
125	0xbde0f1ac	-0.10983595
126	0x3ed72f6d	0.4202837
127	0xbed4750c	-0.4149555
